data/rnd_scale=1000_no_norm/rnd_scale=1000_no_norm_s10/pyt_save/model.pt (torch_old, 59768 bytes, 16 tensors)

weight f4 [64, 2]
000000 9c a8 ba be 73 f1 23 40 2e 2c df be 0e 85 51 40
       -0.36456764 2.561612 -0.43588394 3.273746
000010 91 f6 d5 be b9 e3 1c c0 88 62 11 3e 86 ea 5d 40
       -0.41789678 -2.451399 0.14197743 3.4674392
000020 91 c2 4d 3d 30 2d 18 40 da 89 c7 bd 9c ac 35 40
       0.05023438 2.377758 -0.0974309 2.8386602
000030 7d 0b 8a 3e 81 c2 0f 40 37 a8 03 3e 74 18 42 40
       0.2696189 2.2462466 0.12857138 3.0327425
000040 04 de c7 be 65 33 40 40 c0 e3 d4 3d e0 01 1f 40
       -0.39036572 3.0031369 0.10395002 2.4844894
000050 d0 9a 85 3c c7 f7 30 c0 e5 af 46 bf c9 51 53 c0
       0.016309172 -2.7651231 -0.77612144 -3.3018668
000060 13 2d 37 bf 42 ab 29 c0 7d ac 94 bf 51 29 97 3e
       -0.7155315 -2.6510777 -1.1615139 0.2952371
000070 df 5f a0 bf c7 ec 9a bf 9a 3c d5 3e 89 e9 2f 40
       -1.2529258 -1.2103509 0.41647798 2.7486289
000080 08 6b b0 3e 4e 68 28 40 16 30 0c 3f c2 c2 07 c0
       0.34456658 2.6313663 0.54760873 -2.121262
000090 83 3f 69 3f 80 c4 17 bf aa 16 44 3f ee 3a de bf
       0.91112536 -0.5928421 0.7659708 -1.7361734
0000a0 8c a1 19 3f 9c e1 27 40 55 a3 a8 bd 7d de 40 c0
       0.60012126 2.623145 -0.08234278 -3.0135796
0000b0 79 ba 84 3d 44 7d 29 c0 1f 56 22 3d b1 1c 54 40
       0.06480879 -2.6482706 0.039632913 3.3142512
0000c0 67 df 30 bf 5e e4 d4 bf ee 43 42 bf c2 38 f0 3f
       -0.69090885 -1.6632192 -0.758849 1.8767321
0000d0 24 c5 72 bf 79 07 43 bf 26 f8 3b be 28 89 0b c0
       -0.9483206 -0.7618328 -0.1835638 -2.1802464
0000e0 14 f1 87 bd b5 21 26 40 64 8b 23 3f 37 3e 38 40
       -0.06637779 2.5958073 0.6388457 2.8787973
0000f0 ca 18 3c bf 74 bd d2 3f fc 65 b7 bd 19 f1 47 40
       -0.73475325 1.6464067 -0.08954999 3.1240904
000100 c5 4f 0a 3d 47 9b 94 3f 93 8f df 3e a6 94 bf 3f
       0.03376748 1.1609887 0.43664226 1.4967239
000110 27 1b 39 bf e1 47 b8 3f b0 1d 89 3f 22 19 6d 3f
       -0.72307056 1.4396936 1.0712185 0.92616475
000120 6d 5c 52 bf a1 d7 16 3f 0a 03 3b bf 31 9f eb bf
       -0.8217228 0.58922774 -0.7305151 -1.8407956
000130 cd 05 80 bf f0 e1 24 3f ae ef ce bd ee 26 46 c0
       -1.000177 0.64407253 -0.10104309 -3.096126
000140 93 1a 55 bf 02 9f 0e 40 0f c1 96 3e 80 b5 2a 40
       -0.83243674 2.228455 0.29444167 2.667328
000150 4b ab 66 3f df 47 5d bf 65 eb 55 be c2 01 61 40
       0.9010512 -0.8643779 -0.20890577 3.5157323
000160 d3 1a 59 bf 38 22 0e c0 8a a7 4d bf d9 49 77 40
       -0.84806556 -2.2208385 -0.8033377 3.8638823
000170 65 bb 30 3f c6 b3 af be 7b 37 3b bf 7d f1 b8 bd
       0.6903594 -0.34316844 -0.7313153 -0.09030435
000180 05 3f 9a be f0 4f 4b 40 82 7a d2 be 9a bf 1b c0
       -0.30126205 3.176754 -0.4110909 -2.4335694
000190 93 76 c7 bd d1 78 4c 40 a6 ab 98 3f 4d 88 10 3f
       -0.09739413 3.194874 1.1927383 0.5645798
0001a0 fd d7 ef be 34 2a 5a 40 5a c9 1c 3e b6 e6 40 40
       -0.46844473 3.4088259 0.15311185 3.0140815
0001b0 62 96 49 be 32 fc 19 3e f7 50 27 3f ba c9 1d 40
       -0.19686273 0.15037611 0.6535792 2.4654374
0001c0 83 70 8e 3f a6 b4 24 3f dc ca 83 3f 75 28 fa bd
       1.1128086 0.6433815 1.0296283 -0.12214748
0001d0 f5 b8 1e be 4b d7 29 40 8d 8c cd be 21 fe 19 bf
       -0.15500243 2.6537654 -0.40146294 -0.60153395
0001e0 10 f8 5f 3f c3 bc 33 40 08 08 08 bf e4 8f 15 c0
       0.8748789 2.808396 -0.53137255 -2.3369074
0001f0 d2 b7 5c 3f a5 0d c7 3e d8 ee 45 bf c1 08 d4 bf
       0.8621799 0.38877597 -0.7731757 -1.6565171

bias f4 [64]
000000 b6 7c 18 bf 1c 3e c9 bd 9f 1e c9 bd 8a 9f 66 3d
       -0.59565294 -0.098262995 -0.09820294 0.056304492
000010 3b 54 23 be 13 a7 c5 bd b1 95 c6 be 53 7b e0 be
       -0.159501 -0.096510075 -0.3878608 -0.4384409
000020 04 48 ee 3d dd 94 1b 3f b6 bd 0a bf 74 f7 44 bf
       0.1163483 0.6077402 -0.54195726 -0.76940084
000030 14 33 be be da a5 10 3f b2 d5 1b 3f 6e 2b 11 bf
       -0.37148345 0.5650307 0.6087295 -0.56706893
000040 05 5c 36 3e d4 fe 43 3e 46 94 2f 3f 43 25 f2 3c
       0.1780854 0.19140178 0.6858562 0.029558783
000050 b3 4c 6e 3e ed 10 a7 be 01 ec 17 bf c9 29 94 3d
       0.23271446 -0.326301 -0.5934449 0.072345324
000060 36 ad d3 be 80 f8 65 be 65 32 75 be a5 4a 1c bf
       -0.41343087 -0.22458076 -0.23945005 -0.610514
000070 2c fe c1 3e 04 77 1d 3f 7a 00 94 3e b1 38 c8 3d
       0.3788923 0.6150973 0.28906614 0.09776438
000080 97 a6 40 bf c9 97 18 bf c0 82 44 be 62 e9 9f bd
       -0.75254196 -0.59606606 -0.19190502 -0.07808186
000090 f8 ab 2a bf 08 e5 d0 3e 33 be 18 bf d1 89 7f bd
       -0.66668653 0.40799737 -0.5966522 -0.06238729
0000a0 97 00 33 bf 65 2e 50 3e af a8 54 3e 3e 52 c4 3e
       -0.69922775 0.20330198 0.20767473 0.38343996
0000b0 33 64 c7 3d e7 ac 12 bf d3 70 32 3f 76 43 28 bf
       0.09735908 -0.5729508 0.69703406 -0.6572794
0000c0 7f d2 6d 3e 19 6c 11 bf dd 5d af 3e c9 c2 b3 3e
       0.23224829 -0.5680557 0.342513 0.35109547
0000d0 53 98 41 3d 6c 62 f3 bd dc 2c 44 3f 35 dd 3b 3f
       0.04726441 -0.11884007 0.7663095 0.7338441
0000e0 b9 07 80 3d f2 88 c6 bd ce 34 91 3d de e4 fe 3e
       0.06251473 -0.09694089 0.0709015 0.49783987
0000f0 45 cb 4c 3f 7a 43 0f 3f 85 58 c7 3e c1 60 96 3d
       0.79997665 0.55962336 0.38934723 0.07342673

weight f4 [64, 64]
000000 03 7c 35 be 2b 43 0a bf 2e 3e bc 3e 9a 24 8a bf
       -0.17723088 -0.5400874 0.3676619 -1.079242
000010 29 41 15 be c3 a6 f9 be 2b e7 29 be fe 2f 2f be
       -0.14575638 -0.48760042 -0.1659209 -0.17108151
000020 27 10 85 be aa ab e9 3a 5e 0d ee 3d f4 cd 4f 3e
       -0.25988886 0.0017827649 0.11623643 0.20293409
000030 e3 b9 be 3e ae 65 87 bc a7 4a 1b 3e 15 ba 05 be
       0.37251195 -0.016527977 0.15165196 -0.13059266
000040 30 28 2f bf d2 9a bb 3e 9c 3a 22 3e b2 c6 2e bd
       -0.68420696 0.36641556 0.1584267 -0.04266996
000050 53 4a 02 bf 1d 97 73 3e 4e 02 94 3d 6f ee df bf
       -0.5089466 0.23788114 0.07227002 -1.7494639
000060 0f 4f a9 3e bc ae c5 bd 72 5b c0 3b a0 62 24 3d
       0.3306813 -0.096524686 0.005870276 0.04013312
000070 84 3d 51 bd f0 b1 14 be 3a d6 bb bd e5 0d 24 bf
       -0.051084056 -0.14521003 -0.0917172 -0.640837
000080 35 d2 05 bd 49 cd 8b bd 54 ba d4 3b 8b d7 8e 3c
       -0.032671172 -0.068262644 0.0064919386 0.017436763
000090 5a a0 6e 3d ca d1 16 3e 42 90 b5 bc a6 0f 92 3f
       0.058258392 0.14728466 -0.022163514 1.1411026
0000a0 28 ca 0d be b6 60 18 bf 6a 5c 75 3d 3a 3c 5f bd
       -0.13846648 -0.5952257 0.059902586 -0.054500796
0000b0 a1 9b 28 3e ac 2c e2 be 8a 71 e5 3c 21 44 78 3d
       0.16465618 -0.44174707 0.028008241 0.060611848
0000c0 4b 45 82 be aa b3 29 3e d5 88 0d be 68 73 6c bd
       -0.2544349 0.16572443 -0.13821729 -0.057727247
0000d0 c9 99 5d be ce 04 41 be d3 a5 bc 3c 1e 95 4f be
       -0.21640696 -0.18849489 0.02302829 -0.20271727
0000e0 47 e5 d3 bd 12 74 26 3d de 75 d9 be b1 f4 2f bd
       -0.103464656 0.040638037 -0.42472738 -0.042957965
0000f0 ec 20 15 bd e1 94 d3 3d 5e f6 6c be 1e db ee 3d
       -0.03640835 0.10331131 -0.23140857 0.11662887
000100 dd 22 20 be 8e 56 9e be 80 c2 43 3e f1 be 28 bf
       -0.156383 -0.3092541 0.19117165 -0.65916353
000110 8f 55 6a bd 94 43 06 bf 74 3e 6d 3d 4b 3d 0a be
       -0.0572105 -0.52446866 0.057920888 -0.13499944
000120 59 a7 7b be a8 44 36 bd f9 ab 01 3e 8a a3 0d 3e
       -0.24575557 -0.04449907 0.12663259 0.13831916
000130 fe 9e f7 3d ee 44 fc 3b 8d 05 22 3e 32 ce 1b 3d
       0.12090872 0.0076986467 0.1582243 0.03803844
000140 ce 07 04 bf 1e bb 8b 3e 28 bf 08 3e f0 c0 6e bd
       -0.5157441 0.27291197 0.1335417 -0.05828947
000150 85 20 4f be bc a6 58 3e 2e 89 1e 3d b8 7e a9 bf
       -0.20227249 0.21157354 0.038705043 -1.3241796
000160 57 c1 1d 3e 6c 27 00 bd 67 85 d8 3d 8a e4 4e bd
       0.15405785 -0.031287596 0.105723195 -0.05051092
000170 41 e4 31 bd fb b6 d2 bc 5f 4d 81 3c 2d 85 25 bf
       -0.04343057 -0.025722018 0.015783964 -0.64656335
000180 3d 83 c0 3c 1f 63 fe 3d b5 a9 ab bd c3 fc d0 bd
       0.02350008 0.124212496 -0.083819784 -0.102044605
000190 82 8a 62 be d4 56 12 3d 7d 48 97 bd f0 84 4b 3f
       -0.22123149 0.035727337 -0.07386873 0.7949972
0001a0 2e 98 29 be ff c4 c9 be 0c 7c 9e 3d 03 2a 9f bc
       -0.16561958 -0.3940811 0.07738504 -0.019429212
0001b0 c8 08 c4 3d 79 80 05 bf 1f 34 7f 3d 17 b5 c5 bd
       0.095719874 -0.5214916 0.062305566 -0.09653681
0001c0 31 b6 6a bd 8c 81 f2 3d 4c 50 f7 bd 3f 5d 04 bb
       -0.057302658 0.11841115 -0.12075862 -0.002019718
0001d0 e1 42 90 be 17 27 57 be 79 dc 69 3d 0f 78 c4 bd
       -0.28176025 -0.21011005 0.057095025 -0.09593212
0001e0 dd 1c 1d 3b 22 66 82 3d 07 03 63 be 14 b9 df bd
       0.0023973503 0.063671365 -0.22169124 -0.10923973
0001f0 73 ea 2a 3d ea 7d 9d 3c 93 38 16 3c 86 f6 24 3e
       0.041727494 0.01922508 0.009168762 0.16109666
000200 79 af e6 3d 59 32 b1 3e 34 a8 22 be 22 b8 17 3f
       0.112639375 0.34608725 -0.15884477 0.5926534
000210 4b d7 28 3e 72 b5 b2 3e 3f 5d 04 3e f6 ac 72 bd
       0.16488378 0.34904057 0.12926196 -0.05924698
000220 89 61 5f 3e f3 96 1b 3e f0 85 9f bd 17 4d 55 3d
       0.2181455 0.15194301 -0.077892184 0.05207547
000230 c2 ce 4d be d7 07 f2 bd 5b a7 16 be ae fe 01 3e
       -0.20098403 -0.118179016 -0.14712279 0.12694809
000240 28 40 e4 3e e2 21 ae be 77 2a 12 be 93 ea bc bc
       0.44580197 -0.34010226 -0.14274012 -0.023061072
000250 1f f7 78 3e f8 4b 44 be 8b d3 34 be 19 23 c1 3f
       0.24313019 -0.19169605 -0.17658822 1.5088836
000260 7c 95 03 be 25 eb 84 3e d5 7a 9f 3d 2f 07 28 bd
       -0.12849993 0.2596065 0.077871 -0.041022476
000270 f1 18 2f 3e a3 46 87 bc d1 2d b2 3c 34 3f 08 3f
       0.17099358 -0.016513174 0.021750363 0.5322144
000280 35 82 05 be c9 6f 37 3d 4d eb 1d 3a da e3 e6 bc
       -0.13037951 0.04478434 0.0006024137 -0.02818482
000290 38 96 7c 3d 17 f4 47 bd 21 d1 a5 3d a1 10 60 bf
       0.061666697 -0.048816767 0.08096529 -0.87525374
0002a0 59 b5 97 3e a3 01 0d 3f 34 93 00 be 73 00 26 3d
       0.29630545 0.5508062 -0.12556154 0.040527772
0002b0 43 13 06 3c f2 92 b4 3e fc 4f d9 3c 95 1a 82 3d
       0.008183303 0.3526836 0.026527397 0.06352726
0002c0 64 4f df 3d aa 49 98 bd d3 46 d0 3d c5 ab 5f 3d
       0.109038144 -0.07435925 0.10169759 0.05460717
0002d0 37 27 a2 3e b8 a6 7f 3e b6 f9 d6 3d 2f 7c 8e bb
       0.31670544 0.24965942 0.10496847 -0.0043483
0002e0 04 57 cf 3d 3d 9a d5 3d 2a 07 d2 3e be de e8 bc
       0.10124019 0.10429809 0.4102109 -0.028426524
0002f0 02 12 1f bd d4 07 be bd 66 67 0b bd 88 bc c6 bc
       -0.038835533 -0.09278837 -0.034034155 -0.02425982
000300 40 ee e5 39 2c a7 b7 be ea f5 52 3e 3e 3d 19 bf
       0.00043855794 -0.3586973 0.20601621 -0.59859073
000310 f1 4a c3 3c a5 25 cc be 9c 9e b0 bd 25 4e 14 be
       0.023839446 -0.3987247 -0.08624002 -0.14482935
000320 3e 26 4c bd 07 a8 4b bd aa fe 14 3e ed d6 d3 bc
       -0.049841158 -0.04972079 0.14550272 -0.02585932
000330 58 10 89 3e e5 43 09 bd a6 c4 1f 3e 26 7c 6d 3d
       0.26770282 -0.033512015 0.15602359 0.057979725
000340 fa 98 ce be f0 51 8a 3e 20 a2 7a 3e 2b b8 cf 3d
       -0.40351087 0.27015638 0.24475908 0.10142549
000350 7b 2f 19 be f0 d2 08 3e 6c f5 05 3d 77 ad a2 bf
       -0.14959519 0.13361716 0.032704756 -1.2709187
000360 35 fd a0 3c e2 ee be bd c8 ef e6 3d 2a 5f cc 3d
       0.019651989 -0.09322907 0.112762034 0.099790886
000370 b3 1c 1c be 0d 76 0e be 6a 85 78 bc 55 54 02 bf
       -0.15245323 -0.1391222 -0.015168527 -0.5090993
000380 ab eb 05 3e 8c 7b a6 bd 7b 20 37 3c e2 ed 56 bd
       0.13078181 -0.081290334 0.011177178 -0.052472956
000390 c2 1d c6 bd fb 7b 11 3e 51 b3 4e be 06 1e 21 3f
       -0.096736446 0.14207451 -0.20185591 0.6293644
0003a0 f0 2a 86 be 2c cc d0 be 63 66 64 bd 2a 9a 70 be
       -0.26204634 -0.4078077 -0.055761706 -0.23496309
0003b0 47 03 a7 3d 2c f7 0c bf 53 8c 16 3d 57 08 d4 bd
       0.08154922 -0.55064654 0.036754917 -0.10353153
0003c0 fa d6 10 be 53 ed 6b bc a8 25 0c be c7 f4 fd bd
       -0.14144507 -0.014399844 -0.1368624 -0.12400203
0003d0 52 05 73 be 67 2e 27 bd cb f7 3c 3c b4 49 8e 3a
       -0.23732498 -0.040815737 0.011533688 0.0010855705
0003e0 22 19 a4 3d 24 e2 32 bd 88 16 5c be 11 4c 3a bc
       0.08012606 -0.043672696 -0.2149297 -0.011370675
0003f0 9a 4f 8a bd 2a b0 c6 bc 3c 48 09 bd d5 9f 0d 3e
       -0.06753464 -0.024253923 -0.033516154 0.13830502

bias f4 [64]
000000 0b 43 bb bd 74 5d a3 bd 32 67 b2 3d e9 c5 f6 3b
       -0.09143647 -0.07976809 0.08711089 0.007530917
000010 d6 7d 2b 3d 03 e5 9a bd 35 79 c9 bd 90 0a 79 bd
       0.041868053 -0.07563212 -0.098375715 -0.06080109
000020 13 08 bf 3d 45 81 ac 3c 6a 02 4d bd 7c f9 1c be
       0.09327712 0.021057734 -0.05005113 -0.15329546
000030 76 c5 a8 3d 61 1a 52 bd 4b f2 3b be 59 f5 3e bd
       0.08240788 -0.051294688 -0.18354146 -0.0466207
000040 d9 4d 1a be ae 3b 62 3e 33 4f d9 3d fe 73 66 3d
       -0.15068759 0.22093078 0.10610809 0.056262963
000050 ff d3 68 3e 50 d8 b9 ba 24 9c cf bd 2d 44 7f bd
       0.2273712 -0.0014178846 -0.10137203 -0.062320877
000060 c4 71 25 3e ab 4f 08 bd 4a af ea bd dd e1 cc 3d
       0.1615668 -0.033279102 -0.11459215 0.100040175
000070 84 1f 2e bd 31 28 90 bd 78 7e 98 3e ee b0 d6 3d
       -0.042510524 -0.07038916 0.29783988 0.104829654
000080 8a e7 90 bb 27 c6 9e bd 8a ff b3 3e 04 29 c8 bd
       -0.004422133 -0.07752638 0.35155898 -0.09773448
000090 7f 1f 4f bd ee 3c d7 3d db 17 2e bd 27 4b 9d 3e
       -0.050567146 0.10509668 -0.04250322 0.307214
0000a0 4f 25 9f 3e 2c 93 83 3d 4c 86 d7 bd fa 1f 03 be
       0.31083152 0.06424555 -0.10523662 -0.12805167
0000b0 7f 52 26 3d 2c 8e 06 bd a4 f3 ea bc 77 87 2b be
       0.04060602 -0.03285043 -0.02868063 -0.16750894
0000c0 c7 2a 9a 3e 96 82 96 3d 28 23 71 be 7c 25 30 be
       0.30110762 0.07349126 -0.23548567 -0.17201799
0000d0 9a 1e 74 bd 38 85 e8 3d fd 48 90 3c 97 a8 e5 bd
       -0.059599496 0.113535345 0.017612929 -0.112137966
0000e0 ef 89 01 bd ce b9 d8 3d dc c9 a1 3e 98 12 30 3d
       -0.031625684 0.105823144 0.3159932 0.042986482
0000f0 44 fc 73 3d d7 e0 52 3d 1e 39 0d 3e 97 67 35 3c
       0.05956675 0.051483955 0.1379132 0.011072061

weight f4 [3, 64]
000000 b3 f1 26 3f a6 72 5a 3f b2 f6 00 bf 62 bc 37 3f
       0.65212554 0.8533119 -0.5037643 0.71771824
000010 1e ee 1b 3f b5 f5 4e 3f cf b5 78 bf 28 14 5e bf
       0.60910213 0.8084367 -0.9715242 -0.86749506
000020 11 0d 44 bf b3 5c 7d bf f8 ab 06 bf 89 fe 00 bf
       -0.7658244 -0.9896957 -0.52606153 -0.5038839
000030 7d 9f 3f bf b3 3d 00 bf e1 86 38 bf 1f 9a 30 bf
       -0.74852735 -0.50094146 -0.7208081 -0.6898517
000040 f7 07 17 c0 67 8f b3 3d ce 69 38 bf b1 e8 6b 3f
       -2.3598611 0.08767586 -0.72036445 0.92151934
000050 06 38 1f 40 fe 41 00 3f 94 7c 13 bf a3 28 52 3f
       2.4877944 0.50100696 -0.57611966 0.82093257
000060 49 76 25 3f c8 76 2a bf ea b0 36 3f 7f 89 36 3f
       0.64633614 -0.66587496 0.713637 0.7130355
000070 14 b5 62 3f b6 7a 22 bf d8 ed 40 3f e7 e5 1a 3f
       0.88557553 -0.6346849 0.7536292 0.60507053
000080 f6 44 72 3f 29 43 51 3f 91 0c 6a 3f 99 aa 0f c0
       0.94636476 0.81743103 0.91425425 -2.2447875
000090 d7 eb 49 bf f1 12 03 3f d3 7e 66 3f ed 1e 85 3f
       -0.7887549 0.5120078 0.9003727 1.0400063
0000a0 ba c9 88 3f 28 fb 09 3f ba 77 79 bf 3b 79 0b 3f
       1.0686562 0.5389886 -0.97448313 0.5448186
0000b0 d9 d0 4e 3f a2 b7 90 bf ed 58 22 3f a9 0e fb be
       0.80787426 -1.130604 0.6341694 -0.49034622
0000c0 ed 65 e2 3e fa 6f 51 3f f9 bd 2e bf 95 16 c8 bf
       0.44218388 0.8181149 -0.68258625 -1.5631891
0000d0 c8 b8 08 bf 54 bc 54 bf aa d5 43 bf 00 b6 5a 3f
       -0.53406954 -0.83099866 -0.764979 0.8543396
0000e0 5a 44 6e 3f 38 3b 77 3f 20 58 52 3f 3a 54 86 3f
       0.93073046 0.96574736 0.8216572 1.0494454
0000f0 f0 ac 42 bf a2 4b 84 3f ad 09 f3 be 39 32 57 bf
       -0.7604513 1.0335581 -0.4746832 -0.8406101
000100 10 a3 d2 3e dd ed 89 3f 05 93 79 bf 59 2e 56 3f
       0.41140032 1.0775715 -0.9748996 0.8366447
000110 f9 41 0d be 0c 61 6c 3f 22 dd 48 bf 36 73 ab be
       -0.13794698 0.9233558 -0.7846242 -0.33486336
000120 98 57 77 bf 4b 67 3b bf 7c 17 51 3e 3a ee 52 3e
       -0.9661803 -0.7320449 0.20419115 0.20598689
000130 72 ec 76 bf c2 4e 72 bf 87 72 04 3e 9e 25 80 bf
       -0.96454537 -0.94651425 0.12934314 -1.001148
000140 20 f2 f2 bd 3e 33 d6 be 08 e3 85 bf a2 eb d4 3e
       -0.11862588 -0.4183597 -1.045991 0.41586024
000150 17 0b 82 3e 37 f5 4c be 49 b8 46 3e e1 f6 7b 3f
       0.25399086 -0.20015417 0.19406237 0.9842358
000160 e1 b1 2b bd 3b 6a 7d bf 6a 15 1f 3f db a9 63 3f
       -0.041917685 -0.9899022 0.6214205 0.88931054
000170 2a 5f 89 3f fc 91 16 3e 12 4e 22 3e 73 d7 29 be
       1.0732167 0.14704126 0.15850094 -0.16586094
000180 96 b4 85 3f 7f 19 91 3f 82 2f 99 be 40 f5 91 be
       1.0445735 1.1335906 -0.29919058 -0.28507423
000190 8a 61 cd be df f0 19 be 0b 35 50 3f 56 39 ab be
       -0.4011348 -0.15033291 0.8133094 -0.3344218
0001a0 71 64 b4 be ac 99 67 be 35 b7 76 bd d6 0b 0b 3f
       -0.3523288 -0.22617215 -0.060233314 0.54314935
0001b0 6c 1a 87 3f 03 21 84 bf 60 2c 15 3f 28 06 49 3d
       1.0554938 -1.0322574 0.58270836 0.049078137
0001c0 a7 78 3b be 9e 76 0f 3f b9 b6 29 3d 11 76 8a 3d
       -0.18307744 0.5604037 0.041434024 0.06760801
0001d0 76 90 85 3e 9e a8 19 bf 70 6d 45 bf d8 e7 01 3e
       0.26086777 -0.60022914 -0.77120113 0.12686098
0001e0 74 02 ac 3d 1b 87 3a 3f 7b ae cf be 63 b6 f8 3e
       0.083989054 0.72862405 -0.40562806 0.4857665
0001f0 9d ff 47 bf dd 82 3a 3f 92 3f ae be 31 fe 67 bf
       -0.7812441 0.7285593 -0.34032875 -0.9062224
000200 76 8e 42 bf cf 24 48 bf 48 04 35 3f 9f 8f 5d bf
       -0.7599863 -0.78181165 0.7070966 -0.86547273
000210 f0 eb 99 be 45 3b 54 bf 8d 27 8f 3f 6e 07 4d 3f
       -0.3006282 -0.8290294 1.1183945 0.8008946
000220 a6 ec 1f 3f 85 3a 5c 3f 1d 9f a2 3e 88 0b b0 3e
       0.6247047 0.86026794 0.3176202 0.34383798
000230 e0 a4 30 3f e4 4f 0b 3f e7 1f 08 3f 55 9e 6d 3f
       0.6900158 0.5441878 0.5317368 0.9281972
000240 c3 65 22 40 e3 17 b8 3d 53 b1 57 3f e9 cb 50 bf
       2.537461 0.08988931 0.8425495 -0.8156114
000250 e3 bb 13 c0 ea 69 99 be 49 d7 d1 3e 66 5c 48 bf
       -2.3083427 -0.2996362 0.40984562 -0.7826599
000260 4f d5 f3 be ab 0d 38 3f a3 40 3b bf 96 1b 16 bf
       -0.4762368 0.71895856 -0.731455 -0.5863584
000270 50 b9 28 bf 72 3e de 3e 0e 4e 2a bf eb d0 06 bf
       -0.65907764 0.43407017 -0.6652535 -0.52662534
000280 9b 56 82 bf 16 36 52 bf c2 f1 2f bf 02 76 12 40
       -1.018268 -0.8211378 -0.6872827 2.2884526
000290 d2 62 3d 3f 16 e9 80 be 16 26 34 bf 04 68 4c bf
       0.7397891 -0.2517783 -0.70370615 -0.79846215
0002a0 56 66 40 bf 73 01 96 be 85 48 49 3f 25 38 45 bf
       -0.7515615 -0.2929798 0.7862628 -0.77038795
0002b0 d9 4d 1e bf eb e9 71 3f 6b 0f 1b bf 1f b1 61 3e
       -0.61837536 0.94497555 -0.605704 0.22040223
0002c0 1b e8 c3 be e7 38 1e bf 29 49 dd 3e 91 e1 b6 3f
       -0.3826302 -0.61805576 0.4321988 1.4287587
0002d0 9b 4b ea 3e 65 39 5e 3f ac 11 32 3f 1a d7 7c bf
       0.45760807 0.8680633 0.69558215 -0.9876572
0002e0 1c 39 08 bf 97 0f 56 bf c7 b7 29 bf d4 e9 81 bf
       -0.5321214 -0.8361754 -0.66296047 -1.0149484
0002f0 4a 73 55 3f 94 ef 54 bf b9 cb 06 3f e1 36 66 3f
       0.8337904 -0.8317807 0.52654606 0.8992749

bias f4 [3]
000000 ed 65 da 3d ca c6 61 be 83 cf cd 3c
       0.10663972 -0.22048488 0.025123363

weight f4 [64, 2]
000000 e6 28 74 be 1e 8a b7 c0 9e 03 b8 bc 22 51 cd 40
       -0.23843727 -5.73561 -0.022462662 6.416154
000010 59 5a 0d be 24 70 b5 c0 7b 90 2c 3f ef 2d bb c0
       -0.13803996 -5.669939 0.6740796 -5.849357
000020 30 cb 5d 40 f8 d1 6d 40 f4 c1 04 3e ad 0b 09 c0
       3.4655266 3.7159405 0.12964612 -2.1413376
000030 dc 40 a9 3f fb cb 07 c0 79 83 bd 3e 72 c0 c7 40
       1.3222919 -2.121825 0.37014368 6.242242
000040 b3 3b bf bf 91 5f 6b 40 f0 37 9a 3e 3b 27 b5 40
       -1.4940094 3.677708 0.30120802 5.661039
000050 c4 ca c6 3f 3d 01 08 40 42 34 56 3e d2 f4 82 3f
       1.5530629 2.1250756 0.20918372 1.0230963
000060 7b 23 21 3d 37 cb ce 40 fc 8f 08 3f 15 f3 b1 40
       0.039340477 6.4623065 0.533447 5.560923
000070 34 fb 09 be 51 7f c6 c0 ba 52 ac bc 88 53 c1 c0
       -0.13474733 -6.2030416 -0.02103554 -6.0414467
000080 39 9b 9c 3f 08 5d ad c0 6f 2b a7 3f 38 c0 6b c0
       1.223487 -5.4176064 1.306013 -3.683607
000090 ed 95 48 c0 a0 e5 8f c0 41 fc aa 3f cf c2 12 40
       -3.1341507 -4.4967804 1.3358232 2.2931402
0000a0 be a2 a1 bf be c7 6b c0 6b 1e a1 3e 2f 4d b5 40
       -1.262779 -3.6840663 0.3146852 5.665672
0000b0 48 0a 57 3e 29 74 ef 3f 51 60 1f 3e 86 fe ad 40
       0.21000016 1.8707324 0.15564086 5.4373198
0000c0 5a 15 80 3e 92 7f dd c0 24 03 99 3f 3a 5a 45 c0
       0.2501629 -6.9218225 1.1954083 -3.083632
0000d0 6f 15 62 40 e4 0a 91 40 4b f9 a7 bf 0f 77 9e 3f
       3.5325582 4.5325794 -1.3122953 1.2380084
0000e0 bb e2 d8 bf 4c 1e 7c 3f 4c 97 03 be 1d b5 a5 c0
       -1.6944193 0.9848373 -0.12850684 -5.1783586
0000f0 55 fa 05 3e dd 4d bb 40 53 ac 90 bf 85 e6 bb 40
       0.13083775 5.853255 -1.1302589 5.8718896
000100 dd ea b0 be 39 1e 5f bf 94 f7 c4 3e 38 d1 c8 40
       -0.34554186 -0.8715549 0.38470137 6.2755394
000110 69 d5 c4 bf 2c 2d 36 c0 19 30 0a bf 2e be aa 40
       -1.5377628 -2.846507 -0.5397964 5.3357153
000120 0c 2e ba bf 46 36 5a 40 08 33 a7 bf b3 98 8d 40
       -1.4545302 3.4095626 -1.3062449 4.42489
000130 9d 69 b1 be 16 84 9b c0 ca e9 28 be e6 20 cf 40
       -0.3465089 -4.859874 -0.16495433 6.472766
000140 f3 a4 41 40 86 bc a8 40 db 9c 35 3d 8f b3 ce 40
       3.0256927 5.273013 0.044339042 6.459419
000150 7a 5b ce bd 1c e0 38 c0 57 71 37 3f 9e 6d b3 c0
       -0.100760415 -2.8886786 0.7165732 -5.607131
000160 53 02 bc bf e4 19 a6 c0 52 c5 90 40 50 5a 69 40
       -1.4688209 -5.1906605 4.524087 3.6461372
000170 b2 e0 0f 3e 27 01 bf 40 f1 41 ae 3d b3 df 8b be
       0.14050558 5.9688907 0.08508671 -0.27319106
000180 62 e2 40 3e 12 f0 be 40 c4 9b 56 3f ec 41 bc c0
       0.18836358 5.9668055 0.8383143 -5.883047
000190 53 ce 04 be a8 78 c7 40 f9 e1 d9 3f 88 cb 9a 40
       -0.12969331 6.2334785 1.7022086 4.837345
0001a0 07 18 ee bd a8 5a c0 c0 4a 28 53 c0 eb 54 09 c0
       -0.116256766 -6.0110664 -3.299334 -2.145808
0001b0 69 e1 53 c0 1b d7 87 c0 33 4a c1 3f f6 c6 a0 40
       -3.310633 -4.245008 1.5100769 5.024287
0001c0 c3 56 49 3f 23 7b af c0 9e 06 2e 3c 5f c1 c4 40
       0.7864801 -5.4837813 0.010621695 6.148605
0001d0 89 f5 57 40 3e 04 93 40 22 b7 41 3f 80 73 aa c0
       3.3743613 4.594268 0.75670063 -5.326599
0001e0 24 06 27 bf e6 03 ac c0 5a ea 84 be cd c1 7b c0
       -0.65243745 -5.375476 -0.25960046 -3.9337037
0001f0 4c ed a7 be 16 62 be c0 d7 7e 54 c0 b5 0e 0e c0
       -0.3279823 -5.9494734 -3.3202417 -2.2196476

bias f4 [64]
000000 6d 9e 0c be 60 a1 48 bd cf b4 b8 bc 81 00 d2 3e
       -0.1373231 -0.048982024 -0.022547154 0.4101601
000010 33 f1 2c bf ae 0d 85 3f 91 31 63 3f 0c 11 c1 3e
       -0.6755554 1.03948 0.8874751 0.37708318
000020 cb bf 82 bf 6d 9f cc bc d0 32 8e 3f 8f 21 98 3f
       -1.021478 -0.024978364 1.1109257 1.1885241
000030 97 ee 52 3d 89 d5 9d bd e3 64 0b be 6d 32 92 bd
       0.05149707 -0.07706744 -0.13612704 -0.07138524
000040 af f5 47 3f 74 50 52 3f d3 d6 29 3f d8 a6 81 3f
       0.7810926 0.8215401 0.6634342 1.0129042
000050 57 3c e3 3e 84 63 d7 bc 3c 39 94 3f c2 86 3e 3e
       0.44381973 -0.02629257 1.1579967 0.18606094
000060 98 da 8f 3d d9 43 68 3f db cf f0 be e7 1e db be
       0.07024115 0.9072853 -0.4703358 -0.42797014
000070 ca 8a 91 bf fd 77 ed bd d6 78 16 3e ad 75 3c bf
       -1.137048 -0.115951516 0.14694533 -0.7361706
000080 74 a0 89 3f 53 a0 c8 3e fa dc 24 3f 5d bb 5e be
       1.0752091 0.39184818 0.64399683 -0.21751161
000090 bd dd 72 bf 80 c9 55 bf 0b c4 ab 3e 08 23 5f bd
       -0.94869596 -0.8351059 0.33548006 -0.054476768
0000a0 a1 4a 13 bf da bd 13 bd 3d 3a a0 bf e5 0b d6 3e
       -0.5753575 -0.03606973 -1.2517773 0.4180595
0000b0 db 58 c4 3e 42 d2 37 3f 84 00 e5 3d d6 e7 ab bf
       0.3834904 0.718052 0.11181739 -1.3430126
0000c0 6b 96 4e bb 67 85 03 3f 9e ef b9 3c 17 d8 05 bf
       -0.0031522762 0.5137543 0.022697266 -0.5228285
0000d0 31 b4 26 bd 32 4f 96 3e 1b 96 fb 3e b0 e5 b4 be
       -0.040699188 0.29357296 0.4913796 -0.35331488
0000e0 4c ef e0 3e 52 1b e6 bc dc 80 03 bf ff 0d d6 3e
       0.4393257 -0.0280892 -0.513685 0.41807553
0000f0 ea 33 19 3e bd 5d 4d 3f 47 43 3a 3e 41 5d 2e 3f
       0.1496121 0.8022116 0.18189727 0.68111044

weight f4 [64, 64]
000000 38 60 c8 bf db f9 e5 3f da ea e6 bf 93 99 21 c0
       -1.5654364 1.7966875 -1.8040421 -2.5249984
000010 1a 4f 8f be d0 6d a1 3e ee 41 c6 3d f4 c0 40 40
       -0.27990037 0.31529093 0.09680544 3.011777
000020 ff d8 df 3e da 68 65 3f ad b2 aa 3f ea 14 f4 3e
       0.43720242 0.89613116 1.3335778 0.47672206
000030 90 89 33 40 f8 47 34 3f 60 9f 31 c0 da 3f 54 c0
       2.8052711 0.70422316 -2.7753525 -3.3163972
000040 a8 05 9e bf ba ac 88 be 6a e2 20 3e 05 ea 8f 3f
       -1.2345476 -0.2669428 0.1571137 1.1243292
000050 9f a3 4b bc ec 7d 80 3f 5b 06 20 3f f8 96 6a 40
       -0.012429147 1.0038428 0.625097 3.6654644
000060 6a 59 a4 c0 26 bb e2 be f8 6e 4b be 5f bb ca bd
       -5.135915 -0.44283408 -0.1986655 -0.098990194
000070 57 10 15 bf af 59 1a c0 d2 cd 14 40 21 0d ca 3f
       -0.5822806 -2.4117239 2.3250623 1.5785257
000080 93 b2 99 3e 29 c4 44 40 68 50 42 3e 46 cf 13 40
       0.30019054 3.0744727 0.18975985 2.309526
000090 75 83 b8 3e b0 3a 88 3f 03 8c 7c be 17 23 9d 40
       0.36037794 1.064291 -0.24662785 4.9105334
0000a0 0f 9d 53 be 9f 0a e3 3f 67 16 46 bf f3 fb 1a c0
       -0.20665382 1.7737616 -0.77377933 -2.4216278
0000b0 9c 87 94 be 6b 92 2d bc 0e f9 e8 3f e9 a5 ac be
       -0.29009712 -0.010593991 1.8201005 -0.3372033
0000c0 58 84 ab 3f 7d 51 f2 bf 81 ad b0 40 3b 1c 46 3a
       1.3399763 -1.8931118 5.5211797 0.0007557307
0000d0 72 2e d2 bf 43 e2 5e 3e 45 a3 32 3e 63 8f 9b 3e
       -1.6420424 0.21766 0.17445095 0.30382833
0000e0 4a 40 0e c0 68 9a 21 40 a1 39 9b be 01 c0 05 c0
       -2.222674 2.5250492 -0.30317405 -2.089844
0000f0 ed 2d 43 bf a4 91 30 3d 97 80 13 bf fb 1c 89 3e
       -0.7624195 0.043107644 -0.5761809 0.26779923
000100 d7 cb db 3e 18 16 d8 bf 33 ba 69 3f ba 22 f6 3e
       0.42928955 -1.6881742 0.9129974 0.4807337
000110 27 99 f8 be 2e b8 b8 3e d7 3d 42 3e 68 c7 49 be
       -0.48554346 0.36078018 0.18968903 -0.19704974
000120 aa 4d 64 be 0c 51 b6 bf 4a ba 98 3e bc 75 d4 3e
       -0.22295251 -1.4243484 0.29829627 0.41496074
000130 b5 58 56 bf 81 40 88 bf 44 ab 31 3f 7c bb 64 3f
       -0.83729106 -1.0644685 0.69401956 0.8934858
000140 b8 79 97 3e 2d 00 44 3e 6e 96 6a 3e 90 f7 75 3e
       0.29585052 0.19140692 0.22908947 0.24020219
000150 4d 44 4d 3e 62 e3 92 bf 07 cb c0 3e 06 2a 29 bf
       0.20045586 -1.1475642 0.37654898 -0.6607975
000160 ca ef d9 3f e8 cd c4 3e f1 2d 53 bf 74 bf 39 3f
       1.7026303 0.38438344 -0.82491976 0.7255776
000170 70 e2 6e be 94 af 32 3f 70 53 01 bf 71 2f 3f be
       -0.23328567 0.6979916 -0.5051794 -0.18670441
000180 9f a0 30 3f b9 ea 22 be 41 f0 da 3e 91 76 4f bf
       0.6899509 -0.15909852 0.42761424 -0.8104029
000190 e9 20 7a be ef 7e 2d be 1d cb 3c 3f c8 d3 f3 bf
       -0.24426617 -0.16942953 0.73747426 -1.9049006
0001a0 42 7a 6b bf 14 f2 0b c0 93 51 de be e6 60 16 3f
       -0.91983426 -2.1866503 -0.4342161 0.58741605
0001b0 39 db 6f 3f 36 a6 47 bf 98 65 3a bf 36 4c e6 be
       0.9369388 -0.7798799 -0.7281127 -0.4498002
0001c0 29 7a 86 bf 7b dc d6 3e 27 bc 84 bf 3d 3c 8a 3d
       -1.050603 0.41965088 -1.036992 0.06749771
0001d0 50 81 75 3f c3 e3 0c 3f 72 db 4b 3f ec f8 c6 bf
       0.9590044 0.55035037 0.7963172 -1.5544715
0001e0 12 0a ec 3e 0c e5 0c c0 71 18 37 bf 22 6e fb 3e
       0.46101433 -2.20148 -0.7152167 0.49107462
0001f0 18 28 c0 3f 8e c5 2a 3f 0e 7c dc 3f 64 97 31 3e
       1.5012236 0.66707695 1.7225358 0.17342907
000200 08 d4 0c bf 95 e0 db 3f e6 66 8a bf 10 8f 22 bf
       -0.55011034 1.7177912 -1.0812652 -0.63499546
000210 42 8a 10 3f 06 29 16 bf bc d4 a4 bd 29 49 86 3e
       0.56460965 -0.58656347 -0.08048388 0.26227692
000220 da 76 97 3d 7e db b3 3f 96 a0 76 be 17 ea b9 be
       0.07395716 1.4051359 -0.24084696 -0.3631141
000230 2d 66 65 3f 60 08 c3 3f 14 88 25 bf 3e 12 67 bf
       0.8960903 1.5236931 -0.64660764 -0.9026221
000240 11 a4 7e be 88 4c 29 be 77 62 4f bf 0a 3a 6e be
       -0.24867274 -0.165331 -0.8100962 -0.23264328
000250 07 1a 87 bf 8e 25 b9 3f 02 fc dd be 6c 4a 0e 3f
       -1.0554818 1.4464586 -0.4335633 0.5558231
000260 0d 80 4d bf 66 25 91 be de cc c8 3e f6 c7 f4 be
       -0.80273515 -0.28348845 0.392188 -0.47808808
000270 c3 4d 5d 3d 14 5c 4a bf 7f 29 28 3f 7e 46 2b 3e
       0.054029237 -0.7904675 0.6568832 0.1672611
000280 bb 59 20 bf 65 8f b6 3e 05 a8 5a bf 57 2e 65 3f
       -0.6263692 0.35656276 -0.8541263 0.89523834
000290 1d d4 70 3e 71 b8 17 3e 36 fa 5c bf ff b1 c4 3f
       0.23518415 0.14816453 -0.8631929 1.536682
0002a0 ea a6 97 3f f1 b1 fb 3f 53 32 99 3e d1 e2 2b bf
       1.1847813 1.9663678 0.29921207 -0.6714297
0002b0 eb 16 da bf ca 96 3e bb 1a 9e 34 3f 87 83 06 3f
       -1.7038244 -0.0029081577 0.70553744 0.52544445
0002c0 bf aa 9e 3f 8d 91 df be 98 12 a3 3f 97 1c 87 3f
       1.2395858 -0.43665734 1.2740049 1.05556
0002d0 f8 4a 87 bf 25 15 79 be ff 0d 44 bf ef 1e 12 40
       -1.0569754 -0.24324472 -0.76583856 2.283138
0002e0 f8 dc 1d bf 7c 4f 00 40 3a c7 02 3f 75 5a 32 bf
       -0.61665297 2.0048513 0.51085246 -0.69669276
0002f0 92 b1 0a c0 72 7f 40 bf 61 64 37 bf 54 68 03 bf
       -2.167088 -0.75194466 -0.7163754 -0.5133107
000300 20 f4 66 bf e0 47 40 40 5b 24 05 c0 7f 34 f3 bf
       -0.90216255 3.004387 -2.080344 -1.9000396
000310 dd 37 6a 3f 52 58 ad 3e a1 74 80 bf 01 73 6a 3f
       0.9149149 0.33856446 -1.0035592 0.9158173
000320 21 3c 7b 3f 41 5e cb 3f 83 01 2b bf 05 a8 95 3e
       0.98138624 1.5888139 -0.6679918 0.2922975
000330 59 8e 07 40 4b 8e 86 3f a9 c4 d8 bf 49 fd 05 c0
       2.1180632 1.0512174 -1.6935016 -2.0935843
000340 09 40 6b bf 08 71 86 bf 53 ee 6e bf 6e ed e3 be
       -0.91894585 -1.0503244 -0.93332404 -0.44517082
000350 4c 33 3e be 7a 34 ba 3f 42 2f fc 3e 0e 0d c4 3f
       -0.18574256 1.4547265 0.49254805 1.5316484
000360 ce 0a 32 c0 71 21 1d bf aa d7 c7 3f b0 89 25 3e
       -2.7819095 -0.6137915 1.561269 0.16165805
000370 cd a3 8c 3f b5 e0 d4 bf fd 00 b0 3f 7d da 80 3f
       1.0987488 -1.6631075 1.3750302 1.0066677
000380 ae 6c 59 3e cc a4 5e 3f 22 63 50 be e2 9c 37 40
       0.21232864 0.8697021 -0.20350316 2.8689504
000390 f8 51 7a 3f e5 75 88 3f 66 76 93 3d 26 d4 68 40
       0.97781324 1.0660979 0.07200317 3.6379485
0003a0 5e 35 bc 3f 06 f5 4b 40 90 57 19 bf 8f 9e f8 bf
       1.4703786 3.18683 -0.59899235 -1.9423388
0003b0 c5 bb 45 bf 0d 07 0c 40 ac 3c b2 3f b2 76 14 bf
       -0.7723964 2.1879303 1.3924766 -0.57993615
0003c0 20 6c f8 3f bf ee a6 bf fd 06 3c 40 df 4b 20 3f
       1.9407997 -1.304161 2.9379265 0.6261577
0003d0 fc b8 e4 bf 23 d5 80 bf db 8a b2 bf 39 f0 70 3f
       -1.7868953 -1.0065044 -1.3948625 0.9411655
0003e0 64 36 ec bf 70 db 6a 40 94 d8 a2 3f 3a fe fb bf
       -1.8454099 3.6696434 1.2722344 -1.9686959
0003f0 11 4a 53 bf c4 85 5d 3e d0 93 44 bf 87 74 09 bf
       -0.8253489 0.21633059 -0.76788044 -0.5369343

bias f4 [64]
000000 8e 44 1e 3f 05 3b d4 3e cf b9 0d bf b6 aa 17 3f
       0.61823356 0.41451278 -0.55361646 0.5924486
000010 5c 17 d8 3e 4b a0 99 3e 93 6f 32 bf af 55 b3 3e
       0.42205322 0.30005106 -0.697015 0.3502631
000020 47 f4 17 3f 6f 20 07 3f 21 cc e8 3e 62 1d fb 3e
       0.5935711 0.52783865 0.45468238 0.49045855
000030 cb a2 f7 be 88 31 ff be 26 78 8a 3d f0 bd 15 bf
       -0.4836639 -0.49842477 0.06761198 -0.58492947
000040 b4 e3 9c bd 0d fa a1 3e 4f a2 da be 3a 54 21 bf
       -0.076606184 0.31636086 -0.42701957 -0.63019145
000050 68 95 aa be c7 d4 9b be 6a 34 06 bf 1e 55 8b 3e
       -0.33317113 -0.30435774 -0.5242373 0.27213377
000060 38 ab 01 3f ba c5 57 be a3 d3 e8 be 9c 63 88 be
       0.50651884 -0.2107152 -0.45473966 -0.26638496
000070 9e 0f 74 3e ff cf 0b bf e0 60 99 3e a7 e4 87 3f
       0.23834082 -0.5461425 0.29956722 1.0616654
000080 3f 84 cd 3e 14 b9 8a 3c 28 f4 9c be fc 5b 4c 3e
       0.40139958 0.016933955 -0.30655026 0.19956964
000090 72 f2 be 3e 90 85 fe ba 31 14 e4 be 5f 69 a1 3e
       0.37294346 -0.0019418467 -0.44546655 0.31525704
0000a0 7a 74 c5 be 7e d5 c7 be 36 35 ca be 77 48 0e bf
       -0.38565427 -0.3903007 -0.39493722 -0.5557932
0000b0 17 89 48 3e 8a 86 f5 be 8c ed 7f 3e 09 d4 75 3e
       0.19583546 -0.47954208 0.2499296 0.24006666
0000c0 b6 40 94 3e 6a d9 ea be 20 53 fc 3e f4 67 38 3f
       0.2895562 -0.45869 0.4928217 0.7203362
0000d0 ca 43 ed be f6 e7 cf 3e ce 6d bc 3e 8e b8 a2 be
       -0.4634078 0.4060666 0.36802524 -0.3178143
0000e0 cc f2 8b be f6 04 6b 3f a7 ea 2d bf 29 37 88 3e
       -0.27333677 0.91804445 -0.67936176 0.26604584
0000f0 4f 4d 9c be da 9c 1c bf 42 f6 fa be e3 ca 9b 3e
       -0.30527732 -0.61176836 -0.49016005 0.30428228

weight f4 [1, 64]
000000 92 76 07 c0 16 b9 bb bf bf 3f 99 3f cd 72 a0 3f
       -2.116612 -1.4665859 1.1972579 1.2535034
000010 05 73 df 3f c3 cf fa bf 72 d5 94 bf 31 49 cc bf
       1.7456976 -1.9594654 -1.1627638 -1.5959836
000020 44 99 8d bf 22 76 78 bf 2d ab 25 3f bb e3 c8 bf
       -1.1062398 -0.97055256 0.6471432 -1.5694498
000030 ce f6 cc 3f 53 03 9c 3f ec ec 00 40 61 69 f2 bf
       1.6012819 1.2188514 2.0144606 -1.8938409
000040 02 b2 9b 40 a0 79 35 bf 90 29 a7 3f 65 c2 a1 3f
       4.8654795 -0.7088871 1.3059559 1.263745
000050 d7 a1 a0 3f c9 11 da 3f aa 36 a1 3f fb a7 a8 bf
       1.254939 1.7036678 1.2594807 -1.3176264
000060 5d 3e 80 bf be 51 eb bf 69 dd d6 3f b1 93 b0 3f
       -1.0019032 -1.8384321 1.6786319 1.3795072
000070 e8 ae c3 c0 73 f9 97 3f 54 a4 a1 bf 0e bd 15 c0
       -6.115101 1.1873001 -1.2628274 -2.339664
000080 41 6e 03 40 32 f8 b7 bf c0 a2 87 3f 76 e9 f7 3f
       2.0536044 -1.4372618 1.0596542 1.9368122
000090 cc 01 db bf a2 02 8c c0 e3 2b 90 3f 5e b0 19 c0
       -1.7109923 -4.3753214 1.1263393 -2.4013896
0000a0 41 c6 9e 3f 0d 48 8e 3f 0e 27 ed 3f 0c 68 c0 bf
       1.2404252 1.1115738 1.8527544 -1.5031753
0000b0 77 0e 2d 40 f6 fd d8 3f 32 c7 be bf eb e1 94 bf
       2.7040079 1.6952503 -1.490454 -1.1631445
0000c0 3b 66 b6 bf 20 d8 a4 3f 32 3a 72 bf 12 3b 85 bf
       -1.4249948 1.2878456 -0.9462005 -1.0408652
0000d0 bf 23 c0 bf 00 5f a2 bf ba 10 da bf 2b 82 24 40
       -1.5010909 -1.2685242 -1.7036355 2.5704448
0000e0 8d d2 0c 40 51 ec 04 c0 3d a0 a9 bf 46 73 ce bf
       2.200351 -2.0769236 -1.3252026 -1.6128929
0000f0 13 db dd 3f a5 2b 87 3f f9 44 a8 3f 7c 51 d0 3f
       1.7332481 1.0560194 1.3146049 1.6274867

weight f4 [64, 2]
000000 40 bf 2e 3f 2f 6c 17 40 8b 58 b6 bf 1c c9 45 bf
       0.68260574 2.365978 -1.4245771 -0.77259994
000010 c8 20 0e bf 39 f2 83 40 8b ef a6 bd 64 b7 85 c0
       -0.5551877 4.123318 -0.08151158 -4.1786366
000020 db 2d b9 be 09 49 92 c0 ee a4 9f be 1c 8d 23 c0
       -0.36167797 -4.5714154 -0.3118052 -2.5554876
000030 94 99 5e bf 5a 36 70 40 cd e4 bc be 59 d8 59 c0
       -0.8695309 3.7533174 -0.3689331 -3.4038298
000040 0d 96 8f 3e a3 48 2d c0 86 ce 34 bf ac ba 9f be
       0.28044167 -2.7075584 -0.7062763 -0.31197107
000050 e3 0f 81 3e cf 12 43 c0 58 62 e2 be 9c 50 45 40
       0.25207433 -3.048023 -0.44215655 3.083045
000060 1b 1f f2 be ac e8 81 c0 af c1 df bf 23 d0 39 c0
       -0.47289357 -4.0596523 -1.7480983 -2.9033287
000070 fb 27 56 be b2 67 4c c0 28 8c 52 bf f1 08 8e 3f
       -0.20913689 -3.193829 -0.8224511 1.1096479
000080 30 59 c6 bc 0a b1 95 40 e3 0f 27 3f 18 23 6f 40
       -0.02421245 4.677861 0.65258616 3.736517
000090 6f 55 8c bf ba e5 05 c0 46 26 e7 be e9 a3 63 c0
       -1.0963572 -2.0921464 -0.45146388 -3.5568793
0000a0 d8 be d3 be a7 da 61 40 59 86 56 bf b9 86 68 3e
       -0.4135654 3.5289705 -0.8379875 0.22707643
0000b0 6b fa 5d 3f 6f 80 29 40 37 f1 33 3f 93 8b fa 3f
       0.8671023 2.648464 0.7028994 1.9573845
0000c0 33 1e a6 3e 4a 59 44 c0 cc 4e 1d 3f e9 cd ed bf
       0.32444915 -3.0679498 0.6144836 -1.8578464
0000d0 cb 2a 32 40 c9 22 0e 40 ba bd 58 bf cd 4f 8a 40
       2.7838619 2.220873 -0.846645 4.3222413
0000e0 99 eb 43 bf 83 b0 62 bf 60 98 cb bb 85 68 02 c0
       -0.7653137 -0.88550586 -0.006213233 -2.0376294
0000f0 97 d5 6f 3e 92 ec 93 40 39 5a ba 3e 71 16 86 3f
       0.23421322 4.622628 0.3639696 1.0475599
000100 98 fd ac be 3f ac 21 c0 71 c9 a7 3e 75 c4 86 c0
       -0.33787227 -2.526138 0.32770875 -4.2114816
000110 a7 bb 32 bf c0 8d 27 c0 22 03 c4 be ec 38 5e c0
       -0.69817585 -2.6180267 -0.3828364 -3.4722242
000120 66 a9 0e bf 50 fb d4 3f 44 df 93 3e b8 93 4e c0
       -0.5572723 1.6639194 0.28881276 -3.227766
000130 79 3d ec be da 63 36 40 0b a8 03 bf e4 2c 35 c0
       -0.4614065 2.8498445 -0.5142829 -2.830865
000140 bc 9e 26 3f 57 8a b4 bf 02 53 0f c0 e5 07 60 c0
       0.6508596 -1.4104718 -2.2394414 -3.5004818
000150 a2 f1 5c 3e 24 cc 8a 40 b3 18 3c 3f ec 03 4d c0
       0.2157655 4.3374195 0.7347519 -3.2033644
000160 e9 b7 aa 3e da aa 56 c0 b7 96 d7 3e 72 9e 29 40
       0.33343437 -3.354178 0.42107174 2.6502957
000170 f6 2f 4b 3f 2c 6a 05 40 ba 2c 9e bf b5 70 56 40
       0.7937006 2.0846052 -1.23574 3.350629
000180 70 59 df 3e b8 4e 63 c0 9a 5e 9e be df 45 92 c0
       0.43622923 -3.5516796 -0.3093155 -4.571029
000190 cb 60 bf be c4 43 5a c0 89 33 9f bd d9 44 34 bf
       -0.37378535 -3.410386 -0.077735014 -0.70417553
0001a0 58 12 55 be 9b 04 8d bf 65 25 63 bf 7e d9 80 40
       -0.20807779 -1.101703 -0.88728935 4.0265493
0001b0 cf 3c 08 bf d0 c0 26 bf 28 57 f4 be 24 86 82 c0
       -0.53217787 -0.6513796 -0.47722745 -4.0788746
0001c0 30 f1 1c bf a6 b2 46 c0 7a cb bf 3d 74 0a 96 40
       -0.6130552 -3.1046538 0.09364982 4.688776
0001d0 44 80 8b 3f 04 e7 63 bf 93 8a ce 3f 07 08 4a 40
       1.0898519 -0.89024377 1.613604 3.15674
0001e0 a7 df 3e 3f ce 95 d3 bf 26 86 fd be 42 8d 5e 40
       0.74560016 -1.6530092 -0.4951641 3.4773717
0001f0 d9 8a 2d be 02 3b f8 bf 46 69 22 3e fb 08 7f 40
       -0.16947497 -1.9393008 0.15860471 3.9849231

bias f4 [64]
000000 a8 9c 46 3f 3f 02 08 3f c3 33 aa be 00 cb 67 3b
       0.7758279 0.5312843 -0.33242616 0.00353688
000010 f8 dd 6b be 02 de 02 3f b6 27 f3 be 0f 45 94 bd
       -0.23033893 0.5112001 -0.47491235 -0.072397344
000020 3c 9d 96 3e 0f 12 4d bf 75 a8 0b 3f 55 1f 20 bf
       0.29416835 -0.8010568 0.5455392 -0.6254781
000030 0b ad b0 bd 7a 49 49 3e 08 5f 74 3e 60 8d 42 bf
       -0.08626755 0.19656935 0.23864377 -0.7599697
000040 72 e6 86 bd c4 fc 9f 3e 6c 06 84 3d 1f 80 fe 3c
       -0.06586923 0.31247532 0.064465374 0.031066952
000050 57 21 0a be 86 44 54 3f f2 2c f7 be 0f 65 16 3f
       -0.1348928 0.8291706 -0.48276478 0.58747953
000060 90 9a c8 be 3c d4 19 3f a8 40 67 be 99 ef f2 be
       -0.39180422 0.6008947 -0.22583258 -0.47448424
000070 10 39 a0 3e 53 1b a9 3e 68 5d 63 3e fa ff 12 bf
       0.31293535 0.3302866 0.222036 -0.5742184
000080 07 f9 11 bf 8f 8d 18 3e 2a 2e 3a bf 40 a7 94 3d
       -0.5702061 0.1489775 -0.7272669 0.07258463
000090 34 55 42 bf 58 23 d5 3e 19 7f 20 bf 6d 77 99 3e
       -0.7591126 0.41628528 -0.62693936 0.29973927
0000a0 9d 38 f7 3e d9 1b 4a 3e c4 a5 94 3d 6f f8 be 3e
       0.4828538 0.19737186 0.0725818 0.37298915
0000b0 c3 22 38 3e 45 b0 08 bf f7 c6 30 3f 43 63 1a bf
       0.1798201 -0.53393966 0.69053596 -0.6030771
0000c0 00 e3 bb 3e e6 da 54 be c6 c3 86 3e bc fd 3e 3f
       0.36696625 -0.20786628 0.26321238 0.7460592
0000d0 cb 73 2c 3f 03 d1 e9 be 1f 90 26 bf 20 07 5e 3e
       0.67364186 -0.45667276 -0.6506366 0.21682405
0000e0 fc 40 80 bd 5f 00 f6 bc 4b 86 71 be a3 35 5b be
       -0.06262395 -0.030029474 -0.23586385 -0.2140718
0000f0 af 2e 05 3f 74 f8 23 bf 2d ec 3b 3f 88 8d 8f 3b
       0.5202436 -0.64050984 0.7340725 0.0043808855

weight f4 [64, 64]
000000 8a 10 bf 3c d2 60 d1 bd 7a cf 07 3f f3 07 f2 bf
       0.023323316 -0.10223545 0.5305096 -1.8908676
000010 e4 bb 0a bf 2b 82 aa bc 4b 52 2a 3e 8c 2d 9e bf
       -0.5419295 -0.020814022 0.16632955 -1.235765
000020 f8 9b 12 bf 79 2d ee 3c 4b c8 c1 bd ea f2 af 3d
       -0.5726924 0.029074417 -0.09462031 0.08591254
000030 7c e7 84 bf 0e bc d3 be 08 eb 83 be da e8 5f 3d
       -1.0383143 -0.41354412 -0.25765252 0.054665424
000040 10 be c2 3f 89 c3 3e 3f 68 b0 b5 be ab 25 8c bf
       1.5214252 0.7451711 -0.3548615 -1.0948995
000050 40 9f eb 3e 0c c7 fe bd 90 17 00 3d 2f 44 1f 3d
       0.46019936 -0.12440309 0.03127247 0.038883384
000060 04 4b 11 be a9 3d 45 be 1b 56 db 3e 89 76 33 3e
       -0.14188772 -0.19261803 0.4283913 0.17525686
000070 ce 4d 08 be 9e 21 22 bd 72 9e 1d 3f e8 1d 82 bd
       -0.1331093 -0.03958284 0.61569893 -0.063533604
000080 74 7c 28 be 66 25 68 bf 3c a9 cb bd 9f 08 6e be
       -0.16453725 -0.90682065 -0.09944388 -0.23245476
000090 51 7e bd bd 5c 14 08 bd cd 99 ee 3d 35 0d 5c be
       -0.092526086 -0.03322254 0.11650429 -0.21489413
0000a0 1e e8 1e be ca 0f de be c3 e0 9a 3f 27 0d f2 be
       -0.15518233 -0.4337142 1.2099842 -0.4727566
0000b0 11 d5 8a bf ae ad ab bc a2 44 ce bc d4 30 3d 3e
       -1.0846273 -0.02095684 -0.025179211 0.18475658
0000c0 bf 06 4d be 40 2a 4b bf da a9 0d be a3 54 43 bc
       -0.20022105 -0.79361343 -0.13834324 -0.011922034
0000d0 c7 c9 0a bc bc cd 4e 3e 8a 59 df bd 23 b3 c1 be
       -0.008470959 0.20195669 -0.1090575 -0.37831983
0000e0 fd 6e 49 bf 55 cd d1 3f eb 9b 20 3e b6 3a 51 3e
       -0.7868498 1.6390787 0.15684478 0.20432553
0000f0 3a 7c 1f be b3 bc d0 3d 87 4a 85 bd 79 99 26 40
       -0.15574732 0.101922415 -0.065083556 2.6031172
000100 c2 cc c9 3c 45 a4 4d bc 6f 73 6a 3e d5 ef 9f bf
       0.024633769 -0.012551372 0.22895597 -1.2495066
000110 85 cc aa be a4 a5 38 be 21 33 3e 3d eb c1 04 bf
       -0.3335916 -0.18031937 0.04643548 -0.51858395
000120 33 70 8b be d8 5c 44 bd c7 4e 8f bd 26 36 18 3e
       -0.2723404 -0.047940105 -0.069974475 0.14864406
000130 c8 6d 9d be 50 5f c6 be c4 19 8c be 78 06 2d 3c
       -0.3074782 -0.38744593 -0.27363408 0.010560624
000140 e6 30 c2 3f 4d 85 45 3f 11 18 8f be b5 89 c8 be
       1.5171173 0.77156526 -0.2794805 -0.39167562
000150 19 dd 43 3e 06 31 8a bd 6d f4 e3 bb ce 1a fd bd
       0.19127311 -0.06747632 -0.006956628 -0.12358628
000160 21 37 04 be bf a9 01 be 7c 73 b2 3e ca 4f 79 3e
       -0.12911655 -0.12662409 0.34853733 0.24346843
000170 81 34 03 3e c2 f0 5d be e9 0d 16 3f 76 10 f4 bc
       0.12812997 -0.21673873 0.58614975 -0.029793005
000180 92 9c 27 be d0 51 09 bf 2d d4 3c bc b9 7b 4e bf
       -0.1636832 -0.5364046 -0.011525196 -0.80657536
000190 2f 5e 06 3e b6 f5 22 be 38 f0 36 3e c0 f2 a4 bd
       0.13121866 -0.15914044 0.17865074 -0.080541134
0001a0 ba 3a ed bd 73 fd e6 be e4 c6 59 3f 6d a2 e8 bd
       -0.11583467 -0.4511524 0.8506911 -0.11359105
0001b0 86 ae 9b be 5d d5 81 3d 6c 04 f7 3d 3a 54 74 3d
       -0.30406588 0.06339524 0.1206139 0.059650637
0001c0 5a f7 9d bc e1 ef 07 bf 2d 0c b3 be da 21 14 3d
       -0.019282985 -0.531004 -0.34970227 0.036165096
0001d0 27 24 56 3d 4d 3e 73 3e b0 99 eb 3d 1d 93 22 bf
       0.05228057 0.23754235 0.11503923 -0.6350573
0001e0 f1 d3 e2 be 88 e9 5c 3f 0f dd 18 3a a4 a6 ca 3e
       -0.44302323 0.8629384 0.000583128 0.39580262
0001f0 78 d7 b6 bd 1e 00 21 3e 13 2c e5 bd 97 b4 94 3f
       -0.08927816 0.15722701 -0.11190047 1.1617612
000200 ea a9 1a be 89 82 04 be 29 a8 56 be 58 de 27 3f
       -0.1510388 -0.1294042 -0.20962586 0.65573645
000210 00 cb 4e 3f 65 0d e0 bc bf b4 08 bd a4 50 51 3e
       0.80778503 -0.027350137 -0.033375498 0.20440918
000220 62 a7 81 be fa 7a 36 3e dd 79 32 bd 12 e6 9f bd
       -0.25323015 0.1782035 -0.04357325 -0.07807554
000230 95 2e 92 3e ba 8b ce 3c 02 0b 89 3d 2b e3 c9 3d
       0.28551164 0.025213111 0.06691553 0.09857782
000240 04 37 22 bf 09 7d 01 bf ff d2 88 3c df b0 85 3d
       -0.633652 -0.50581414 0.016702173 0.06527876
000250 4d ad 49 be 2b 6a df bd 87 1d 71 bd 69 9e 00 bf
       -0.19695015 -0.10908922 -0.05886605 -0.50241715
000260 04 0c 41 3e 52 ad dd bd ef 1d 90 bd ac 9d 29 be
       0.1885224 -0.10824074 -0.070369594 -0.16564053
000270 12 2e 63 3d fa 0a 1a 3d 49 f6 32 bf 7c 73 26 bd
       0.055463858 0.037608124 -0.6990705 -0.04063748
000280 c0 b5 bb 3c c9 ec 99 3d 33 b8 1d 3e 9e ef 0f 3e
       0.022913814 0.07515866 0.15402298 0.1405625
000290 06 26 be 3d ed 16 bf 3d 6a 0d b6 3b f9 dd 68 3d
       0.09284596 0.093305446 0.0055557983 0.056852315
0002a0 3e 0c a0 be 11 bb e0 3d 04 98 34 bf 32 bf 1a be
       -0.3125934 0.1097318 -0.7054446 -0.15111998
0002b0 f3 ef 57 3f 06 ef 1c bd 6e 2b 48 bd 8b 57 8d 3e
       0.8435051 -0.038313888 -0.048869543 0.27605852
0002c0 24 1a 18 be 8f 1a 36 3f bd 3a 76 3c 4e 41 f6 bc
       -0.14853722 0.71134275 0.015028653 -0.030060437
0002d0 8a d9 19 be ea a0 fe bd af b0 53 ba c0 37 14 bc
       -0.15024391 -0.12433036 -0.0008075339 -0.009046495
0002e0 ea df d4 3d 69 92 39 bf f7 27 c6 3d b7 9c c2 bd
       0.10394271 -0.7248903 0.096755914 -0.09502547
0002f0 29 00 23 be 49 79 7f bb 7a f4 c3 bd 32 ac be be
       -0.1591803 -0.0038982204 -0.095681146 -0.3724075
000300 32 45 15 be a4 5c cf bc e6 4d de be 12 4d f0 3f
       -0.14577177 -0.02531273 -0.43418807 1.877352
000310 56 93 2d 3f 46 2a 2e 3d 3f 6a 91 be 2c 0d ac 3f
       0.6780294 0.042520784 -0.28401372 1.344152
000320 c8 9c ed 3e dd 8e b4 3d c7 23 99 3d e0 cd 75 be
       0.46408677 0.088163115 0.07477527 -0.24004316
000330 53 7b 9c 3f 6e 4e 89 3e 55 e0 4c 3e 3c b7 90 bd
       1.2225136 0.2681765 0.20007451 -0.07066199
000340 a8 20 b8 bf 10 32 30 bf a8 20 19 3f 45 81 7a 3f
       -1.4384966 -0.6882639 0.59815454 0.978535
000350 90 2f 8a be 00 1e 7c bd 15 ec 11 bd 5a 54 82 3d
       -0.26989412 -0.061552048 -0.035625536 0.06363745
000360 39 65 c8 3d 89 f6 88 bb 36 b1 ba be b4 11 b4 be
       0.09784932 -0.00417978 -0.36463326 -0.35169756
000370 35 80 14 3e 05 5e 69 3e 14 d8 28 bf 41 b8 49 bc
       0.14502032 0.22789772 -0.6595471 -0.012311996
000380 0b d4 00 3e a0 1c 69 3f 6d 48 32 bd f4 05 cb 3e
       0.12580888 0.91059303 -0.0435261 0.3965298
000390 fc 69 82 bc 2e b7 7f 3e b4 4b ed bc 6e fc 91 3e
       -0.015919678 0.24972221 -0.028966762 0.285129
0003a0 e2 bb aa 3d 06 7d de 3e 64 c4 76 bf 89 65 e3 3e
       0.08336617 0.4345476 -0.9639342 0.44413403
0003b0 87 ab 6f 3f e5 cb c3 bd 37 b2 0c be df 87 49 be
       0.93621105 -0.09560374 -0.13739859 -0.19680737
0003c0 5f 90 3d 3e 1a fc 3f 3f b1 68 47 3e e7 f8 76 bc
       0.18512104 0.7499405 0.1947353 -0.015073991
0003d0 24 ba 5e bd 1b ec 0e be 55 b2 68 3d c1 f2 d5 3e
       -0.054376736 -0.13957255 0.056810696 0.4178677
0003e0 f1 db 85 3f 1e e0 bc bf c7 d3 21 be 47 30 be be
       1.0457746 -1.4755895 -0.15803443 -0.37146208
0003f0 ce df 26 3e 6d 02 27 bc 26 cf cc 3d 27 60 1f c0
       0.16296312 -0.010193449 0.10000448 -2.4902437

bias f4 [64]
000000 c5 54 47 3d 4e 3d 67 bc 5e 57 3b be 8f 86 db bd
       0.048664827 -0.014113737 -0.18295047 -0.107190244
000010 e5 37 9e 3d d5 33 2a be d3 ad c8 bd b5 a9 d9 bd
       0.07725505 -0.16621335 -0.09798779 -0.10628072
000020 64 67 71 3e c9 fe af bc 85 44 3b be 45 d3 9e bd
       0.23574597 -0.021483796 -0.18287857 -0.0775514
000030 e7 23 9f 3d cd 89 09 3d 59 92 4a 3d 4f d3 01 3e
       0.0777052 0.033578683 0.049455974 0.12678264
000040 5f c0 28 be aa 18 96 3c 36 8b 04 3e a6 5e 90 3c
       -0.16479634 0.018322308 0.1294373 0.017623257
000050 ab 79 37 be ba 09 b5 3d 66 8a 15 be 04 b7 aa bd
       -0.17917506 0.08839746 -0.14603576 -0.08335689
000060 6b 5b ee 3d 88 6d 27 be 43 5d c3 3b 53 61 94 3d
       0.1163853 -0.16350377 0.0059620454 0.072451256
000070 f9 36 84 b9 cc 2e 7c 3e 3c 3d 40 be 2c bf d3 3d
       -0.0002521796 0.24627227 -0.18773359 0.103391975
000080 d1 59 66 3d bb f9 c8 bc 4f e3 e5 bd 49 3e c6 bd
       0.056238 -0.024533143 -0.11224996 -0.09679849
000090 fa 9a c6 bc 71 3b 85 3d b3 36 30 3d 59 c8 b6 3d
       -0.02424382 0.06505478 0.043020915 0.08924932
0000a0 84 3f aa 3d 6d 5b 1f 3d a3 98 db 3d 56 e5 74 3d
       0.08312896 0.03890555 0.107224725 0.059789024
0000b0 a3 e1 b5 3d 12 3c d3 bd c0 2f 47 3c 12 de 1e bc
       0.088809274 -0.10314192 0.012157381 -0.0096965
0000c0 e1 02 32 3d 56 ec d4 bd e0 c4 9a bd 75 fb e2 3c
       0.043459777 -0.1039664 -0.07557082 0.027707795
0000d0 bc 5f d1 3c 97 c8 f4 bd 81 00 2a be bc a4 93 bd
       0.025558345 -0.11952322 -0.16601755 -0.07209155
0000e0 fd 6d 0c be de aa 7b 3d 53 7c a5 3c 05 86 65 3c
       -0.13713832 0.06144225 0.020200884 0.0140090035
0000f0 ab 8f ad bd 0a 7e df 3d 0f e9 9f bc bc c6 9d 3c
       -0.08474668 0.10912712 -0.01952031 0.019259803

weight f4 [1, 64]
000000 5c 7d 0a 3e ad a7 a5 bd a1 c5 49 3d cb cb f7 bd
       0.13524383 -0.08088622 0.04926074 -0.12099417
000010 ad 39 54 3d ac 35 14 3d af aa 12 bd 68 97 7d 3d
       0.051812816 0.036183998 -0.035807308 0.06191197
000020 8e 71 d4 bd 54 47 2c 3d 1c f0 77 3d 8d 4a 5c be
       -0.10373221 0.04206021 0.06053172 -0.21512814
000030 58 b0 28 39 e4 d2 1b 3e a2 40 90 bd e8 ee 50 bc
       0.00016087422 0.15217167 -0.07043578 -0.012752272
000040 62 12 46 3e b0 b1 94 bb ff 33 40 3e bd b3 a6 bc
       0.1934295 -0.0045377836 0.18769835 -0.020349378
000050 a5 81 18 3e cc 91 a5 bc fb 6c ab 3d 15 95 0f bd
       0.14893205 -0.020211123 0.08370396 -0.035054285
000060 37 a9 5f bd d8 94 a3 3d 2d d0 8c bd 26 5a d2 3a
       -0.054604735 0.07987374 -0.06875644 0.0016048595
000070 a0 b2 30 bd 36 23 02 be 01 86 be 3c de 3d 7e bc
       -0.0431391 -0.12708744 0.023257257 -0.01551768
000080 ee 8b 5a bc a2 77 97 3c dc 16 82 36 ae 5a ae 3c
       -0.013339026 0.018489663 3.876963e-06 0.021283474
000090 87 7e 99 3c dd 87 ad 3c cb ac 78 bc 73 81 44 bd
       0.01873709 0.021182949 -0.015177916 -0.047975015
0000a0 63 9b 52 3d 55 9f d1 bb 32 e7 59 bc 36 9d 4d bb
       0.05141772 -0.0063971677 -0.01329975 -0.0031374223
0000b0 2a 77 59 bd e6 4c b2 bc 11 a2 8f 3d b9 ee b3 bc
       -0.05309216 -0.021765184 0.070133336 -0.021964418
0000c0 b9 03 93 3a fe 53 76 bd a1 3f e5 3c ed 22 78 bd
       0.0011216319 -0.060138695 0.027984442 -0.060580183
0000d0 c5 94 98 3d 33 49 a3 3d 2f 60 78 bd 49 a4 d5 3c
       0.074502505 0.07972946 -0.060638603 0.026079314
0000e0 03 0b 71 3d 89 cd 39 3d 66 38 a0 bd 8f 12 da 3d
       0.058848392 0.04536203 -0.07823257 0.10648071
0000f0 a2 30 25 3e b3 00 29 bd 2a 5d 47 3d c8 d3 5c be
       0.16131833 -0.041260432 0.048672833 -0.21565163
