data/rnd_scale=1000_no_norm/rnd_scale=1000_no_norm_s0/pyt_save/model.pt (torch_old, 59768 bytes, 16 tensors)

weight f4 [64, 2]
00000000: 0bf9 e13d 1ca9 1ac0 587e 53bf 77d6 e8bf
00000010: d176 9bbe 8f16 cbbf d55b f3bd 303b 5540
00000020: fc43 b1be a224 0840 c4d6 00be 1a77 2ec0
00000030: 436e 89bf 9bac 1ac0 008c a3be d190 bdbf
00000040: 5663 5a3e 2133 3040 6681 71bf 282e 04bf
00000050: 35f0 263e 0f28 4a40 a286 0dbe be74 4b40
00000060: 2270 e8bd 1e44 723e 5add 6a3f 5a93 e9bf
00000070: f6b2 78bf 59d8 9fbd 3250 07bf 1acb c53f
00000080: 8a79 4dbf aadd 5bbf 040d fbbe 5f83 28c0
00000090: 1f8a b2be 4a3f 6c40 75be 683e b489 1e40
000000a0: c0bb dd3d 68c7 40c0 5f3d f7bd c56d 9ebe
000000b0: 416b 82bf 75e0 74bf 1900 003f e541 0940
000000c0: a4bf 98be e0f2 03c0 077c e93e 5ac7 4c40
000000d0: cb2b 693e 4c9c 1c40 0a01 2c3f 254b e83f
000000e0: b4d1 e33e 2de6 04c0 c102 5cbf fa49 b9be
000000f0: 91c9 8e3e 78ca 2340 d94f 35bf 84d2 933f
00000100: 6289 ee3e 849a cd3f c943 333e 43b2 26c0
00000110: c756 803f 3522 9cbf 63c7 69bf 4903 08bf
00000120: 01f6 3d3e 13a4 4140 0fad 5a3f aa34 bf3f
00000130: 61f7 113d 48cf 823f f996 d8bc db0d 0240
00000140: 4d12 7abf fa68 fc3f 4613 3f3f 3543 02c0
00000150: 18d9 093f 6c5e d7bf b5e1 f3bc 313a 36c0
00000160: 6f6d 273f 970f 06c0 cc99 613e 2127 4a40
00000170: 14ad 353f 77a3 1b40 fb59 8fbf 4ba9 f3bf
00000180: ebe9 b13e 1871 1140 460d 1ebf 093a c5bf
00000190: d2a5 8b3f 67ed 1a3f 6151 cdbe fd38 24c0
000001a0: db2f 86bf 62f2 963f 468a 2ebf 9d4d d3bf
000001b0: 3d52 9bbd ecc5 2f40 f13a bebe 87c2 5840
000001c0: 802e d4be e41f 6240 ff46 353f 86be e8bf
000001d0: 01f8 b3bd e97c 24c0 5e51 07be 4d7a 3940
000001e0: c25b 4f3e 646d 903f 1b4d febe 21db 5fbf
000001f0: 2754 81bf ab8e 15c0 92f4 77be d7f3 1740
0.11033829 -2.4165716 -0.8261466 -1.819045 -0.30364087 -1.5866259 -0.1188275 3.3317375
-0.3462218 2.127236 -0.12581927 -2.7260194 -1.0736774 -2.416785 -0.3194275 -1.480982
0.21326956 2.7531207 -0.9433807 -0.5163293 0.16302569 3.158695 -0.1382089 3.1790004
-0.11349513 0.23658797 0.91744006 -1.8248093 -0.9714807 -0.07804937 -0.52856743 1.5452607
-0.8026358 -0.8588511 -0.49033368 -2.6330183 -0.34871003 3.6913629 0.22728904 2.4771547
0.10826826 -3.0121708 -0.120722525 -0.30943123 -1.0188981 -0.95654994 0.5000015 2.144647
-0.2983371 -2.061699 0.45602438 3.1996675 0.22770612 2.4470396 0.67189085 1.8147932
0.44495928 -2.0765488 -0.859417 -0.36189252 0.27888158 2.5592327 -0.7082496 1.1548619
0.4658919 1.606278 0.17506327 -2.6046302 1.0026482 -1.2197939 -0.91319865 -0.5313001
0.18550874 3.0256393 0.85420316 1.4937947 0.03563631 1.0219507 -0.026439177 2.0320957
-0.97684175 1.9719536 0.74638784 -2.035352 0.53846884 -1.682569 -0.029770711 -2.8473017
0.6540136 -2.0947015 0.22031325 3.1586382 0.7096722 2.431852 -1.1199335 -1.9036039
0.34748778 2.2725277 -0.61739004 -1.5408336 1.0909979 0.605185 -0.4010115 -2.5659783
-1.0483354 1.1792719 -0.6817974 -1.6508061 -0.07584045 2.7464552 -0.37154344 3.386873
-0.41441727 3.5331964 0.70811456 -1.8183143 -0.08787537 -2.570124 -0.13214633 2.8980896
0.20249847 1.1283383 -0.49668202 -0.8744374 -1.0103806 -2.3368328 -0.2421439 2.3742578

bias f4 [64]
00000000: 734a 62be 1394 23bf 5bbc 3cbe a3a2 ee3d
00000010: 9349 f7be 95dd 8bbd 90c3 f83e 57d7 dabd
00000020: 8219 633d 34e2 c4bd 819d 1c3e d92d c83e
00000030: d401 6e3f 3ffb 0d3f 3780 243f 0d09 f8bd
00000040: db0a 2ebf 3c81 b1be 63d4 ad3e 903d 063d
00000050: fb70 9fbe 071e 3cbf 620e 2ebf 1641 19bf
00000060: bce4 20be 4c08 d53e 13d0 da3e 08de 37bf
00000070: 0fe6 f03e 3dfa 1bbf 3af1 f6bd 8a2e aebe
00000080: 7641 86bd 6edb 02be e0be babe 5e28 29bf
00000090: 66dd b7bd 7d3d 4c3c 3419 c7be 7dec 923e
000000a0: 1560 34bf 9d9f dd3d b059 263f 6468 8fbe
000000b0: e9f3 243f c4ab 883e 2790 24bf 3496 dc3e
000000c0: 1026 2abd c53b a8be e4e2 143f 64f2 22bf
000000d0: 4eba cfbd c401 02be 8c7d ea3e 0cb7 a03d
000000e0: 2c54 483e f812 af3e 71ec 39be 168a 0ebe
000000f0: 39f5 43bf 9a1c b33e 816a 033f e8e4 ee3e
-0.22098713 -0.6389782 -0.18431227 0.11652114 -0.4829832 -0.06829373 0.48586702 -0.10685604
0.055444248 -0.09613457 0.15294458 0.3909748 0.9297154 0.55461496 0.6425814 -0.12111101
-0.67985314 -0.3466891 0.339511 0.032773554 -0.31140885 -0.7348332 -0.67990696 -0.5986494
-0.15712255 0.41607893 0.42736873 -0.7182317 0.4705052 -0.6092871 -0.12057729 -0.3401988
-0.065554544 -0.12779018 -0.3647375 -0.6607722 -0.08977775 0.012465832 -0.38886416 0.2869605
-0.7045911 0.108214594 0.649806 -0.2800933 0.6443468 0.26693547 -0.6428246 0.43083346
-0.041540205 -0.328581 0.5815871 -0.6365111 -0.10142957 -0.12695986 0.4579891 0.078474134
0.19563359 0.3419416 -0.18156601 -0.13919863 -0.76546055 0.3498276 0.5133439 0.46659017

weight f4 [64, 64]
00000000: e739 a63c 2dbd cc3b e4bd ddbd 194d d1bd
00000010: b2d6 763d d3c8 b4bd f3d2 a6be d127 dbbd
00000020: e186 f43d 7f4e 78bc 0a2d 5cbd b15b 49be
00000030: abda 60be 19c8 fa3d c614 64be 87fc 053d
00000040: 87a1 d03d bebc 03bd 4b45 c2bd 74b9 9c3d
00000050: a8ba fe3d 9e2d e33d 45ec dd3c 0a32 3c3e
00000060: 70f5 30be 2cb1 72bd 79cd e83b 8ef6 7c3d
00000070: b0d7 febd 5c23 233e 8b64 fa3e a21c 3cbd
00000080: 31ab 963b cd23 053e 2d09 2a3e ba2c ecbb
00000090: ed41 b43e 0f70 c43d fd1d 213e f866 61bc
000000a0: 6c8b 293d 628e 3c3e b0ed 25bd f167 7a3c
000000b0: 4c72 38bd 8b7f cdbd 8fe0 f63d ab32 87be
000000c0: 83a5 1c3e de81 323d 44e0 63bc 1a18 ce3d
000000d0: c392 7bbc c4af 73be 1b02 02bd 8f01 32be
000000e0: f8b0 3fbd aad2 513b c969 dbbc d26d 513e
000000f0: d7d6 843e 125a 6abe 647a 98be cde4 33be
00000100: 701e abbc 3c82 bf3d 7fb8 913e 704d e9be
00000110: 349e 13be 1d9c 433f 798f 0b3e 907d bc3e
00000120: 373b adbe 5863 8c3d 5cca 86bf 2bc0 8abd
00000130: 8f74 b93d 3c52 bd3e 4ca0 2cbd acbd bebd
00000140: bcb1 ffbd c744 8a3e e83a 0fbe 6944 b9be
00000150: c146 763e b447 6cbd 3ecb ffba f76b 083c
00000160: 954b f53e a619 92be c3e9 43be 4bb4 ab3d
00000170: 0ab7 003e 3aa5 ca3d c4da 20be 0676 96bd
00000180: 3ee5 cbbd 9346 2b3e e036 dabd 188c ab3c
00000190: 38d9 19be fe0a eebd aa90 edbc 1fc9 08be
000001a0: c12d 2ebe 89f4 92bd 8f68 de3d 0574 103e
000001b0: 0c05 853d a592 99be e9c3 cbbd 82e3 c43d
000001c0: 1b88 cdbd 6798 bd3d 7b7f 983b 6ec6 dd3d
000001d0: 8a63 bd3d 24ff 3f3e 5735 34be f1eb 33be
000001e0: 8316 23bd 0052 753e 4936 be3e 2226 58be
000001f0: 5d90 93bd 9128 da3c 6287 e23d b22a bcbc
00000200: 4b5a 4d3d d43d f73c c50e 803e 342f 91be
00000210: a30c 40bc 3c07 433f 4f27 473e 1259 a23e
00000220: b609 b0be ca5b ca3d 4be8 85bf b1c4 1cbe
00000230: e546 253e e47f cd3e 31d9 94bc c401 b23d
00000240: d935 923d 24e9 be3e c109 d33d 604d 42be
00000250: bcc4 2d3d 0d17 8cbd fdad af3d dfc4 b9bb
00000260: 2d9f ae3e fff3 91bd 91a5 3f3c 3699 583b
00000270: cb87 2f3d 5ab4 7d3c d965 53be b4b2 013d
00000280: 0c31 18be 34cf 143e 70bc 81bd 7130 8d3c
00000290: a31f 8bbe 6444 d2bd b795 09be 1341 e63c
000002a0: 4f47 aebe 3341 27be ba25 99bc 1390 693e
000002b0: 245b 523e c165 32be f1bc 893c 6c4b f13b
000002c0: 4800 86be ec80 4f3e b604 5dbd 3498 ce3d
000002d0: 880b 1bbb 463c 2f3e 94cf 0ebe abcd 15be
000002e0: 3fcf b63d 15e3 af3e 006e bd3e b6a7 31be
000002f0: 5755 673d fd8b 383d bd98 283e bdb9 0a3e
00000300: 1ed7 343e 95d7 cd3e af03 683f 1019 dcbe
00000310: 815b dabd 5512 e63f a23d 9d3d 1e75 013f
00000320: 01e6 47bf c1a0 a93d ebbe ccbf a225 6fbd
00000330: ea13 943d 2291 0f3e 0b54 8abd 3f13 b83d
00000340: 4ee5 753e 6364 273f 80e0 22be 3920 aebe
00000350: 3931 6b3e 6ccd 68bd 7d46 d83e 999f 6e3d
00000360: befc 873f 51a8 c8be a9b9 78be c41d 05bd
00000370: a748 3e3e 5e74 6e3e 671d 8fbe 5424 c63d
00000380: c301 23be d5ff 463e 4267 eebb 3744 a53e
00000390: ae5a 99be 77ff 74be 1345 213a c769 b0bc
000003a0: 968b 78bd 4789 bfbd 418e f9bb ca74 343e
000003b0: 34d4 8a3c d1e2 04bf dce5 00be b7cf d13d
000003c0: a237 debd 8e55 3d3f 93c5 ffbe f7fd a63d
000003d0: 834a 8b3d 3e03 703e 104a 21bd f4d0 a1be
000003e0: 8c26 73be 758f a13d b4af f63e e56a aebe
000003f0: fdc4 03be c529 113e 751e 2c3b 6ec3 edbb
0.020291282 0.0062481374 -0.108272344 -0.10219783 0.060263343 -0.08827367 -0.32582816 -0.10700954
0.119397886 -0.015155434 -0.05375389 -0.19663884 -0.21958415 0.12245197 -0.2227355 0.032711532
0.10187059 -0.03216242 -0.09485873 0.0765256 0.124379456 0.11092685 0.027090201 0.18378463
-0.17281127 -0.059250996 0.0071045724 0.06175857 -0.12443483 0.15931457 0.48904833 -0.045925744
0.0045980443 0.13001938 0.16605063 -0.0072074803 0.35206547 0.09591686 0.15734096 -0.01375746
0.04139273 0.1841369 -0.04050988 0.015283571 -0.045030877 -0.100340925 0.1205455 -0.26405844
0.15297513 0.043580882 -0.01390845 0.10063191 -0.015354815 -0.23797518 -0.03174029 -0.17383407
-0.04679963 0.0032016435 -0.02678384 0.2045205 0.2594516 -0.22885922 -0.29780877 -0.1756775
-0.020888537 0.09351012 0.28461072 -0.45566893 -0.14415818 0.76410085 0.13628949 0.36814547
-0.3383424 0.06854886 -1.0530505 -0.067749344 0.09055435 0.36976802 -0.04214506 -0.09313521
-0.12485072 0.27005598 -0.13987315 -0.36185005 0.24050428 -0.05768557 -0.0019515527 0.008326522
0.47909227 -0.28535193 -0.19132142 0.083839975 0.12569824 0.09894796 -0.15708452 -0.0734673
-0.09955834 0.1672614 -0.10654998 0.020940825 -0.15024269 -0.1162319 -0.028999645 -0.13357972
-0.17009641 -0.07175548 0.10859787 0.14106758 0.06495103 -0.29994693 -0.09949476 0.09613706
-0.10035726 0.09257584 0.0046538687 0.10828863 0.09247501 0.18749672 -0.17598473 -0.17570473
-0.03981639 0.23957062 0.3715079 -0.21108297 -0.072052695 0.026630672 0.110609785 -0.022969577
0.05013494 0.03018085 0.25011268 -0.28356326 -0.011721763 0.76182914 0.19448589 0.3170858
-0.3438241 0.098807886 -1.0461515 -0.15309407 0.16140325 0.40136635 -0.018169971 0.08691743
0.07139177 0.37287247 0.10304595 -0.18974829 0.04242395 -0.06840334 0.085781075 -0.005669221
0.34105816 -0.07126617 0.011697189 0.0033050305 0.04285411 0.015484894 -0.2064432 0.031664565
-0.1486246 0.14532167 -0.0633477 0.017235013 -0.27172574 -0.10266951 -0.13436018 0.028107202
-0.3403878 -0.16333465 -0.018694747 0.22808866 0.2054258 -0.17421629 0.016813727 0.0073637273
-0.2617209 0.20264024 -0.05395957 0.10087624 -0.0023657996 0.17112836 -0.13946372 -0.14629237
0.08926248 0.34352937 0.36997986 -0.17349133 0.05647787 0.04505538 0.16464515 0.13547416
0.17660186 0.4020354 0.9063062 -0.4298787 -0.10661984 1.7974344 0.07677771 0.5056933
-0.78085333 0.082826145 -1.5995764 -0.0583855 0.07230361 0.14020208 -0.06754311 0.08988046
0.24013254 0.6538755 -0.15905952 -0.3400896 0.22967996 -0.05683653 0.42241278 0.058257673
1.0624006 -0.39190915 -0.24289574 -0.03249909 0.18582402 0.23286578 -0.2795212 0.09674898
-0.15918641 0.1943353 -0.007275493 0.32278606 -0.29951996 -0.23925577 0.00061519555 -0.021534814
-0.060679995 -0.093523555 -0.007615835 0.17622676 0.01694689 -0.51908594 -0.12587684 0.102446966
-0.10850455 0.7395867 -0.49955425 0.08153909 0.06801321 0.23438737 -0.039377272 -0.3160473
-0.23745173 0.078886904 0.48180926 -0.3406593 -0.12868114 0.1417609 0.002626327 -0.007255963

bias f4 [64]
00000000: cef6 76be f908 553c 9319 ed3d 76eb 36bd
00000010: 6ad7 81be 1f12 01bd 163c 013d 5471 cdbc
00000020: a616 b8be cf9e 8a3d bdd1 ce3e 6753 b1bb
00000030: aceb 2e3e 330e bcbd df67 f3bc 2c10 c03c
00000040: d943 eeba 0646 dcbc 62ee 71bd 46b6 91bd
00000050: 2865 bd3e 0f3a 3bbe 9ee8 7f3c bf16 0f3d
00000060: 4953 b7bd cc68 4abc 5855 193e 4708 213d
00000070: 9f5d 2dbc c0d1 893d 7afe a9be da9c e63d
00000080: 8f5a 493e 019a b9bd d462 0b3d 51a4 57be
00000090: 1b54 e83d 1296 1a3e 4115 083e 94e2 45be
000000a0: 6109 8fbe 98ab eebd 41f7 a53e dbc5 d53d
000000b0: 9c72 9fbd 43ec 6b3b fdf0 d43d b6a7 b53d
000000c0: c278 16be 2a85 bf3d 3bdd 4abd d164 10be
000000d0: 9c52 6eb9 5cf3 0a3e 2dfa b73d 6ee3 56bd
000000e0: e4e9 e9bd ec33 afbd fb67 333d 26a7 cebd
000000f0: 0d63 b5be 1d46 21be 9f91 8c3d 3f61 393d
-0.24117586 0.0130026275 0.115771435 -0.044658147 -0.2535966 -0.031511422 0.031551443 -0.025078453
-0.3595478 0.067685716 0.40394393 -0.0054115537 0.17082089 -0.09182396 -0.029712616 0.023445211
-0.0018178179 -0.026888859 -0.05906523 -0.07114844 0.3699124 -0.18283866 0.015619425 0.0349338
-0.08951432 -0.012354087 0.14973962 0.039314535 -0.010581403 0.0672946 -0.33201963 0.11260386
0.19663452 -0.09062577 0.034029797 -0.21058775 0.11344167 0.1509631 0.13289358 -0.19324714
-0.27936843 -0.11653823 0.32415202 0.104381286 -0.07785532 0.0035998977 0.10397527 0.08869879
-0.14694503 0.09351571 -0.049527388 -0.14100958 -0.00022728223 0.13569397 0.08983264 -0.052462988
-0.11421564 -0.08554825 0.043800335 -0.10090475 -0.35427132 -0.15749402 0.068637125 0.045258757

weight f4 [3, 64]
00000000: 4d2f 06be 3fee 513f bf4b 5b3f 0a0a 363f
00000010: 6e09 edbf 31c4 c9bf d177 69bf c1c6 1bc0
00000020: 8560 7cbf 1083 a33f fd98 b43f b07f 563f
00000030: 5c8a 323e 758c 4fbf 0805 e93f 1e33 9e3f
00000040: ec87 c13e 40b0 a1bf c501 4cbf c07d 943f
00000050: c6ae 8b3f 424f 3ebf 8d90 8abf f3e4 2ebf
00000060: 07cb 54bf 5e07 923f 5293 0b3e 46cd 51bf
00000070: 498b 3f3f d04a 6ebf e8a1 5abf f511 80bf
00000080: c406 2f3f 4423 0cbf 2b5e 89bf bcff 5ebf
00000090: bc89 0040 a273 a4bf a3d4 6abf 4288 85be
000000a0: 2780 94bf 68f0 843f 0bc4 663f 4f01 49bf
000000b0: bc66 84bf 9bb7 7abf d609 ca3f 1f0c 75bf
000000c0: f28b bc3e 7c78 90bf 7b3b 8a3f 0c26 a03f
000000d0: e5b3 8c3f 0e5e 0340 be67 9cbf 289f 7fbf
000000e0: 334e 5c3f 757a 60bf d2de 813f 4146 42bf
000000f0: fde6 a1bf f4bd 87bd 71d1 94bf d769 5bbf
00000100: 65ed 053f 84ca e3bd 6e9b cdbe f8cc 6dbe
00000110: 095e 243e 7841 dcbe 04bf bd3d 37df a3be
00000120: 147f 943e 6231 00be 8f19 8abe 7f30 8abd
00000130: 37c9 01bf 1841 433e d407 e53e c8b7 ea3e
00000140: 4ddc 953d 5294 e7bc f23f 123f 394b 45bc
00000150: 799c 57be b950 ce3e eb3c 933e b4b1 f83e
00000160: 4c13 b93c 87f3 1dbe 59c1 87be 9b81 923e
00000170: b17e 0a3e 6b63 963c 113b 2abe bc15 223e
00000180: 280c 9ebe 1337 753e 3700 763e d555 9b3e
00000190: 6fb3 a53e 6c78 91bd f815 873e 7cb0 2c3f
000001a0: b239 513e aee2 503c 3068 a4be b2c4 923e
000001b0: 0a40 b53e 91e9 af3e 4168 c73e 3bb4 233e
000001c0: edf2 493e caa9 c23e edf0 82bd b1cb 2cbe
000001d0: a763 e4bc d567 d73e 1033 d73d a683 833d
000001e0: 8c1b e33d 8d9e a73d edf5 aebd 57d1 113e
000001f0: a778 283e 85ab 073f 868e 1c3e 625b 7d3e
00000200: aa24 1bbe f86b 73bf 3514 35bf 5256 60bf
00000210: a46d bf3f e171 bf3f 268e 5b3f 93fa 0240
00000220: 7959 343f cf79 c9bf a98f 5dbf ec8f 58bf
00000230: 6888 663e 6b61 793f 3830 d7bf c7e3 87bf
00000240: b880 1dbf d145 c03f 7769 ca3e bc38 9cbf
00000250: ebef 1fbf 3b14 863e 6c7a 943f e53d 003f
00000260: 3123 373f b0f3 a8bf 1bbd 683e c3a4 423f
00000270: 3aa9 4bbf 0748 843f f8ed 513f c779 723f
00000280: 7861 babe 9b31 9c3d 717b 9d3f 56b5 ff3e
00000290: 60b9 f1bf 9990 b13f 9d8e 883f 0b01 2b3e
000002a0: 500b 483f c358 90bf 5d8f bfbe 50ec 5b3f
000002b0: c85d 983f 540a 833f 6a2a cabf b29c 883f
000002c0: 571a 27bf a668 913f 5bb9 8cbf 2b3c c2bf
000002d0: b789 8dbf 88a6 d4bf d53c 943f 06d9 633f
000002e0: 9640 7fbf e9be 703f a714 90bf 9699 2c3f
000002f0: c9ef 563f 44dc 96be 876d a63f 7f1d 8b3f
-0.13103981 0.8200416 0.85662454 0.7110907 -1.8518503 -1.5762998 -0.9119845 -2.434006
-0.9858478 1.2774372 1.4109188 0.83788586 0.17435592 -0.81073695 1.820466 1.235935
0.37799013 -1.2631912 -0.796902 1.1600876 1.0912712 -0.7433969 -1.0825363 -0.683181
-0.83122295 1.1408498 0.13630417 -0.8195385 0.7482191 -0.93082905 -0.854033 -1.000548
0.683697 -0.5474131 -1.0731863 -0.8710897 2.0084066 -1.2847788 -0.9173071 -0.2608052
-1.1601609 1.0385866 0.9014289 -0.7851762 -1.0343852 -0.9793641 1.5784252 -0.9572162
0.3682552 -1.1286769 1.0799402 1.2511611 1.09924 2.0526156 -1.221916 -0.9985223
0.8605682 -0.87686855 1.0146124 -0.7588845 -1.2648617 -0.066280276 -1.1626416 -0.85708374
0.5231536 -0.11122611 -0.40157646 -0.2322272 0.16051497 -0.430187 0.09264949 -0.32006237
0.29003203 -0.12518838 -0.26972625 -0.06747531 -0.50697654 0.190678 0.44732535 0.4584334
0.0731741 -0.028268967 0.5712882 -0.01204186 -0.21055783 0.40295961 0.28757414 0.48573077
0.02259221 -0.1542493 -0.265147 0.28614506 0.13524891 0.018357953 -0.16624095 0.15828604
-0.3086865 0.2394679 0.2402352 0.30338922 0.3236346 -0.07103047 0.26383948 0.67456794
0.20432165 0.012749357 -0.3211074 0.28665692 0.3540042 0.34357885 0.38946727 0.15986721
0.19721575 0.38020164 -0.06393609 -0.16874577 -0.02787955 0.42071405 0.10507786 0.06421594
0.110892385 0.08184538 -0.08543 0.14240013 0.16452275 0.52996093 0.15288743 0.24741891
-0.15150705 -0.9508662 -0.7073396 -0.87631714 1.4955335 1.4956628 0.85763776 2.0465438
0.70449024 -1.5740298 -0.86547333 -0.8459461 0.22512972 0.97414273 -1.681159 -1.0616387
-0.61524534 1.5021306 0.39533588 -1.2204814 -0.6247546 0.2618731 1.159986 0.50094444
0.7153807 -1.3199368 0.22728388 0.76032656 -0.79555094 1.0334481 0.82003736 0.9471707
-0.36402488 0.07626649 1.2303296 0.49943036 -1.8884697 1.3872253 1.0668522 0.16699617
0.7814226 -1.1277088 -0.37414065 0.8590746 1.190362 1.0237527 -1.5794194 1.067282
-0.65274566 1.1360061 -1.0994066 -1.5174612 -1.1057652 -1.6613321 1.1581064 0.89003026
-0.99707925 0.94041306 -1.1256303 0.67421854 0.83959633 -0.29464924 1.3002175 1.0868376

bias f4 [3]
00000000: 85af 0dbc dd76 abbe 5cce 443d
-0.008647804 -0.33489123 0.048048362

weight f4 [64, 2]
00000000: 5a9a ebbf 88ee a6c0 5324 33bf 3b89 a4c0
00000010: eeba a2be cbdf a1c0 e6a9 783e 7e92 bdc0
00000020: fb4f bdbd ea71 c9c0 d27d 393e 2017 c2c0
00000030: 6149 4bbf 9fbf a7c0 8080 353d b390 cf40
00000040: 268f 7ebf fc44 3ac0 45e7 cabf 0967 0b40
00000050: 227c 7fbd 351c c240 209a 07be 697e bfc0
00000060: a3d7 92bf afb2 a5c0 1640 66be 570e b6c0
00000070: c9e9 6ebf e1b3 a040 06b4 20bf 8485 b8c0
00000080: bb8a 70bf cc4c a3c0 4a2b 173f f1ea 9fc0
00000090: bc20 61bd 74c7 bfc0 c3de a9bf 8103 7040
000000a0: 2bc2 5140 547b 9840 7fe4 0dbf 1145 c140
000000b0: 22be 333e e4e5 45bf 44e1 b2bf d4af 9840
000000c0: ed7c f03f fae0 a140 3249 203d abfb abc0
000000d0: 9986 eebf 134b 513e b17d 5cc0 cfff a6c0
000000e0: 2078 a0be 58a3 bcc0 9563 7d40 6a67 ae40
000000f0: 9914 a73d e00d b840 ea63 823e a720 bd40
00000100: 3a71 4c40 b8ae ac40 5713 283d e2b4 c4c0
00000110: d0d3 b53f bff4 9dc0 2edb c5bf 5ee3 1140
00000120: 3a3e 03bf 08a0 bf40 cae0 ad3f 332d a8c0
00000130: 49dc f43e 2543 b740 3f03 803f fcdb 93c0
00000140: 66ea f03e 9834 c740 5155 2740 d44f b540
00000150: 976d 963c ad36 a640 5b7b 4d40 9101 ad40
00000160: aded 81be 51a4 b4c0 89d1 ca3f ba46 2bc0
00000170: 29bc a4bf 0439 a140 5f41 503f b6cf 5740
00000180: e9ae 76be 63da 6340 efba 18c0 0f97 97c0
00000190: 71a1 58bf d8e1 9dc0 8afa ad3e 877a b940
000001a0: 0d2d 473e 0ac8 b73f edef 6ebe 0a61 bfc0
000001b0: 21c5 d9be 573f c4c0 0b77 b2bf bce3 3340
000001c0: 75cb 05be 72c6 b940 e850 6940 c09a 7f40
000001d0: 8265 36bf cac4 bac0 ccd5 75bf 2b85 a040
000001e0: 623a 00bf 67e9 70c0 e9bb 273f 26b8 a3c0
000001f0: c698 febd c327 c9c0 1e51 32be d8e0 b3c0
-1.8406479 -5.2166176 -0.699773 -5.141752 -0.3178324 -5.0585685 0.24283561 -5.9241323
-0.09243771 -6.2951555 0.18114403 -6.065323 -0.7940884 -5.2421412 0.044312 6.4864135
-0.9943718 -2.9104605 -1.5851828 2.1781638 -0.06237424 6.0659432 -0.13242388 -5.984181
-1.1472057 -5.178062 -0.22485384 -5.6892505 -0.9332548 5.021958 -0.62774694 -5.7662983
-0.93961686 -5.1031246 0.5905043 -4.9974294 -0.05496286 -5.9930973 -1.3271106 3.7502139
3.277476 4.7650547 -0.5542678 6.039681 0.17552999 -0.7730391 -1.3974996 4.7714634
1.8788124 5.058713 0.039132304 -5.374471 -1.8634826 0.20438795 -3.4451716 -5.2187266
-0.31341648 -5.8949394 3.959203 5.450124 0.081582256 5.7516937 0.25466853 5.910236
3.1944108 5.396328 0.04103407 -6.1470804 1.4205265 -4.936126 -1.5457513 2.2795024
-0.51266825 5.988285 1.3584225 -5.2555175 0.47824314 5.7269464 1.0000991 -4.6206036
0.47053832 6.22517 2.6145823 5.6659946 0.018362803 5.1941743 3.210654 5.406441
-0.25376645 -5.645058 1.5845195 -2.6761918 -1.2869922 5.03821 0.8134975 3.3720527
-0.2409016 3.5602043 -2.3864095 -4.73719 -0.8462134 -4.933819 0.3398021 5.796207
0.1945078 1.4357922 -0.23333712 -5.9805956 -0.4253321 -6.132732 -1.3942579 2.8107748
-0.13065894 5.8054743 3.6455631 3.9938202 -0.7124864 -5.836522 -0.96029353 5.016256
-0.50089085 -3.7642457 0.65521103 -5.116229 -0.12431483 -6.2861037 -0.17413756 -5.6211967

bias f4 [64]
00000000: 9c46 d53e 0e8e 843e 7874 ce3d b691 813d
00000010: 3abb 4c3c 9ae2 823d 4e00 67bf a889 43bc
00000020: 1669 91bf b1a4 92bf c36d be3c 73e9 01be
00000030: f872 a43e 16e7 34be ac8b e7be 3519 15bf
00000040: 02bc 803e 405f ba3d be77 81bd acbf 39bf
00000050: 1ade 47be 3b28 78be a152 dbbf 5524 51bf
00000060: 617a e7be 3bf6 ce3e 75f1 acbf cb2a 2a3f
00000070: 92fd 90be 9664 f93e 17b6 153f 664d 8f3d
00000080: 3655 21bf 12ce d4bc f404 4b3f 334d 96bf
00000090: 79cb 55be fefb 353f f9b2 9fbd 1c96 e43e
000000a0: 26d2 dd3e 1495 03bf a6d6 3e3f 5ff6 efbc
000000b0: 021c b0bd 0a28 7f3f 6738 43bf 9f69 673f
000000c0: ca8e 66bf 04d5 333f 48ad 403e b515 7e3c
000000d0: 6a8d abbf b2f0 2ebe 686c e63d a712 81bf
000000e0: 6748 033d 145d 45bf 3186 64bf 5d40 e8be
000000f0: 866b 583f 215c 893e 2533 2bbe 9149 8bbd
0.41655433 0.2588963 0.100808084 0.0632662 0.01249581 0.06390877 -0.9023484 -0.011934675
-1.1360195 -1.145651 0.023245698 -0.1268671 0.32118964 -0.17666277 -0.4522375 -0.5824159
0.2514344 0.09100199 -0.06321667 -0.72558093 -0.19518319 -0.24234097 -1.7134591 -0.81696063
-0.45210555 0.40422234 -1.3511187 0.66471547 -0.2831846 0.48709553 0.5848097 0.069971845
-0.63020647 -0.025977168 0.7930443 -1.1742309 -0.208784 0.71087635 -0.07797808 0.44645774
0.43324393 -0.5139935 0.7454628 -0.029292284 -0.08599092 0.9967047 -0.7625794 0.9039554
-0.9006163 0.7024691 0.18816102 0.015508105 -1.3402531 -0.17084005 0.112511456 -1.0083817
0.03205147 -0.7709515 -0.8926726 -0.45361605 0.8453907 0.268281 -0.16718729 -0.06801141

weight f4 [64, 64]
00000000: 7e12 913f e291 1640 82d5 0441 e2bb 7140
00000010: 6238 6940 2726 6340 609b 053f ca0b 5bc0
00000020: 5df8 073e 62d9 d3be 9519 45c0 f00f 0740
00000030: c14a be3f fa8a f93f d38b 01c0 8442 873f
00000040: d91a f83f 9e31 cf3f eb4c 2d40 eaae 98bf
00000050: e2ac cabf e622 38c0 9967 b1bb 5358 94bf
00000060: 053a a4bf c271 823f 89d2 3bbe e74a 0a40
00000070: 76a5 cf3f b09a 7bbf f0fe 0dbf 015c 18c0
00000080: 2278 f6bf 9742 4040 fd33 bf3f 76cf adbe
00000090: 173d 4ec0 c2f7 e63f be3a 82c0 b5ef 1840
000000a0: 343a 97bf 4167 b7bf 2cb7 ddbe 962d 7abf
000000b0: f7cd 0e40 8b3d 373f 5bb2 a6bf 8c10 83be
000000c0: b856 99be 5b78 783f 861f 0940 d87b 32c0
000000d0: 1351 12be 10ff e53f 631a bb40 bab6 0dbf
000000e0: 29f5 4fc0 06ac 06c0 b973 e43e cec2 0fc0
000000f0: 3bdf d63e fb85 4040 ca0d 0740 a79c 2640
00000100: 1e57 3e3f d75d 953e 5673 5040 10ed 4a40
00000110: 067a 5040 dfea 4740 1fd1 663e 56bd 4ac0
00000120: 7e4f 013e 63ce 56bf 5e8b 27c0 2895 1040
00000130: 2662 053f dcbe cd3f 289e dcbf 794b 313f
00000140: 2633 d93e 0751 903f 1ead 2440 e159 95bf
00000150: a2b9 06c0 a060 37c0 1916 ea3e 8e5b 84bf
00000160: c93c 3dbf 99f4 7c3e 82ab a1bf 9a92 d73f
00000170: 57d6 8c3f dfc9 28c0 78a8 66bf 710e febf
00000180: 527b b4bf bb52 2a40 34ee 953f a8fe 54bf
00000190: 7f9d 3dc0 f3eb a43f 3fdf ccbf e431 ed3f
000001a0: bf2f 36bf db2e bbbf 244f 35bf c28b 00c0
000001b0: 4108 fd3f 9b74 923f 6224 a7bf fe8f 3fbe
000001c0: db56 6a3e 3515 1a3f 5b30 1b3f 8e1a ffbf
000001d0: a487 983e 8c10 e13f daf1 0b40 cd00 6dbf
000001e0: 1d68 27c0 abfd b9bf c3cf f33e 6c66 00c0
000001f0: 8b0a 0fbe ec61 2f40 0941 dc3f 360f 0040
00000200: 3e0d 243f dd30 7d3f 1825 3d40 65dd 0140
00000210: ba30 8140 f3c3 0940 594f 70be 7fc6 45c0
00000220: e324 11bf 4680 f6bf 48b0 f2bf 9dcc ec3f
00000230: 260a 243f af92 c93f 66d9 ddbf 2a50 61bd
00000240: 7d77 093f 9535 bc3e d654 1640 0252 d9bf
00000250: a2d1 f9be 2836 05c0 62e0 14bf a196 dfbf
00000260: 2294 3ebf 0f95 c13f 4fd1 efbf bdc6 053f
00000270: 90ba 653f 3ece 07bf 1fc7 323d 49f8 4bc0
00000280: 0390 2dbf c21a 0e40 10e0 d23f b748 0bc0
00000290: ed66 05c0 acaf b83f 892b b8bf feb5 e23f
000002a0: 1109 b1be cb83 37bf 496d a33e 274e 1bbf
000002b0: 3fe6 3d40 ac7f d73f 119c ebbf a07f 023f
000002c0: 5bc8 a1bf 8520 0d3f aa82 073f bfec fbbf
000002d0: cad8 46bf 9dbc de3f 61ec d13f 2a59 05c0
000002e0: 0497 c9bf 70b5 e3be 107a 6bbe 4223 eebf
000002f0: 0c26 2f3f 67f2 0c40 18d2 ba3f 5e75 3c40
00000300: 1887 1cc0 45b4 85c0 b798 0cc1 154b 33c0
00000310: 0f78 3ec0 2c0f 31c0 f3da 16be 9ff0 2e40
00000320: cb41 283e a35e 88be efab 1740 7e8d cabf
00000330: 5bff 40c0 b9d6 babf 98ec 983f 825b 26bf
00000340: 2e9b 83c0 6f21 82bf d2e1 0ac0 1095 b63e
00000350: 671a ffbe 90ee 0040 922c 433f cad3 9e3e
00000360: 9858 0840 4ce5 b7bf 0575 fbbe 3692 09bf
00000370: 639c 9cbf 6904 b2bf 3343 0b3e 163e f23f
00000380: 704f 833f 9eb1 11c0 ee6f f8be 5a49 66be
00000390: e985 1440 8e52 38bf 9e53 8540 89bd 92bf
000003a0: 1c36 3d3f 27d8 fd3f c45e 82be c45f 87bd
000003b0: 4cfa f0bf 7c41 6b3d 75d6 153f 0427 0abe
000003c0: 275a 343f a7d0 8abf dec3 81c0 8c59 1640
000003d0: 2243 473f 87e5 a8bf c7a2 bfc0 1cfe 843b
000003e0: d5d5 2040 dcb7 f33e 0dec c7bd d9be aa3f
000003f0: 4100 95bf af03 eebf 1b41 cbbf 4104 04c0
1.1333768 2.352654 8.302126 3.7770925 3.6440663 3.5492036 0.5219021 -3.4225945
0.13278337 -0.41376787 -3.0796864 2.1103477 1.4866563 1.9495537 -2.0241592 1.0567174
1.9383193 1.6187017 2.7078197 -1.192838 -1.583401 -2.87713 -0.005413961 -1.1589454
-1.2830206 1.0190966 -0.18342032 2.1608217 1.622237 -0.9828291 -0.5546713 -2.3806155
-1.9255412 3.0040643 1.493774 -0.33947343 -3.2224786 1.804436 -4.0696707 2.3896306
-1.1814637 -1.4328386 -0.43303812 -0.9772581 2.231321 0.7157828 -1.302318 -0.25598562
-0.29948974 0.9705865 2.142549 -2.7888088 -0.1428874 1.7968464 5.846971 -0.55356944
-3.2493384 -2.1042495 0.4461954 -2.246265 0.41967186 3.0081775 2.1102166 2.6033113
0.7435168 0.29173157 3.2570395 3.1707191 3.2574477 3.1237104 0.22540711 -3.1678061
0.1262798 -0.8390867 -2.6178813 2.2591038 0.5210289 1.6073871 -1.7235765 0.6925579
0.42421836 1.1274728 2.5730662 -1.1668054 -2.1050801 -2.8652725 0.45719984 -1.034044
-0.73920876 0.24702682 -1.2630465 1.6841614 1.1002911 -2.6373212 -0.9010081 -1.9848157
-1.4100134 2.6612995 1.1713319 -0.83201075 -2.9627378 1.2884506 -1.6005629 1.853085
-0.71166605 -1.4623674 -0.70823884 -2.0085301 1.9768144 1.1441835 -1.3057978 -0.18707272
0.22884695 0.6018861 0.6062066 -1.9929979 0.29790986 1.7583175 2.1866364 -0.92579347
-2.6157296 -1.4530538 0.47619447 -2.0062513 -0.13968866 2.7403517 1.7207347 2.0009284
0.64082706 0.98902684 2.955389 2.0291378 4.037198 2.1525848 -0.23467769 -3.0902402
-0.5669691 -1.9257896 -1.8960047 1.8499943 0.64077985 1.5747889 -1.733197 -0.05500809
0.5369795 0.3675963 2.348928 -1.6978152 -0.4879275 -2.0814304 -0.5815488 -1.7467843
-0.7444478 1.5123614 -1.8735751 0.52256376 0.89737797 -0.53049076 0.043646928 -3.1870291
-0.6779787 2.2203832 1.6474628 -2.1763132 -2.084407 1.4428611 -1.4388286 1.771179
-0.3457723 -0.71685475 0.31919315 -0.60666126 2.967178 1.6835837 -1.8407003 0.5097599
-1.2639269 0.55127746 0.5293375 -1.9681624 -0.77674544 1.740131 1.6400262 -2.0835671
-1.5749211 -0.44474363 -0.22995782 -1.860451 0.6841743 2.202295 1.4595366 2.9446635
-2.4457455 -4.1782556 -8.787284 -2.8014576 -2.9760778 -2.766551 -0.1473196 2.7334363
0.16431348 -0.26634702 2.369869 -1.582443 -3.0155857 -1.4596778 1.1947203 -0.6498338
-4.112693 -1.0166453 -2.170033 0.356606 -0.4982483 2.0145607 0.76239884 0.31020957
2.1304073 -1.4366851 -0.49112716 -0.53738725 -1.2235225 -1.3907596 0.13599853 1.8925197
1.0258617 -2.276466 -0.48522896 -0.22488919 2.3206732 -0.7200097 4.166457 -1.1464092
0.7391069 1.983159 -0.25462925 -0.06610063 -1.8826385 0.057435498 0.5853036 -0.13491446
0.7045006 -1.0844926 -4.0551596 2.3492155 0.7783681 -1.3195046 -5.9886203 0.0040586125
2.5130513 0.4760121 -0.0976182 1.3339492 -1.1640702 -1.8594874 -1.5879244 -2.0627596

bias f4 [64]
00000000: 6a9a 85bd f960 04bf ec52 2b3f 5bbe 17bf
00000010: c157 933e f428 c73e 0637 1e3f 9281 20be
00000020: ddb3 b0be 06d5 103f 1953 28bf 832f af3e
00000030: 94b4 3ebf 82c6 84bf bc62 36bf 0472 b4be
00000040: 0b83 aebe 8b74 96bb 098d 603e 9418 66be
00000050: 7e0d 13bf e525 b9be 90d6 cdbe bdeb 943e
00000060: 1e5d b2be 3b9b b53e 3519 5b3d 88c8 d53e
00000070: 8ed9 603e 3a92 263f 4926 18be cff7 79be
00000080: 21ce f03e f7a1 c53e 2958 8abd fc8e aa3e
00000090: 1995 eb3e 7503 0bbf 7821 15bf 362b 1b3f
000000a0: f47c a03e e2db bebe 469c a2be 79b8 dc3e
000000b0: c79e 0f3f effa ae3e 4d67 973e b6f6 e8be
000000c0: 8268 8cbe 8868 76be d13f 91be 722f 11bf
000000d0: 8d63 013f 76eb a0be a96b 0fbf 1f05 18bf
000000e0: ec73 263f b267 1e3f bc08 ebbe 5373 2e3e
000000f0: 6635 c73e 6313 1dbf 8fd8 013f 9f17 963e
-0.06523593 -0.5171047 0.66923404 -0.59274834 0.28777888 0.38898432 0.6180271 -0.15674427
-0.34512225 0.5657505 -0.65751797 0.34215936 -0.7449429 -1.037308 -0.71244407 -0.35243237
-0.34084353 -0.0045915297 0.219288 -0.22470313 -0.5744246 -0.36161724 -0.4020276 0.29086104
-0.34836668 0.35469994 0.053490836 0.41754556 0.2195799 0.65066874 -0.14858355 -0.24410938
0.47032264 0.38600132 -0.067550965 0.33312213 0.4601219 -0.5430215 -0.58254194 0.6061281
0.31345332 -0.37277132 -0.31759852 0.4310949 0.5610165 0.34175822 0.29571 -0.45500726
-0.27423483 -0.24063313 -0.28369 -0.5671302 0.5054253 -0.31429642 -0.5602365 -0.59382814
0.6502063 0.61876976 -0.459051 0.1703618 0.38907927 -0.61357707 0.5072107 0.29314896

weight f4 [1, 64]
00000000: f0f7 d9bf c30e afbf 1181 d1bf d5bb b53f
00000010: feaf bdbf 6312 d4bf 2366 7abf 860f 0740
00000020: e299 0040 b3e5 c7bf 2aa1 bdbf 5e2c c4bf
00000030: 300c c23f d053 1540 ac77 1840 16bd dd3f
00000040: aa2f b03f 3adb bd3f e043 d0bf 06ac 3a3f
00000050: 03ba 833f 9920 b53f e14f e53f 3096 8f3f
00000060: ffd9 04c0 a51d a6bf ef2e d0bf e082 bbc0
00000070: c03c 1840 6ce2 df3f a418 ea3e 0e2e bc3f
00000080: 1d7d cabf dac9 babf 4614 dabf 0826 7340
00000090: 402a d1bf 8357 a73f 5200 d13f d43d bcbf
000000a0: de99 e6bf 50a9 b63f 89cb d6bf cf88 c5bf
000000b0: 829f c0bf 0633 96bf 0de8 16bf 5e1d c43f
000000c0: 4219 f73f 2556 ff3f a9f4 ae3f 8449 d13f
000000d0: 1cdf c5bf 6ee8 a540 8276 c03f e876 ca3f
000000e0: 4209 bdbf 4b34 9e3f 90a9 66c0 f118 eabf
000000f0: d794 b2bf b5da d03f dff6 03c0 7773 1240
-1.702879 -1.367638 -1.6367513 1.4197947 -1.4819334 -1.6568111 -0.978121 2.1103225
2.0093923 -1.5616974 -1.4814808 -1.532604 1.5159969 2.3332405 2.3823042 1.732333
1.3764546 1.4832528 -1.6270714 0.72918737 1.0291141 1.4150573 1.7915002 1.1217709
-2.0758054 -1.2977797 -1.6264323 -5.859726 2.378708 1.7490973 0.45721924 1.4701555
-1.5819432 -1.459285 -1.7037437 3.7991962 -1.6341019 1.3073581 1.6328223 -1.4706368
-1.8015707 1.427042 -1.6780864 -1.5432376 -1.5048678 -1.1734321 -0.5894783 1.5321462
1.9304583 1.9948164 1.3668414 1.635056 -1.5458713 5.184623 1.5036166 1.5817537
-1.476845 1.2359709 -3.6040993 -1.8288862 -1.3951672 1.6316744 -2.0619428 2.2882974

weight f4 [64, 2]
00000000: 79b6 bcbd 96f9 a340 262c f73e 3dd2 8cbe
00000010: f672 333e 76d8 2240 9f6d 29bf 5073 8640
00000020: 19f2 3ebf f83c d03f 4a94 edbe 332a c640
00000030: 8411 983e ee1a 7440 328a bebd 67d2 fbbf
00000040: da53 273f 9e16 3d40 ee44 29be a83a c140
00000050: 3f27 4bbf 8d2c 26c0 3559 e23e a585 333f
00000060: d69e 02c0 cd1a 30c0 cccd 1b3f 44d0 71c0
00000070: 0249 663b d920 86c0 02d1 023e 57f6 63bf
00000080: 8b3e 093f f87a 79be 48b9 af3e 3784 4b40
00000090: c8cf 6e3e ac40 0ac0 a625 4fbf ea16 f53f
000000a0: d5f7 083c 9d86 12c0 3c61 87bd 6196 a5c0
000000b0: b3ae 83be d656 2240 35c6 a83e 44b7 9abe
000000c0: c81f 993e b7bd 8f40 c57e 2bbe 8671 0fc0
000000d0: 1e41 343f 7a2a 06bf d54f 3b3f dccd 8e40
000000e0: 6e77 7e3c d2c6 9dc0 896c d63e bee6 3ebf
000000f0: 895f 783e c279 02c0 9ac1 2c3e 6354 8ec0
00000100: c2ee 42be 0b09 643f 75cc a83e 954f 9140
00000110: 2839 b5be 5cb8 b83f 0496 d4be 2561 8340
00000120: e6c4 aabd fe60 85bf 692e 88bd fd2b 303f
00000130: f306 30bf ebaf 98c0 5dca 78bf 7e8a 2d40
00000140: 4d43 413f f71a 08c0 3594 debd f6b8 e1bf
00000150: 2e7a ffbe 1269 0840 424a 98be 3545 9bbd
00000160: 1537 2e3f e1e0 d6bf 50b0 b53e 8715 d1bf
00000170: 156f 853f 075e 0fc0 51bd 3e3f b9d3 a140
00000180: 5150 553e 93ee 58bf 8c86 1bbf a69c 8ac0
00000190: a36a 2e3f 4c24 9240 1ebe 99bd 53f0 8740
000001a0: e836 cdbe 301e bf3f 4e36 94be 6e32 c4bf
000001b0: 1ad8 3840 bbc9 2f40 3c9a d43f becd 57c0
000001c0: d9a4 1fbf 9850 78c0 b8db eabe b59a d33e
000001d0: 73f8 d5bd 8e53 b5bf 1efe 37bf 8497 c1c0
000001e0: 48fe 4c3f 0c0a 6c40 8264 263f cc87 a6c0
000001f0: 203a ccbe e086 adbf 0ee1 463f 53c3 1dbf
-0.092144914 5.124217 0.4827587 -0.2750415 0.17524323 2.5444617 -0.66182894 4.201576
-0.7458816 1.6268606 -0.46402198 6.1926513 0.29700863 3.8141437 -0.093037024 -1.9673585
0.6536232 2.9545054 -0.16530201 6.03841 -0.7935676 -2.5964692 0.44208685 0.701258
-2.0409446 -2.7516358 0.60860896 -3.7783365 0.003513873 -4.1915097 0.12775043 -0.8904776
0.5361106 -0.24363315 0.34321046 3.1799448 0.2332145 -2.1601973 -0.8091682 1.9147618
0.008359869 -2.2894661 -0.06610343 -5.174607 -0.25719222 2.53655 0.3296372 -0.30217946
0.2990706 4.4919086 -0.16747577 -2.241304 0.7041186 -0.52408564 0.7316869 4.4626293
0.015531404 -4.93052 0.4187968 -0.74570835 0.24255194 -2.0386815 0.16870728 -4.447801
-0.19036391 0.890763 0.32968488 4.5409646 -0.3539517 1.4431262 -0.41520703 4.1056085
-0.08338337 -1.0420225 -0.06649477 0.6881712 -0.68760604 -4.7714744 -0.9718378 2.711578
0.7549332 -2.1266458 -0.10868112 -1.7634571 -0.49897903 2.131413 -0.29744154 -0.075815596
0.680528 -1.6787378 0.35486078 -1.6334695 1.0424525 -2.240114 0.74507624 5.057095
0.2083142 -0.84739035 -0.6075218 -4.331622 0.68131465 4.566931 -0.07506965 4.2480865
-0.40080953 1.4931087 -0.2894768 -1.532789 2.8881898 2.7466877 1.6609569 -3.3719325
-0.6236091 -3.879919 -0.45870757 0.4132897 -0.104477786 -1.4166124 -0.7187213 -6.0497456
0.800755 3.6881132 0.6499711 -5.204077 -0.39888096 -1.3556786 0.77687156 -0.61626166

bias f4 [64]
00000000: 3619 aabd d675 10bf 826e 063e bd31 f2be
00000010: c05e 05bf 9692 333d 3ce4 9b3e 434a f3be
00000020: c110 0a3d be44 8abe 17ee 893f f2ad 39bf
00000030: 24c2 3d3f cb0d 4d3e 2b84 a93e ebee 23bf
00000040: 9fd8 3bbf 37e5 f2be bebf de3d 076b 7c3d
00000050: ae38 1d3f 0916 793d 0089 8f3e adf6 25bf
00000060: 24f1 673e c66f 2fbf 9389 7ebf c69a ec3e
00000070: 6001 21bd 9b80 f7be ebd3 03bf 3fca 053e
00000080: 8a46 c73e c556 913e 4b5e 49bf 0568 4ebe
00000090: 0115 2bbf 2650 49bf e952 afbd 1251 d2be
000000a0: 4575 133f c8dc f63e 414f 2a3e 79b5 1b3f
000000b0: e7c2 bfbd 0d34 433e f7a6 643f edf7 48bc
000000c0: 5647 233f 70e0 babd 9b31 063f 761a 263d
000000d0: 2c21 1f3f 0769 d7be 6084 07bf ba26 7f3f
000000e0: 634f 2bbd 793d 233f 335e bdbe 643e c5bd
000000f0: ab96 1a3e 7736 29bf 737e 21bf 54a2 233f
-0.0830559 -0.56429803 0.13128093 -0.47303572 -0.520977 0.043840967 0.30447567 -0.47517595
0.033707384 -0.2700557 1.0775784 -0.72531044 0.7412436 0.20024793 0.3310865 -0.64036435
-0.7337741 -0.47440502 0.10876416 0.061625507 0.6141461 0.06081203 0.2803421 -0.6482952
0.22650582 -0.6852993 -0.9942867 0.46211833 -0.039307952 -0.48340306 -0.51495236 0.13065432
0.38921005 0.28386512 -0.78659505 -0.20156868 -0.66828924 -0.7863792 -0.08560736 -0.41077477
0.57600814 0.48215318 0.16631795 0.6082378 -0.093633465 0.19062825 0.8931727 -0.012266141
0.63780725 -0.09124839 0.5241944 0.04055258 0.6215999 -0.42072317 -0.52936363 0.9966847
-0.041823756 0.63765675 -0.3698593 -0.09631041 0.15096538 -0.6609873 -0.6308357 0.6391957

weight f4 [64, 64]
00000000: 8b74 e43a 4a9c 0fbe 0b50 623e 7b84 073d
00000010: 0699 67be 1c6f 25bc def3 3b3e 2b6f fdbd
00000020: 0e76 7ebe c5d3 d2bb 30cf cd3d 103d 8dbe
00000030: 0103 83bd 22c1 93be 4a94 443e 21a7 0fbe
00000040: ad2e 6cbe f325 79be 31ca 8bbe 4b6e a93e
00000050: 75b2 663e 436c 2b3b 7dcc 563e 1ba7 96bd
00000060: 2248 083e b050 6ebe 1767 00be d039 763e
00000070: 9881 14be e64d 37be 8169 8ebe df66 31bc
00000080: e2d6 893d c388 d53d 0147 16be 70ef 3a3e
00000090: 4a54 21be 4fc3 67be 4fad 503e b9ee 743e
000000a0: 70ab 253e d995 3c3d 066e b9bd 3515 7e3e
000000b0: 5590 d6be 5eff 4dbe 72c2 043e 7b81 febd
000000c0: c154 393e 54d0 57bd f2db e13d 4ee3 4e3e
000000d0: 5af7 813d c0bd 55be 8f18 8cbe 9926 04be
000000e0: 6f07 293e 96cb 923e 410d f2bd 5f02 0d3d
000000f0: 86fb 20be 282b 2abe 20fa 58be 538f 303e
00000100: 19bc a23e baf6 07be 5235 913d 96e7 753f
00000110: 18d4 e73e db6b cc3e 88df d7bd d1d7 80bd
00000120: 623d e8be 36b5 bf3f b47a 9d3d f72e ecbd
00000130: eea3 f7bd 59c0 19bf f73c 9ebd 3294 be3c
00000140: aea9 14be 8487 54bc aaae 90be bf16 883e
00000150: 6802 20be 23f2 bfbe 99f8 373e c377 c53d
00000160: a070 07bd 7447 c23c 2c1d 81bc c4ce d2be
00000170: c25a 22be 7594 2ebe be8f f13b d67c e6be
00000180: 427e 28bd 827a eebd 60ac 553e 5d1f 8c3f
00000190: eba9 a3bd 934d dc3d f298 843e 2838 813f
000001a0: b549 e2be 2a60 24bb ceee 7c3e f3cb b03d
000001b0: 9c58 c3be 3668 f7be 9fed e3be ce8d 2fbe
000001c0: 4cc5 27bd 5dba 9cbd d7e6 97be e36c 9d3e
000001d0: 669f cb3d f158 f93d 9575 0d3d 89ee 4dc0
000001e0: 7dd1 803e bb49 31bd e2e6 273d 3efa d43e
000001f0: 372e 1cbf 02d7 1abe 1701 803e 1a98 b1be
00000200: cba0 b1bd 5a71 06bd eacc 6abe 8e5c 403d
00000210: 2a00 143e 1456 18bc e1a8 51bd 26e7 373d
00000220: 472d 9f3d dfb7 843b ec4b bebd 7e85 8f3d
00000230: 36da 8cbd 526e a4bc 465f f4bd e9b0 9d3d
00000240: cbf9 e3bb 3e53 603d 5df7 193c 67cf 963d
00000250: 12dd babb ce7f 99bc eb80 2ebd d8be 0cbd
00000260: 8e31 bbbb 1e97 52bd 5bde 313d cd09 cd3d
00000270: 29ad 38bd d465 263e 8df2 21bd 4a86 a73d
00000280: 92d0 a73b e512 aebd 8fb5 8ebd f523 da3d
00000290: 4e76 d63d 3c59 333e 8bb5 a8be 629b 13be
000002a0: 582f a1bc d5bc c0bd f7b0 0cbe 650d babd
000002b0: a389 a63d 84bd b6bd 4883 b1bd 1cd0 373e
000002c0: 9bae b23b f48a 473e 6f92 ab3d 4202 343c
000002d0: b2ac d73c e6ae aa3c a4de 613c e71b 4e3e
000002e0: ddfc 88be f144 493b 8754 43bc a5d6 6fbe
000002f0: 396d 813e ffeb d1bd 84f3 ec3c bb8e afbd
00000300: 6fd8 b33e fe4a d0bd 055e 05bd 22fd 3c3d
00000310: 760d ae3d f97a 4a3e 34b5 8e3d 9e8e 8b3c
00000320: 789c cd3e dab1 303e 0707 4abc 7ab4 ff3d
00000330: 7522 a5bd 4655 62be a76f 193d b2a7 df3d
00000340: 0d55 8f3d d4b2 0c3e 3c8e 99bd 8bb9 72bd
00000350: 084c 04be deec 0bbf 65ae adbc 6e56 f43d
00000360: 51bc ed3d 913d 843d aea9 813b 576c a53d
00000370: 7abb 6bbe dcb2 dfbd db96 0ebe cfde b7be
00000380: da66 cabd 8c55 34bd 92a3 863d c43a 0c3f
00000390: 667d 4fbc f7dd e0bc f1a4 35bf 38ae 0bbe
000003a0: 8f0d a9bd 480a f2ba 3dd6 173e d760 06bd
000003b0: 19b9 ea3b 6888 0d3a fa42 7f3d 44f8 a73e
000003c0: bd68 37bd 20c6 8dbd a47e 643d 5486 813e
000003d0: 5325 0e3d 52de 3e3d 20f9 1d3e e04b 653e
000003e0: 7179 d4be 2fb5 fc3b 3ae6 8abd fca9 c0be
000003f0: e997 e83e b512 523d a6e2 07be 3cf2 2f3d
0.0017429752 -0.14024463 0.22100846 0.033085328 -0.22616968 -0.010097291 0.18354747 -0.12374719
-0.24849722 -0.0064339363 0.100492835 -0.2758565 -0.06397057 -0.28858286 0.19197193 -0.14028598
-0.2306468 -0.24330883 -0.27302697 0.3309196 0.22529013 0.0026157058 0.20976444 -0.073560916
0.13308766 -0.23272967 -0.12539326 0.24045491 -0.14502561 -0.1790081 -0.27814868 -0.010827749
0.06730439 0.10426476 -0.14675523 0.182554 -0.1575481 -0.22633098 0.20378612 0.2391919
0.1617868 0.046041343 -0.090541884 0.24812777 -0.41906992 -0.20116946 0.129648 -0.1242704
0.18098737 -0.05268891 0.11028279 0.20203897 0.06346007 -0.20873165 -0.27362487 -0.12905349
0.16506742 0.2867095 -0.11818934 0.03442609 -0.15720949 -0.16618025 -0.21189165 0.17242174
0.31784132 -0.13277712 0.07090248 0.960565 0.45279002 0.39926037 -0.10540682 -0.06291164
-0.4535933 1.4977176 0.076894194 -0.11532395 -0.12091814 -0.60059124 -0.07726472 0.023264024
-0.14517853 -0.012971763 -0.28258258 0.26579854 -0.15625918 -0.37489423 0.17965926 0.09641983
-0.033066392 0.023715712 -0.01576098 -0.41173375 -0.15854934 -0.1704882 0.0073718717 -0.45017117
-0.041136034 -0.1164446 0.20866537 1.0947071 -0.07991394 0.107569836 0.25897938 1.0095263
-0.4419686 -0.0025081732 0.24700472 0.0863265 -0.3815354 -0.48321694 -0.44517228 -0.17143938
-0.04095964 -0.076527335 -0.29668304 0.30747136 0.09942512 0.12175167 0.034535963 -3.217684
0.25159827 -0.043283205 0.04099167 0.4159717 -0.6100802 -0.15121081 0.2500083 -0.34686357
-0.08673247 -0.032822944 -0.22929731 0.046963267 0.14453188 -0.009297866 -0.051186446 0.044898175
0.07772308 0.0040502395 -0.09291825 0.070078835 -0.06877558 -0.020072136 -0.119322345 0.076997586
-0.006957268 0.054766886 0.009397355 0.073637776 -0.005702623 -0.0187377 -0.042603415 -0.03436169
-0.0057126945 -0.051413648 0.043424945 0.10011635 -0.045087013 0.16249782 -0.039537955 0.081799105
0.005121299 -0.084996976 -0.06968223 0.106513895 0.104717836 0.17514509 -0.32951006 -0.14414743
-0.019675896 -0.09411017 -0.13739382 -0.09084586 0.08131721 -0.08922866 -0.08667618 0.17950481
0.0054529435 0.194866 0.08377539 0.010986866 0.026327465 0.020835351 0.013785992 0.20127831
-0.2675542 0.0030711258 -0.011922008 -0.23421724 0.25278643 -0.10250091 0.028924711 -0.085721456
0.35126063 -0.101705536 -0.032560367 0.046139844 0.08498661 0.19773473 0.069681555 0.017035779
0.4015844 0.17255345 -0.012330777 0.12485595 -0.08063213 -0.22102842 0.037459996 0.10920657
0.06998644 0.13740093 -0.07497832 -0.05925898 -0.12919629 -0.54658306 -0.021201322 0.11930548
0.11608184 0.06457055 0.003956995 0.08077305 -0.23020735 -0.109227866 -0.13924734 -0.35912177
-0.09882899 -0.044026896 0.06574167 0.5477717 -0.012664175 -0.027449591 -0.70954806 -0.13640678
-0.08254539 -0.0018466199 0.14827819 -0.032807197 0.0071631786 0.0005399049 0.062319733 0.328066
-0.04477762 -0.06922555 0.055784836 0.25297797 0.034703564 0.04659874 0.15427065 0.22392225
-0.41498902 0.0077120285 -0.067821935 -0.37629688 0.45428398 0.05128737 -0.13270053 0.042955622

bias f4 [64]
00000000: 475b 823e 9948 b23c 5239 c6bd b208 fe3d
00000010: d945 74bd ecd1 7fbd 6b36 bbba 3abd b93d
00000020: cbaa 45be 9aac aebc dc03 ab3d ec5c 5f3d
00000030: 8883 eaba 3aa4 1ebd e24e 3d3d a4d0 2bbd
00000040: e6c8 153d ad52 be3d 4a28 e43c a488 723d
00000050: b682 5a3d d1f1 793c d011 ea3d 1561 143e
00000060: 694d e03c eb54 27be e2a0 c03d 79be e7bc
00000070: e7cc ecbd f30e 0e3e 517c 33be 54cb 10be
00000080: 9560 2cbd b0ae df3b a0b1 023c 3ff9 213e
00000090: deb1 c83d 536a 8bbd 0596 cc3c a219 27bc
000000a0: 576c c73d b340 133d 229d 23be 49ac 6cbe
000000b0: f94b 6d3c c8b1 e93d ee38 fd39 5796 de3d
000000c0: 6399 4d3c d627 a63d 54ec 00be d694 313e
000000d0: 5518 90bd 1d92 c53d 518b f63d 6cbc a4bd
000000e0: 80b3 54bd ef0e 26be 1e40 d3bd 0b23 92bd
000000f0: cb95 4dbd 8b7f 19bd c524 74bd a216 e13d
0.25460264 0.021763133 -0.09678902 0.12404002 -0.059636924 -0.062456056 -0.0014283186 0.09069295
-0.19303434 -0.021322537 0.083503455 0.054531977 -0.0017891983 -0.038730837 0.046217807 -0.041947022
0.036568545 0.09293113 0.027851243 0.059212342 0.053347312 0.015255407 0.11429179 0.14490159
0.027380662 -0.16340987 0.09405686 -0.028289067 -0.115625195 0.1387289 -0.17527892 -0.14140064
-0.042084295 0.0068262443 0.007976919 0.15817736 0.097995505 -0.06807389 0.024973879 -0.010198982
0.09737461 0.035950374 -0.1597791 -0.23112597 0.014483445 0.11410862 0.00048298336 0.10868519
0.012548777 0.08113067 -0.12590152 0.17341933 -0.07035891 0.096470095 0.12038291 -0.08043751
-0.051928997 -0.16216634 -0.10314964 -0.0713559 -0.05019168 -0.03747515 -0.05960538 0.10990645

weight f4 [1, 64]
00000000: b899 24bd 7dc6 063d fbee 9ebc 9f77 62bd
00000010: d46c 31bd 197a 20bd b728 98bd 50df ebbb
00000020: c1de 03bd 5530 743c b2f9 d43d ed34 7f3d
00000030: 6ea7 29bd fc33 3d3d 9ad1 b9bd 7d8b 493d
00000040: b796 973d b887 6f3d f2b2 ddba 3e7f 973c
00000050: 589b 27bd 5d59 27bd 6279 6c3d e7f8 49bc
00000060: f2df 0cbe 5958 0d3d 4c13 33bc 18d3 11bd
00000070: 5b15 60bd df26 b13d 4b2d 4b3d 7e98 863c
00000080: f2a2 92bd 1102 a63d fa2a 5bbc ba8b 00bd
00000090: 9918 34bd a986 eebd 2750 c13d 268f 3ebd
000000a0: 0c5e 41bd 9ae6 82be 5bcd c03c 0fbd 033d
000000b0: e99a 5dbc 9533 583d 91ba f93b bf93 65bb
000000c0: b316 2c3d 6d8d c33d 4771 b2bd 4a96 a23d
000000d0: 07f9 ee3d 0ef4 1c3d 47e4 96bd ea74 abbd
000000e0: 53f4 f83c e758 e43c 5657 2fbd fabf c93c
000000f0: 8018 93bd 7a94 473d 889a 06be 8798 54bd
-0.04018566 0.032904137 -0.019401064 -0.05528986 -0.043316677 -0.03917894 -0.07429641 -0.007198252
-0.032194857 0.014904101 0.10399188 0.062306333 -0.04141944 0.046192154 -0.090731815 0.049205292
0.074017935 0.05847904 -0.0016914292 0.018493291 -0.04091963 -0.040856708 0.057732947 -0.012327409
-0.13757303 0.034508083 -0.010929894 -0.035601705 -0.054707866 0.08649992 0.04960374 0.016430136
-0.071599856 0.08105863 -0.013376946 -0.031383254 -0.04396877 -0.11646778 0.09439116 -0.046523236
-0.04720883 -0.2556656 0.023535421 0.032162722 -0.013525703 0.052783567 0.0076211174 -0.003503069
0.042013835 0.09548459 -0.08713012 0.079388216 0.11668592 0.038318686 -0.07367759 -0.08371909
0.03038994 0.027874423 -0.0428079 0.024627674 -0.071824074 0.048725583 -0.13144886 -0.051903274
