data/rnd_scale=1000_no_norm/rnd_scale=1000_no_norm_s30/pyt_save/model.pt (torch_old, 59768 bytes, 16 tensors)

weight f4 [64, 2]
000000 ed 77 46 3f aa c1 30 40 33 9c 8c bd df b3 4e 40
       0.7752674 2.7618203 -0.0686573 3.2297285
000010 38 37 77 3e 92 b3 31 40 13 9c 66 3f 4f 04 b1 3f
       0.24142158 2.776585 0.900819 1.382944
000020 80 ec 69 bd 17 56 3a 40 b2 82 09 3f 70 5e f9 3f
       -0.05711031 2.9115045 0.5371505 1.9481945
000030 b4 ae 8d 3f 0c 70 e3 3e 66 88 03 bf e5 dd 23 c0
       1.106894 0.44421422 -0.5138 -2.5604184
000040 ef 1f 79 3f 77 2d c7 bf 08 07 86 bf 2a f8 ca bf
       0.9731435 -1.556075 -1.0470896 -1.5856984
000050 66 f0 4b 3f 75 2b 8f bf e0 58 cd be 65 a2 c8 bf
       0.79663694 -1.1185137 -0.4010687 -1.5674559
000060 5a b6 19 3e 3a 22 1b 40 ec 9e 4e bf e0 8c e2 bf
       0.15010968 2.423964 -0.80711246 -1.7699242
000070 60 1c 7d bf 8e bc 4d bf 04 4c 70 3f 39 13 ae bf
       -0.9887142 -0.80365837 0.9386599 -1.3599616
000080 3e 22 67 bf d0 54 e9 3e e5 04 44 be db 20 2d 40
       -0.90286624 0.4557252 -0.19142492 2.7051303
000090 70 88 ed be ac 38 0d 40 82 ac b1 be 2f 5a 2e 40
       -0.46393156 2.206584 -0.34701926 2.7242544
0000a0 2c 15 b3 bf 19 bc 2f 3e be 53 01 bf 22 d8 0b 40
       -1.3990836 0.17161597 -0.50518405 2.1850667
0000b0 0a 7c e3 be cf e0 28 c0 d6 59 85 3f d2 9c 12 40
       -0.44430572 -2.6387212 1.0418041 2.2908216
0000c0 14 c1 a1 bf 86 33 d0 bf fb 4c 43 be 70 55 1b 40
       -1.2637048 -1.6265724 -0.19072334 2.4270897
0000d0 43 68 de be 58 b9 1e c0 58 37 0e bf cc a7 bc 3f
       -0.4343892 -2.4800625 -0.555532 1.4738708
0000e0 f2 d8 27 3f c3 e7 28 40 8a dd 82 3e ca ac 43 c0
       0.6556541 2.6391456 0.25559646 -3.0574212
0000f0 3f a9 d2 3e 1f 67 29 c0 9a c4 88 3f f5 45 d6 3e
       0.4114475 -2.646919 1.0684998 0.41850248
000100 cf 16 70 3f 62 8b 82 bf 96 4a b1 3f fa 8c 60 3e
       0.93784803 -1.0198786 1.3850887 0.21928778
000110 cf fa 26 3f 7c a7 15 40 45 36 94 be cc ef 2c 40
       0.65226454 2.3383474 -0.28947654 2.702136
000120 d7 73 9d 3e a3 6e 3f c0 90 20 da be 15 71 4b 40
       0.3075244 -2.9911277 -0.42602968 3.178777
000130 64 bf 79 3f 7d 71 1a 40 c4 ed 1f 3e 60 21 59 40
       0.97557664 2.4131768 0.15618044 3.392662
000140 93 10 b6 3e 35 be 1c c0 d0 8a 1d 3e 51 aa 2e 40
       0.3555952 -2.4491093 0.15384984 2.7291453
000150 1d 45 8b be 1f be 26 c0 98 07 f5 39 11 cc 44 c0
       -0.27201167 -2.605354 0.000467357 -3.0749552
000160 1f 92 ad 3e 5e 84 5c c0 92 77 ac 3e 35 3f 18 c0
       0.33900544 -3.445579 0.33684975 -2.3788579
000170 a6 67 33 3f c8 c2 17 40 55 09 53 3e 40 83 23 c0
       0.7008003 2.3712635 0.20609029 -2.5548859
000180 9c 8f fc 3e c0 47 5b c0 0b a9 79 bf b3 6f 1e bf
       0.49328315 -3.4262543 -0.97523564 -0.6188919
000190 3a 05 47 3f 9e 79 28 40 18 7a 0f 3f 8a 50 47 40
       0.7774235 2.632423 0.56045675 3.1142907
0001a0 a3 42 40 3f da f6 33 40 df c8 ea 3c d7 47 44 c0
       0.7510168 2.8119416 0.028660236 -3.0668848
0001b0 d1 23 14 3e 3e 09 2e 40 1e c7 2f bf e9 28 8c bf
       0.14466788 2.719314 -0.68663204 -1.0949985
0001c0 a1 3d 03 be 0f 32 ee 3f 27 c9 ae 3d 1e 30 49 c0
       -0.12816478 1.8609027 0.085344605 -3.1435618
0001d0 f9 92 2d bf 79 fb 7e bf 26 23 fb 3d 54 43 38 40
       -0.6780239 -0.99602467 0.122625634 2.8791094
0001e0 8e b2 23 3f d3 35 97 bf 9f 9e 99 3c bf 40 33 c0
       0.6394433 -1.1813301 0.018752394 -2.8008268
0001f0 9d 08 3f bf cc 2e bc 3d 93 7e 8c bd 87 93 47 c0
       -0.7462252 0.09188613 -0.068600796 -3.1183794

bias f4 [64]
000000 b9 e8 24 3f b3 b8 a5 3e dd 21 ac be 9c f3 87 3e
       0.64417607 0.32367477 -0.33619586 0.26553047
000010 f3 77 1b 3f 3f a4 5d be 89 7e c3 3e 78 d6 93 be
       0.60729903 -0.21644686 0.38182476 -0.28874564
000020 0e 9e 3e 3f 7b 11 fd 3d 16 90 c4 3e 8b 97 24 bf
       0.7445992 0.1235685 0.3839118 -0.64293736
000030 7d 74 8b be 2c 07 39 bf 5d c5 ec be f8 4d 30 3f
       -0.2723731 -0.7227657 -0.46244326 0.6886897
000040 05 3a b3 be 08 ea 8d be fc c9 71 3e 85 88 c5 3e
       -0.35005203 -0.27717614 0.23612207 0.3858072
000050 e6 79 d1 3e 97 7f 47 3e 20 f6 e6 bd 32 02 de bd
       0.40913314 0.19482265 -0.11277413 -0.108402625
000060 23 74 93 3e 18 4e ff 3e 5f 01 1b 3e 64 89 0c bf
       0.28799543 0.49864268 0.15137242 -0.5489714
000070 f7 86 94 be eb ab 07 3e 26 13 90 bc aa 20 dc 3e
       -0.2900922 0.13249175 -0.017587256 0.4299367
000080 c9 67 81 3e ab 91 0a be f4 c2 76 3d 71 81 97 be
       0.25274494 -0.1353213 0.060244516 -0.29590943
000090 e3 26 a7 be 9f 94 c8 be f5 73 a1 be ff 6e 2b 3f
       -0.32646856 -0.3917589 -0.3153378 0.6696624
0000a0 52 1f a0 bc f4 ae 78 be 4f d6 bb bd 04 fe e7 bd
       -0.019546185 -0.2428549 -0.091717355 -0.113277465
0000b0 ed f7 1b bd 00 e6 3e be da 1a 1b be df c9 e5 be
       -0.038078237 -0.18642426 -0.15146962 -0.44880578
0000c0 75 72 13 3e c9 80 3f bf 6d fb 9a be 38 6e 2c 3f
       0.1439913 -0.74805886 -0.30269948 0.6735568
0000d0 1c 05 10 be 49 77 09 bf 47 cb 89 be 41 27 09 3e
       -0.14064449 -0.5369764 -0.269129 0.1339388
0000e0 e9 ed 31 3f a0 2e b8 bd 1d d5 56 be a4 fb 17 3e
       0.6950365 -0.08993268 -0.20979734 0.14842087
0000f0 58 b5 7c 3e bf 96 fb be 5b 5d 27 bf 76 08 14 bf
       0.24678552 -0.49138448 -0.65376824 -0.5782541

weight f4 [64, 64]
000000 92 ae 3d 3d 33 9c b5 3d ae be 2f bd e8 81 6c 3e
       0.04630906 0.08867683 -0.042906456 0.2309643
000010 9a 1c 40 3e b7 26 86 3d 10 ca f4 3d 1c d7 c0 be
       0.1876091 0.06550353 0.11952603 -0.37664115
000020 34 e9 36 be 87 8f 1f be 2f de 0d bc 6b 3e bd bd
       -0.17862397 -0.15582095 -0.00865893 -0.09240421
000030 37 88 0b 3e 4f 45 eb bd 61 82 da bd 8c f1 1c be
       0.1362618 -0.11487829 -0.10669399 -0.15326518
000040 2c ba 3c 3d 91 2f 83 3e 41 85 d9 bd e2 ec 82 bd
       0.046075985 0.25622228 -0.10621119 -0.06392838
000050 22 bb 8a bc 1c 60 99 3d 30 8b a1 be 1a 97 52 3d
       -0.016934935 0.074890345 -0.31551504 0.051413633
000060 18 a6 93 3b 89 bb cf 3d 22 7b 64 be 90 fa 03 3e
       0.004505884 0.10143191 -0.22312596 0.12888551
000070 34 c0 20 3e 83 67 ec be 67 e8 30 be 82 7c 0d 3e
       0.1569832 -0.46172723 -0.17276154 0.13817027
000080 bf db 26 3d c3 5e 92 bc b2 8e 50 3e cb db 3a 3e
       0.04073691 -0.017867452 0.20366934 0.18247907
000090 b3 a6 30 be 2f b1 a6 3e b8 be 68 3e 60 ce bb 3d
       -0.1725109 0.32557055 0.22729003 0.09170222
0000a0 d6 b4 8f 3b 14 55 45 3e 31 1a 91 be 05 14 6f bf
       0.004385571 0.19270736 -0.28340295 -0.9338992
0000b0 b1 21 c7 bd 7c ee 0b bd aa ff ff 3d 46 5a 29 3d
       -0.09723223 -0.034162983 0.12499936 0.041345857
0000c0 ae 93 83 be e3 2d 85 bc 55 29 a5 bc 7b 38 25 bc
       -0.25698608 -0.016257232 -0.02016131 -0.010084267
0000d0 33 65 67 3d 27 1b 58 bb 20 52 d3 3d 95 94 fe bb
       0.056492995 -0.0032975168 0.103183985 -0.007769177
0000e0 78 9c fb bc e5 1d 23 bf 84 12 56 be 18 31 72 3f
       -0.030714259 -0.6371749 -0.209055 0.9460616
0000f0 cd 6d 55 bd 25 68 3c be 54 68 e3 3c 07 a4 57 be
       -0.052106667 -0.18399103 0.027759708 -0.21058665
000100 d3 86 e4 3f 77 ca 11 3e e6 e6 b3 bd c4 ed 9c 3e
       1.7853645 0.1423739 -0.08784275 0.3065015
000110 e9 5a 5c 3e 03 6f 5e bd f0 df 90 3e 4a c5 2a bf
       0.21519054 -0.054305088 0.2829585 -0.6670729
000120 05 30 03 40 56 44 7a 3d d4 8f 46 3f a0 6f 3e bf
       2.0498059 0.061100326 0.77563214 -0.74389076
000130 f0 8a 0a be 85 69 43 c0 e7 76 01 bf 39 25 d6 3f
       -0.13529563 -3.0533154 -0.50572056 1.673011
000140 f3 f7 a1 be 7b 2c fe be ff bc 4c 3e 83 1b 72 3e
       -0.31634483 -0.4964331 0.19993971 0.23643307
000150 fc 69 2c 3e 22 56 41 bd d4 36 71 be df c2 f8 bd
       0.16837305 -0.047201283 -0.23556072 -0.12146544
000160 dd 62 f9 3d 19 75 ef 3d 3b ac 5f 3c 38 a4 06 c0
       0.1217706 0.116922565 0.013651903 -2.103773
000170 e0 62 6c be 9a 4d a6 3f bd 81 3a 3e 35 3b 04 3f
       -0.23084593 1.2992432 0.18213554 0.5165284
000180 34 06 a3 3e ed 14 7f be 88 5a 0d 3e 5e 74 7e bf
       0.3184067 -0.24910326 0.13804066 -0.9939631
000190 46 21 70 bc 22 db 06 c0 a0 93 70 bd a7 7a e3 3e
       -0.0146563705 -2.1071248 -0.058734536 0.44429514
0001a0 b3 fe 0f 3e 4f 0e 2d be a7 dc 72 be f8 06 9d be
       0.14062004 -0.1689999 -0.23716985 -0.3066938
0001b0 81 28 a4 3d fa 5b 0f be 14 2d 0f bd 79 c3 cd bd
       0.08015538 -0.1399993 -0.0349551 -0.10047049
0001c0 6f 6b 02 3f 8e 7f d0 bf b5 b1 20 be 2e bb af 3f
       0.5094518 -1.6288927 -0.1569279 1.3728998
0001d0 fb 6c bd bd 69 4c b3 be 64 28 25 be ba ed a5 3c
       -0.09249302 -0.35019234 -0.16128689 0.020254958
0001e0 df 58 6a 3e 00 11 56 3c cd 67 64 be d4 b3 17 40
       0.22885464 0.013065577 -0.22305222 2.3703508
0001f0 3b 05 07 3f d2 94 af be eb 40 53 c0 63 14 c6 be
       0.52742356 -0.34293228 -3.3008373 -0.3868743
000200 95 82 4a bf 82 ee 32 be 42 8b ab 3d 5e ec e1 bf
       -0.791055 -0.17473796 0.08376171 -1.7650259
000210 fc bf 34 be e0 62 33 be 54 9a eb bf 4b d8 ba 3f
       -0.17651361 -0.17518187 -1.8406472 1.4597257
000220 74 58 86 bf c5 cb b6 3e c6 4d 4d c0 0f 89 9a 3e
       -1.0495744 0.3570234 -3.207872 0.30182692
000230 50 14 dd 3d fa 77 ed 3e 44 c1 13 40 70 a8 88 bf
       0.1079489 0.46380597 2.308671 -1.0676403
000240 7e 7a 0a 40 4b 93 51 3e 5e a8 73 3e b8 04 34 3e
       2.1637263 0.20466344 0.23794696 0.17579925
000250 30 5f 1b 3e af 0e 80 3e 97 47 c4 3f 2d 6f c8 be
       0.1517303 0.25011203 1.5334347 -0.3914732
000260 de b5 56 3e b6 96 01 bd 22 ba 9c 3e d8 f6 0b 3f
       0.20967814 -0.03163787 0.30610758 0.5467353
000270 4c 00 30 be d2 6c ba bf 9f 73 00 bf a5 1b 30 c0
       -0.17187613 -1.4564459 -0.50176424 -2.7516873
000280 9c 65 62 bf c5 41 e7 be f5 0a 77 bf d2 75 de 3e
       -0.88436294 -0.45167366 -0.96501094 0.43449265
000290 8d 8c b9 bd 1c 8a 06 3f a0 7e 36 be 77 bd 49 be
       -0.09060011 0.5255449 -0.17821741 -0.19701181
0002a0 d1 dc ee be 8e 1a 7a 3c a7 28 d2 3f d9 fa a5 3e
       -0.46652845 0.01526512 1.6418656 0.32417944
0002b0 34 ba ce be bb 56 d8 bd 60 71 99 be 0f 07 dd 3d
       -0.40376437 -0.105634175 -0.2996931 0.10792362
0002c0 d6 ae b5 bf 48 39 53 3f 61 43 96 be 15 12 e8 be
       -1.4193981 0.8250928 -0.2934828 -0.45326295
0002d0 10 bc cd be 1a 9a cc 3c 72 f7 b2 bd b3 9d 99 3e
       -0.40182543 0.024975825 -0.08738603 0.30003127
0002e0 87 c7 13 be c6 00 1c bb b8 91 d9 3f 7b 98 2a bf
       -0.14431582 -0.0023804172 1.6997595 -0.66638917
0002f0 c6 22 0f c0 a9 c8 01 3e 6d 75 14 3f c0 a5 02 3e
       -2.2364974 0.12674202 0.5799168 0.12758541
000300 eb dd 26 bf 16 e8 5b 3e 39 68 05 bb 02 17 93 bf
       -0.6518237 0.21475253 -0.002035631 -1.1491396
000310 87 c3 0a be 83 ae 25 bd d3 27 b0 bf 57 e9 50 3f
       -0.1355115 -0.04044963 -1.3762153 0.8160605
000320 f4 b3 a0 bf ed 81 88 3e 40 25 69 c0 d4 75 a5 3e
       -1.2554917 0.26661626 -3.6428986 0.32316458
000330 37 a5 2d 3e 81 60 9d 3e 93 88 ce 3f de 91 a4 bf
       0.16957556 0.3073769 1.6135429 -1.2857015
000340 15 4f d2 3f 9b d4 2c 3f 62 97 fc 3d 40 4a 1f 3e
       1.6430384 0.6751191 0.123335615 0.15555668
000350 55 ea 38 3c 3e 64 d7 3d af de 00 3f 5c 14 95 be
       0.011286338 0.105171666 0.5033979 -0.29117095
000360 2e 49 4a 3e 92 d3 14 3d bc 88 95 bd f3 d8 19 3f
       0.19754478 0.03633458 -0.07301471 0.60096663
000370 3a 66 1a bd b6 97 60 c0 e7 61 2a bf ee aa e0 bf
       -0.037695147 -3.5092597 -0.6655564 -1.7552164
000380 41 5a 56 bf 8f 8e 26 be 1b b2 a2 be 6f 75 2a 3f
       -0.83731467 -0.1626532 -0.3177651 0.6658544
000390 8e b8 8a bd c8 03 58 3f 20 1d 19 be b6 75 e6 bd
       -0.06773482 0.8438077 -0.14952517 -0.1125292
0003a0 0b 36 03 bf 68 94 e2 3d 7d 6e a1 3d 73 81 26 bf
       -0.5125434 0.110634625 0.07882402 -0.65041274
0003b0 ed 6d 3c bf 76 52 7c be 1a 7d 68 bd f2 01 9c bd
       -0.73605233 -0.24640831 -0.05675993 -0.076175585
0003c0 de 27 df bf 84 fe 3e 3f 69 20 05 3d 09 d3 ba be
       -1.7434042 0.7460711 0.03250161 -0.36489132
0003d0 dc 48 37 be 3b d6 4e bd d8 96 83 3e c3 7f 23 3d
       -0.17898887 -0.050497275 0.25701022 0.039916765
0003e0 bc 33 b2 3b f5 eb 41 bf cb a6 87 3f 6b a7 1f 3e
       0.005438296 -0.75750667 1.0597776 0.15591209
0003f0 ae ee e6 bf 2a b9 bc bd 4b 57 13 3f 33 31 6e bc
       -1.8041589 -0.09215005 0.57555073 -0.014538097

bias f4 [64]
000000 db dc a5 bd ce 18 c1 3e ef d7 2d be de 95 7d be
       -0.080987655 0.37714237 -0.16976903 -0.24764201
000010 ed 4c 91 bd 27 c2 54 be 07 5e f2 3d b7 ed c0 3c
       -0.070947506 -0.20777188 0.118343405 0.023550851
000020 17 65 01 be fc 3a c1 be f1 a9 97 3b 90 55 c5 bd
       -0.12636219 -0.37740314 0.004628413 -0.096354604
000030 59 e2 08 be 45 d0 d6 3d 80 51 62 3e ae 88 0e 3d
       -0.13367595 0.10488943 0.22101402 0.034798317
000040 8c ca a0 bd 63 69 98 bd 2c 24 ec 3c be 0f 04 be
       -0.07851133 -0.07441976 0.028825842 -0.1289663
000050 38 60 ab bd aa 8e 21 3d c5 f5 29 3d ab ab 09 3d
       -0.08367962 0.039442696 0.04149415 0.03361098
000060 dd b4 31 bc d5 e5 cf 3d 04 e1 b8 bd eb 18 74 3d
       -0.010846344 0.10151259 -0.09027293 0.059594076
000070 32 59 b5 3d 2a 88 4c 3d 69 7f 84 be 64 bc 27 bc
       0.08854903 0.049934544 -0.25878456 -0.010237787
000080 3a 59 9c 3d 27 f6 31 be 4d 5e 8b 3d 29 32 04 be
       0.07634206 -0.17379056 0.06805096 -0.1290976
000090 ae fb 8a 3d 5f fa 99 3d ba d8 e3 3d a7 5c 35 3e
       0.06786285 0.075184576 0.11125322 0.17711125
0000a0 2e 80 dc bd 30 7c 2f be 9e 21 15 bd 24 f8 86 3d
       -0.10766636 -0.17137218 -0.036409013 0.06590298
0000b0 b2 9b 3f 3c 11 de 31 3d ec c9 a9 3d b0 1b 6d 3c
       0.0116948355 0.04342467 0.08290467 0.014471933
0000c0 67 bd 34 be bb c2 69 3e 00 f9 f5 3d 83 5e c7 be
       -0.17650376 0.2282819 0.120103836 -0.38939294
0000d0 a6 00 8f be a9 be a8 be 5b f5 de 3d e0 35 e6 bd
       -0.27930182 -0.32957962 0.108866416 -0.112407446
0000e0 25 6e 8e bd 62 43 f3 ba 87 c2 17 3e ad 7d 12 3d
       -0.06954602 -0.001855951 0.148203 0.035764385
0000f0 4c 2f 77 3d 36 98 63 bd 01 3d 05 be 64 e2 6f 3d
       0.06034784 -0.05556508 -0.13011552 0.058565512

weight f4 [3, 64]
000000 2a 59 70 bf ee ae cb 3f ee 38 a8 bf 1e fd fd bf
       -0.93886054 1.5912759 -1.3142374 -1.984287
000010 e3 c1 9f bf 3f 1c a2 bf 65 d8 44 bf 06 46 8a 3f
       -1.2481045 -1.266487 -0.7689269 1.080262
000020 89 f9 73 3f f6 e2 a4 3f 68 23 8d bf a7 00 68 bf
       0.95302635 1.2881763 -1.102643 -0.90625995
000030 80 8a 47 3f 10 3d 82 3f c9 6e 25 3f 1c 11 73 3f
       0.7794571 1.0174885 0.6462217 0.9494798
000040 3f 76 64 3f f5 5c 90 bf 0d 08 2a 3f 2d 8d c9 be
       0.8924293 -1.1278368 0.66418535 -0.3936552
000050 c8 da 92 bf 80 17 70 3f 26 a1 91 bf 34 a2 6d bf
       -1.1473017 0.9378586 -1.1377304 -0.9282563
000060 09 24 fe be ee e4 88 bf 41 c6 87 bf c8 bc a7 3f
       -0.49636868 -1.0694864 -1.0607377 1.3104486
000070 7f 9e f6 be 82 3b 6c bf 79 97 0c c0 b0 43 98 3f
       -0.48167798 -0.922783 -2.1967452 1.1895657
000080 4f 4f 16 3f 51 ab 52 3f f6 f6 1e 3f 61 07 dd bf
       0.58714765 0.8229266 0.6209558 -1.7267877
000090 f8 f2 4a bf 86 51 5b bf 1e 03 6e bf 44 67 85 3f
       -0.7927699 -0.8567127 -0.92973506 1.0422139
0000a0 89 7b 6d 3f cb d3 c7 bf 24 a5 84 3f df 9e 4e 3f
       0.92766625 -1.5611509 1.0362897 0.8071117
0000b0 e2 6d 8b bf df 1f 08 bf 0a b0 85 3f 27 84 74 3f
       -1.0892909 -0.5317363 1.0444348 0.9551415
0000c0 45 ad df bf 12 54 69 3f ba 2f 0c bf d9 d4 79 3f
       -1.7474753 0.91143906 -0.54760325 0.97590405
0000d0 6b 28 51 bf 69 ea fd be f0 7b cc 3e d6 f3 e1 3e
       -0.817023 -0.49592903 0.39938307 0.44131345
0000e0 3e 3d 87 3f 37 1b 59 3f ca 12 86 bf 21 02 96 bf
       1.0565565 0.8480715 -1.0474484 -1.17194
0000f0 12 1c 11 bf 25 64 6a bf 26 f3 25 3f 9e 52 2e bf
       -0.56683457 -0.9155906 0.6482414 -0.68094814
000100 56 5b 83 be f1 13 5d bf 60 dc f1 be 0b 77 cf be
       -0.2565562 -0.86358553 -0.47238445 -0.4052051
000110 21 86 0f bf 41 c4 d0 be 7a 77 1c bf d0 a6 01 3f
       -0.5606404 -0.4077473 -0.61119807 0.5064516
000120 b5 9b 4a 3f 98 24 01 3e 56 36 bc be ee 28 80 be
       0.7914384 0.12611616 -0.36760205 -0.25031227
000130 6b 87 bb 3e dc eb e9 3e 93 09 06 be 74 9f 4a 3f
       0.36626753 0.4568776 -0.1308959 0.79149556
000140 cd 65 a6 3e 8a 41 45 bf 7e 84 b4 3e a5 4a dc 3e
       0.32499543 -0.7705313 0.35257334 0.430257
000150 ee 69 0d 3f 74 3d 27 bc 6a 84 3a bf e6 be d6 3e
       0.5523976 -0.010207523 -0.728583 0.4194252
000160 ae 73 b5 be f0 c0 c7 be 4b 0e 82 be 6e eb b8 3d
       -0.3543982 -0.39014387 -0.2540153 0.0902928
000170 86 79 46 bf 60 16 17 bf 8c f2 5c 3f e0 66 c6 3d
       -0.7752918 -0.59018517 0.863076 0.096875906
000180 37 5d 31 3e 92 a0 c9 3e f1 97 39 3e 0b d9 bf be
       0.17320715 0.39380318 0.18124367 -0.37470278
000190 79 2d 12 bf 91 22 a4 3e c7 1d 0e bf a0 74 1e bf
       -0.57100636 0.32057622 -0.55514187 -0.61896706
0001a0 4a 10 89 3e f3 14 1a 3f 13 8a 10 3e 36 12 02 be
       0.2677024 0.60188216 0.14115171 -0.1270226
0001b0 7e a5 d3 be 84 08 24 bf 19 12 da 3d 1a ef 94 3e
       -0.41337198 -0.64075494 0.10647983 0.2908867
0001c0 04 d3 ee be bc d6 fd be 48 01 c3 be 26 9e f5 3d
       -0.46645367 -0.49577892 -0.38086915 0.11993055
0001d0 b9 1a 0d 3f 0c c2 0f 3f bb 3b d0 bd 84 91 a1 be
       0.551189 0.5615547 -0.10167643 -0.31556332
0001e0 2f 22 1f 3e 54 a5 ad 3e 41 d2 00 bf c3 64 21 bf
       0.15540384 0.33915198 -0.5032082 -0.63044375
0001f0 5b c1 53 be 6f 9d 15 3f c6 e6 8f 3e d3 5a e7 bc
       -0.20679228 0.5844335 0.28105754 -0.02824155
000200 e6 4d 7a 3f 37 f0 9c bf 5a 15 ac 3f 4a 60 f4 3f
       0.97775114 -1.2260808 1.3444016 1.9091885
000210 f2 00 96 3f ec 18 95 3f 33 4c 81 3f d7 2c 97 bf
       1.1719038 1.164823 1.0101379 -1.1810559
000220 0c 7f 88 bf 99 68 a9 bf 39 3d 87 3f 3b c9 3f 3f
       -1.0663772 -1.3235046 1.0565559 0.7491643
000230 5c 88 58 bf 08 10 75 bf db a9 5b bf 2b 4c 7b bf
       -0.8458307 -0.95727587 -0.85806054 -0.981631
000240 a0 a1 64 bf 29 bc 94 3f 78 ea 5b bf 8b 6f 2a 3d
       -0.8930912 1.1619922 -0.85904646 0.041610282
000250 88 36 3f 3f b9 24 65 bf e0 7c 86 3f d5 5f 25 3f
       0.74692583 -0.8950916 1.0506859 0.64599353
000260 e2 b2 38 3f 5a bf 69 3f cb 0c 85 3f e6 8e aa bf
       0.72147954 0.91307604 1.0394529 -1.3324859
000270 f8 c6 39 3f ef 6d 7d 3f af d8 c9 3f 32 b3 81 bf
       0.7256923 0.9899587 1.5769252 -1.0132811
000280 ed fb 0c bf a0 8d 64 bf ae 4c 58 bf 42 ac e3 3f
       -0.5507191 -0.892786 -0.84492004 1.7786944
000290 53 0a 5e 3f ba d9 42 3f aa 7a 86 3f 6d f7 5f bf
       0.86734504 0.76113474 1.0506184 -0.87486917
0002a0 2d d0 80 bf 54 3d 92 3f 6d 3a 5d bf 97 4c 3b bf
       -1.006353 1.1424966 -0.86417276 -0.7316374
0002b0 f0 cf 5e 3f 9e ab 43 3f 1c ae 84 bf df 40 81 bf
       0.8703604 0.7643374 -1.0365634 -1.0097922
0002c0 25 a8 ce 3f 76 3c fe be fa a6 02 3f 59 09 90 bf
       1.6145064 -0.49655503 0.51036036 -1.1252853
0002d0 b6 37 15 3f 21 f2 30 3e 33 88 74 be 5f 89 30 be
       0.58288133 0.17279865 -0.23880081 -0.17239903
0002e0 9b 99 61 bf 73 f8 6e bf 35 fe 8a 3f 85 b2 84 3f
       -0.8812501 -0.93347853 1.0858828 1.036698
0002f0 6c 8f 52 3f 34 3a 08 3f 1b ab 39 bf f1 5d 59 3f
       0.82250094 0.5321381 -0.7252671 0.8490897

bias f4 [3]
000000 22 c5 57 3e ce 57 ff be b5 f2 6b 3e
       0.21071294 -0.49871677 0.23041804

weight f4 [64, 2]
000000 30 54 b0 bf bf e5 c9 3f 58 06 a9 3e 5b bf 9a c0
       -1.3775692 1.5773238 0.33012652 -4.835859
000010 d0 8b 94 3f 26 26 94 c0 c0 67 6b 3e 37 ed bd 40
       1.1605167 -4.629657 0.22988796 5.935207
000020 f1 1b c1 3f 06 7a 36 c0 99 ad 7d be 77 fb ba c0
       1.5086652 -2.8511977 -0.24773254 -5.8431964
000030 78 44 2b 40 99 c5 9d 40 2a 1d 84 3e fd b3 a2 40
       2.676054 4.930371 0.258035 5.084471
000040 44 3e 91 3d 41 2e c3 40 95 0a fd 3e 16 ce c9 c0
       0.07091954 6.099396 0.49422136 -6.306407
000050 29 81 a4 bf 47 37 36 40 cf c5 44 c0 13 42 9f c0
       -1.2851917 2.8471239 -3.0745733 -4.9768157
000060 c1 a6 97 3e 4d 34 92 40 f8 8e 47 40 d7 2c 9f 40
       0.2961941 4.5688844 3.1181011 4.9742236
000070 5d d6 0d bf 51 74 ac 40 4b 92 a7 3f a3 6e 41 be
       -0.5540522 5.389199 1.309152 -0.18889861
000080 d6 47 b0 bf bb ad 28 40 84 57 c1 bf f4 b0 a8 bf
       -1.3771923 2.6356037 -1.5104833 -1.3179002
000090 16 eb 21 3e 85 19 17 40 ae db 36 3f f5 99 bf 40
       0.15812334 2.3609326 0.71428955 5.9875436
0000a0 f0 c8 89 3e 6c cd c7 40 2e 19 5c 3e 86 9c bd 40
       0.26911116 6.243826 0.2149398 5.925357
0000b0 fd af b2 3f 0a d1 b0 c0 33 ca 6a bf 26 ff ce bf
       1.3959957 -5.5255175 -0.9171478 -1.6171615
0000c0 49 47 35 3f 57 81 ac c0 5f 38 db be d6 aa 89 c0
       0.708119 -5.3907886 -0.42816445 -4.302104
0000d0 70 f2 c6 be 22 19 93 c0 cf f2 bf bf a4 a9 a0 3f
       -0.3885684 -4.596818 -1.4995974 1.255177
0000e0 b9 ca c7 3e f1 99 91 40 7a 8c 4d 40 cb 56 b6 40
       0.39021853 4.5500417 3.211699 5.698095
0000f0 71 2e c3 3f 45 08 85 c0 d5 e9 74 bf 16 20 ab c0
       1.5248548 -4.1572595 -0.956693 -5.3476667
000100 c9 d5 bf 3e 2a c7 b8 40 52 17 ba bf 43 ca c5 40
       0.37467793 5.774312 -1.4538367 6.18094
000110 fe bf bd bf 05 fd 0c 40 ea ba ad 3f a5 a0 93 c0
       -1.4824216 2.202943 1.3572667 -4.61336
000120 a5 f1 ba bf e2 54 60 bf 25 7a 76 3e b0 29 e2 c0
       -1.4604994 -0.8762952 0.24070032 -7.067589
000130 9c ea 52 40 0d 8d 94 40 0d 80 c0 3f 72 a9 b4 40
       3.2955694 4.642218 1.5039078 5.6456842
000140 9a 02 8b bc b3 fb cc 40 a6 f9 c6 3f 85 11 b7 40
       -0.016969014 6.405725 1.5544937 5.7208886
000150 b4 7f e3 3d 04 59 f4 bf 8b 1e 76 be 4a b9 bc 40
       0.11108342 -1.9089665 -0.24035089 5.8976183
000160 11 c0 8d 3f 66 14 43 40 7f 2e 1a bc e9 15 ca 40
       1.1074239 3.04812 -0.0094105 6.3151746
000170 a7 ec 9d 3e 1f dd 9c 40 e8 6c 25 3f 55 30 b7 40
       0.30844614 4.9019923 0.646193 5.72465
000180 37 24 4d 40 e1 36 c3 40 9d e1 07 c0 80 31 9e c0
       3.2053354 6.100449 -2.1231453 -4.9435425
000190 40 73 2e bc c1 b4 d3 c0 be f8 4c c0 fc ea bc c0
       -0.010647595 -6.6158147 -3.202682 -5.9036846
0001a0 ee 65 97 bd d2 59 cc c0 51 52 96 3f 73 43 97 c0
       -0.073924884 -6.3859644 1.1743871 -4.7269835
0001b0 06 d8 19 be b8 43 ce c0 b0 e5 a0 3f 8d ee 85 c0
       -0.15023813 -6.4457664 1.2570095 -4.18537
0001c0 92 c2 e5 bd af a1 bc c0 71 b6 8a 3f 75 d6 c5 c0
       -0.11218752 -5.894737 1.0836927 -6.182429
0001d0 2a f9 f4 3d ca b2 cc 40 38 c8 ba bd 58 94 c7 c0
       0.11961587 6.396825 -0.0912022 -6.2368584
0001e0 49 07 e8 be 91 a6 b3 40 90 b2 ba 3e cd 3c ae 40
       -0.45318058 5.614083 0.36464357 5.444922
0001f0 89 c9 ab bf 2c 90 47 40 66 b4 bd bf b6 4d 88 c0
       -1.3420879 3.1181746 -1.4820678 -4.259486

bias f4 [64]
000000 f2 56 6f bf a9 b9 ec 3e 78 c1 33 3f 39 12 d7 3d
       -0.93492043 0.46235397 0.70217085 0.105015226
000010 a0 62 7c 3f 33 56 40 be 84 10 07 bf 87 57 0c 3e
       0.9858799 -0.18782882 -0.52759576 0.13705264
000020 73 2a 98 3d 84 87 18 3e 5c e0 52 bf 18 a3 00 3f
       0.074299715 0.14895445 -0.82373595 0.5024886
000030 bb a2 1e bf a1 69 0b bf 52 5a dc be fc 79 77 3f
       -0.61967057 -0.5445805 -0.4303766 0.9667051
000040 1b 40 63 bf 4b 24 9a bf e9 16 a6 3f cb dc 49 be
       -0.8876969 -1.2042326 1.2975742 -0.19713132
000050 33 12 c9 3d e0 67 47 3d b3 f0 35 3f d3 9e 58 bf
       0.09817924 0.048683047 0.710704 -0.84617347
000060 68 57 99 3e b7 dd 8d bf 71 3d f8 3e 02 06 8a bf
       0.29949498 -1.1083287 0.48484376 -1.0783083
000070 00 9c 44 3e 37 2a c6 be b7 c2 59 3f 3f 9b 89 3e
       0.19200134 -0.38704082 0.85062736 0.26876256
000080 2e 5a 31 be 24 0e 41 bf 2c b8 81 bf 4d 34 43 3f
       -0.17319557 -0.754122 -1.013433 0.7625168
000090 9c 17 97 bf 25 28 c9 3d 07 52 10 bf 34 23 dc be
       -1.180408 0.0982211 -0.56375164 -0.42995608
0000a0 c4 97 ee 3d 72 19 d1 be 88 49 c9 bf ef d8 89 3b
       0.11650041 -0.40839726 -1.5725565 0.0042067687
0000b0 27 ed 90 3f 16 d8 cb 3c 88 c7 82 3f 0c a6 06 be
       1.1322373 0.024883311 1.0217142 -0.1314928
0000c0 6a 8f 59 3e 8c 35 13 3f 98 b9 03 3c ac 77 4b be
       0.21246114 0.5750358 0.0080398545 -0.1986987
0000d0 f2 2b 38 be ba b2 25 3f 82 29 b4 bc 50 4d 25 3f
       -0.17985514 0.6472584 -0.021992449 0.64571095
0000e0 d7 43 4c bf b3 e1 09 3f 72 95 d8 3d c3 3c a1 bd
       -0.79791015 0.53860015 0.105753794 -0.078729175
0000f0 a2 e3 aa bd 5b 22 8d 3d 29 73 54 bf c9 f5 1d 3f
       -0.08344199 0.068913184 -0.8298822 0.61703163

weight f4 [64, 64]
000000 a3 55 66 3f e2 8d 96 be 1a d3 39 bf 4b 82 e6 3f
       0.8997442 -0.29405123 -0.7258774 1.8008512
000010 9a 07 88 bf 1e ca cc bf ea b5 85 3f 2b 03 de 3f
       -1.062732 -1.5999181 1.0446141 1.7344717
000020 df d7 26 40 64 79 19 c0 ba b4 3c 3f b1 04 9e bf
       2.6069257 -2.398034 0.73713267 -1.2345182
000030 b7 b1 e1 be af e4 c4 3f c3 56 3e 3f bb 2c 51 bf
       -0.44080898 1.5382289 0.7435114 -0.8170888
000040 ec 79 64 3f c2 82 67 3f 26 3e ea 3e 92 8b 51 3f
       0.8924854 0.90433896 0.4575054 0.8185359
000050 fc e2 dd 3f 7c 83 ea 3f c0 d6 8e bf 14 f8 8c 3d
       1.7334895 1.8321376 -1.1159286 0.06883255
000060 57 c6 13 c0 42 40 f7 be c4 cf a7 3e 7d e8 75 3f
       -2.3089807 -0.48291212 0.327757 0.96057874
000070 06 0b 8d 3f 37 b3 ee 3f 9e 3b 6e bf 2c 88 50 bf
       1.1018989 1.8648442 -0.9305972 -0.8145778
000080 67 ae cf 3e a3 e7 75 3f 6f e6 84 3f cc b0 63 bf
       0.40562746 0.96056575 1.0382823 -0.88941646
000090 45 ff 34 3f 84 5a 0c c0 e2 ff b5 3f 21 89 60 3f
       0.7070201 -2.1930246 1.4218714 0.8770924
0000a0 f9 a5 0f 40 12 73 95 3f 2e 6e 14 bf 72 1b 30 40
       2.2445052 1.1675742 -0.5798062 2.7516751
0000b0 f4 52 88 be 39 64 35 40 2b 04 27 3f 58 09 62 3f
       -0.26625788 2.834242 0.65240735 0.8829551
0000c0 63 1f 0b 40 e9 a4 23 bf a7 27 1c c0 61 31 10 c0
       2.1737907 -0.6392351 -2.4399202 -2.2530138
0000d0 0c f5 d4 bf 82 3c 51 bf 4a 2f 1a c0 3c dc 8b bf
       -1.6637282 -0.8173295 -2.4091363 -1.0926585
0000e0 c7 72 60 bf c5 3e a3 bf 3d d2 11 40 40 34 20 c0
       -0.87675136 -1.2753531 2.278457 -2.503189
0000f0 00 a6 1d 40 bb 5d c0 3f 32 a9 4d 3f 51 30 7a be
       2.4632568 1.5028604 0.80336297 -0.24432494
000100 89 80 0f bf 05 ff 93 3e f7 b2 bb 3e 51 00 1e 3e
       -0.56055504 0.28905502 0.36659977 0.15429808
000110 5a 89 01 3f d6 e5 78 be bf 8a 18 3d a2 59 a4 3d
       0.50600207 -0.24306425 0.037241694 0.080249086
000120 b6 9e 95 bd e4 24 d1 3d 62 38 1f bf d5 cc e1 3d
       -0.07305662 0.102121145 -0.6219541 0.11025397
000130 5a 04 d1 bd dd 03 2a be f2 00 8c be f5 fd 14 3f
       -0.10205908 -0.16603036 -0.2734447 0.5820001
000140 92 6b 2a bf 3b 05 2e bf e1 9c 96 3e 27 0b 2e bd
       -0.6657039 -0.6797673 0.29416564 -0.042491104
000150 40 83 d5 3d 90 37 f6 3c 3f 43 da 3e 90 86 43 be
       0.104254246 0.030055791 0.4262943 -0.190943
000160 8c b6 9d 3e 00 75 38 bf 17 e6 50 3e 05 db 11 bf
       0.30803335 -0.7205353 0.20400272 -0.5697482
000170 f0 dd c3 3e b5 a1 35 be 40 26 00 3f 55 bc bb 3d
       0.38255262 -0.17737468 0.50058365 0.09166781
000180 6c fc 9a be 3c a6 6e be 2a fa 13 bf 85 07 06 3f
       -0.30270708 -0.23305601 -0.57803595 0.52355224
000190 a2 5d 0d bf 1d 31 d4 3d f5 47 8f bd df d3 16 bc
       -0.55221 0.1036093 -0.069961466 -0.009205787
0001a0 93 91 23 be cd e3 8c 39 3c db ca bd 3a 1d 94 bd
       -0.15973501 0.00026872606 -0.09905097 -0.07232137
0001b0 4d 60 3d 3f d9 79 8c be 51 e8 40 3f 90 d2 e5 bd
       0.7397507 -0.27436712 0.75354487 -0.11221802
0001c0 03 69 28 be 58 5a 88 bc 9a 2c a3 3c b1 b8 d7 3d
       -0.16446309 -0.016644642 0.019918729 0.10533274
0001d0 79 81 0a be 74 51 b0 3e 85 29 58 3d 2b 50 e3 3e
       -0.13525952 0.34437144 0.05277397 0.443971
0001e0 e0 12 65 bf 18 65 b4 3e e4 10 13 3e 5c c9 3a 3d
       -0.89481926 0.35233378 0.14361912 0.045602188
0001f0 58 6e 11 be e6 44 f8 3e 1e 6a 0c bf 80 9e 21 3e
       -0.14202249 0.48490065 -0.5484942 0.15783119
000200 26 1f f8 bc c2 df 3d bf cf db 8d be b8 28 0b 40
       -0.03028829 -0.7416955 -0.27706763 2.1743603
000210 2f f8 e6 bd dc 51 b5 bf 31 bd bd 3f 5f 8c df 3f
       -0.11277806 -1.4165606 1.4823362 1.7464713
000220 60 92 24 40 b8 77 f8 bf 7d 68 68 3e 93 b4 1d bf
       2.571434 -1.9411535 0.22696109 -0.6160366
000230 65 78 b5 3f 89 55 20 3f 4e 4b 58 3f c2 28 a0 3d
       1.4177366 0.62630516 0.84489906 0.07820274
000240 42 38 fc 3c 5a a3 91 bd a9 b4 06 bf cc ca da 40
       0.030788545 -0.07111235 -0.52619416 6.8372555
000250 b9 f8 03 40 ed cc 32 40 df 12 e0 be 8b 36 62 3e
       2.0620558 2.7937577 -0.43764398 0.22091119
000260 d0 82 ac bf 6e 47 b0 3e 28 38 d6 bf 3a 4b 90 3c
       -1.3477421 0.34429497 -1.6735888 0.017613996
000270 7f e1 a2 3f 97 3c 9d bd 7a e8 80 be 02 5a a1 c0
       1.2725066 -0.07677572 -0.25177366 -5.0422373
000280 22 49 a3 40 5c da 11 3f 89 fa bc bc 31 0f 52 be
       5.1026773 0.56973815 -0.023068683 -0.20513608
000290 0a ff 48 bd c5 36 1e c0 08 5e af 3e 60 82 32 40
       -0.04907135 -2.4720929 0.34251428 2.7892075
0002a0 d5 c6 05 40 4f fa 5d 40 c0 e0 35 3f 35 7f 2f 40
       2.0902607 3.4684026 0.71046066 2.742139
0002b0 0d 85 1f be 28 57 4d 40 cc 46 af be 17 45 b8 40
       -0.15578099 3.2084446 -0.342337 5.758434
0002c0 70 13 4d bd 9e 80 c1 bf ed ea 4a c0 72 1a 56 3e
       -0.050067365 -1.5117376 -3.1705887 0.20908526
0002d0 ce 90 ab bf 41 13 ce be 52 f5 48 c0 ff 87 c7 be
       -1.3403566 -0.40249065 -3.1399732 -0.38970944
0002e0 ae d7 23 3e c3 48 39 bf 2a de 02 40 ce 11 31 c0
       0.16000244 -0.7237665 2.0448098 -2.7667117
0002f0 58 b0 f5 3f 36 2c 0f 40 ce 25 64 3e 98 ab be bf
       1.9194441 2.2370734 0.22280046 -1.4896116
000300 c4 89 11 c0 54 12 20 40 f5 97 f7 3f cf 29 28 c0
       -2.2740335 2.5011187 1.9343249 -2.6275518
000310 d8 20 08 40 cc 23 c2 3f ae 5a 08 bf 93 a5 0f c0
       2.1270046 1.5167174 -0.53263366 -2.2444808
000320 62 da 18 c0 25 96 bb 3f 85 ee 16 c0 12 78 06 3f
       -2.388329 1.4655195 -2.358308 0.5252696
000330 af 5b 6f bf 6e 75 10 bf 46 22 61 c0 4e bf 44 40
       -0.93499273 -0.56429183 -3.517717 3.0741763
000340 e4 68 0b c0 03 cb 1b c0 03 5a 38 3f 71 c9 97 bf
       -2.178277 -2.4342659 0.72012347 -1.185835
000350 6b ad 1a c0 4b d3 48 c0 e0 a9 bf 3f 12 6a cb bf
       -2.4168346 -3.1378963 1.4973717 -1.5891745
000360 25 87 01 40 bf 70 10 bf b2 ec 64 3f e8 25 39 c0
       2.0238736 -0.56422037 0.8942367 -2.8929386
000370 ff 33 8e bf 67 f5 e1 be 79 a4 d6 3f b5 dd 4c 3f
       -1.1109618 -0.4413254 1.6768943 0.800258
000380 4f d5 b2 bf 6d 39 9c bf d2 bb 29 c0 f5 e0 dc 3f
       -1.3971347 -1.2205025 -2.6520886 1.7256151
000390 37 b2 18 c0 59 bd ea 3f 32 03 0b bf 24 0b 18 bf
       -2.3858774 1.8339034 -0.5430175 -0.59392
0003a0 98 9f c6 bf 18 3b 1d bf f8 e6 37 bf bc d7 d0 bf
       -1.5517454 -0.61418295 -0.71836805 -1.6315837
0003b0 d1 1d 89 3f a1 d0 28 c0 4a ab c6 3e 7c a0 8d bf
       1.0712224 -2.6377337 0.38802558 -1.1064601
0003c0 7d d6 c0 be 11 5f 18 3f 21 8c 3a 40 2b 12 bd 3e
       -0.37663642 0.5952006 2.9148028 0.36927924
0003d0 66 ed 7e 3f d4 3c bf 3f f8 f4 66 40 5c 4c b2 3f
       0.9958099 1.4940438 3.6087017 1.3929553
0003e0 13 f1 af be cd a7 b8 3f 8a fc 12 c0 6d fe 21 40
       -0.34363613 1.4426209 -2.2966638 2.531154
0003f0 35 eb ba bf 0b 83 e7 bf a8 4c 03 c0 ec 42 01 3f
       -1.460303 -1.8086866 -2.0515537 0.5049274

bias f4 [64]
000000 81 b7 52 3f 11 0f 08 3e 05 46 27 bf 13 7b f3 3e
       0.82311255 0.13286997 -0.65341216 0.47554836
000010 c0 e3 da 3e 32 93 d9 3e 63 b4 03 be a3 28 8d bd
       0.42751884 0.42495114 -0.12861781 -0.068925165
000020 3d 00 cd 3e 83 c6 8e bf e9 ab d3 be 9f e8 f3 be
       0.40039244 -1.1154331 -0.41342095 -0.47638413
000030 0b 51 1a bf 46 32 61 3e df f8 01 3f bf 19 a6 be
       -0.6027991 0.21991834 0.5077037 -0.32441518
000040 13 e2 41 be d4 b3 04 bf ad bd ea be 7b 0c 25 be
       -0.18933897 -0.51836896 -0.45847836 -0.16118042
000050 c7 3d 9d be b5 5d 4b 3f b5 d8 90 be 5c 5a 00 bf
       -0.30711195 0.7943986 -0.28290334 -0.5013788
000060 31 79 4c 3e 25 50 11 3f 00 df 1a 3f b5 95 1a be
       0.19968106 0.56762916 0.6049652 -0.15096171
000070 a1 42 59 be a7 1e cd 3d cf 1d 07 3f 24 cf 11 bf
       -0.21216823 0.10015612 0.5277986 -0.56956697
000080 e2 be e6 3e aa eb e4 be 35 e1 22 bf 47 f4 c6 3e
       0.45067507 -0.44711047 -0.6362489 0.38858244
000090 0c 49 96 3e 16 76 e4 be 71 1d d5 3d 8d 89 ae be
       0.29352605 -0.44621342 0.10406006 -0.34089318
0000a0 82 0d f0 3e c6 d3 8f 3e 06 13 54 bf 56 f8 68 bf
       0.46885306 0.28091258 -0.8284153 -0.9100393
0000b0 ca 35 3f bf 3c e7 ba bd 63 82 16 3f bc 64 fd 3e
       -0.7469145 -0.09126136 0.58792704 0.49490917
0000c0 77 74 e5 3e 59 e1 52 3f 84 4d cd be 75 48 07 3f
       0.44815418 0.82375103 -0.40098202 0.52844936
0000d0 77 34 5b 3f 90 49 1d 3f e0 af 0c bf 18 d3 0d 3f
       0.8562693 0.6144037 -0.54955864 0.5540023
0000e0 6b 57 18 3f 16 e4 34 3f 61 9c 12 3f e4 f7 8c be
       0.5950839 0.7066053 0.57269865 -0.27532876
0000f0 f1 cf 08 3e 68 69 12 bf aa e0 32 be 21 88 0d bf
       0.13360573 -0.5719209 -0.17468515 -0.5528584

weight f4 [1, 64]
000000 c3 75 20 3f df d0 7e 40 4d a4 8d 3f 07 56 98 bf
       0.6267969 3.9814985 1.1065766 -1.1901253
000010 d5 d8 a3 bf d9 4c 00 c0 65 8a 8f 3f de 48 00 40
       -1.2800547 -2.0046904 1.121411 2.0044475
000020 17 09 2f bf 25 58 06 40 f5 21 f7 3f 19 ca 9f 3f
       -0.68373245 2.09913 1.9307238 1.248355
000030 7f ad 92 3f 78 cb d6 3f f6 78 ba bf 3d 4b 2c c0
       1.1459197 1.6780844 -1.4568164 -2.6920922
000040 3a 51 2e 40 a8 c5 8c 3f e3 6a 28 3f 73 4f b3 3f
       2.7237077 1.099782 0.65788096 1.4008621
000050 81 2a bb 3f 39 f0 14 3f ba 8e db bf ae 46 13 40
       1.4622346 0.5817905 -1.7152932 2.301189
000060 5b f8 ed bf 7f c5 8f bf 3f a2 91 bf 0e 62 e4 3e
       -1.8591417 -1.1232146 -1.1377639 0.4460606
000070 b7 f6 a4 3f 5d 34 a6 40 d9 da be bf 76 00 95 3f
       1.2887791 5.193892 -1.4910537 1.1640766
000080 9e 89 ad bf 61 fd d4 bf 8b 27 6e 3f fc 0b af bf
       -1.3557622 -1.6639825 0.9302909 -1.3675532
000090 6a 53 02 c0 e1 a6 af 3f 57 cc d5 bf 20 74 a8 3f
       -2.0363412 1.3722802 -1.6702985 1.3160439
0000a0 34 c5 b8 bf 66 df ab bf 1e 52 ff bf b0 af 11 40
       -1.4435182 -1.3427551 -1.9946935 2.276348
0000b0 cf 09 83 bf dd 48 c9 3f c6 3e c1 bf 1e 89 4c bf
       -1.0237368 1.5725361 -1.5097282 -0.79896724
0000c0 47 b1 be bf 72 e1 85 3f 6b 2b bf 3f 3c b2 b2 bf
       -1.4897851 1.0459425 1.4935125 -1.3960643
0000d0 f5 03 bf bf fe 07 af bf 2c 38 99 3f 44 c0 9a bf
       -1.4923083 -1.3674314 1.1970267 -1.2089925
0000e0 f3 dc 89 bf 81 db b7 3f b6 d7 95 bf 6b db 9e 3f
       -1.0770553 1.4363862 -1.1706455 1.2410711
0000f0 2e 59 23 bf 83 12 bf 3f 4d 64 01 40 84 ee bc 3f
       -0.6380795 1.4927524 2.0217469 1.4760289

weight f4 [64, 2]
000000 03 1a 3e bf b9 70 e4 bf 09 01 93 bd be be f0 c0
       -0.7425844 -1.78469 -0.07177932 -7.523284
000010 80 6b cf 3e 9b 36 54 c0 67 62 8d bd 40 45 68 c0
       0.40511703 -3.3158329 -0.069035344 -3.6292267
000020 47 8f 89 be 3b 86 e6 c0 93 97 1f bd 5a 1e 1b c0
       -0.26867124 -7.2038856 -0.03896291 -2.4237275
000030 cb 2c 0e 3f bc 86 87 c0 ba 51 c6 3e 8b 60 83 c0
       0.555371 -4.235197 0.38734227 -4.105535
000040 81 13 18 3f b7 cb 52 40 8c 76 03 3f dc d2 43 40
       0.5940476 3.2936838 0.51352763 3.0597448
000050 d3 1b 04 bf c8 5c 47 c0 94 d5 52 3f 88 36 85 40
       -0.51604956 -3.115038 0.82357144 4.1629066
000060 d8 71 36 3e 89 f7 b3 40 a8 de f9 3d e3 2a 65 40
       0.17816865 5.6239667 0.122006714 3.5807426
000070 c1 23 12 bf 57 69 90 c0 18 ea 55 bf 68 6a 4a c0
       -0.57085806 -4.512859 -0.83560324 -3.1627445
000080 74 9f 8c bf 44 28 11 40 32 34 02 3e 08 5d cd c0
       -1.0986161 2.2680826 0.12715223 -6.4176064
000090 b3 f6 28 3e fd c4 08 40 3a 93 ef 3e 7d b7 b7 40
       0.16500358 2.1370232 0.46792012 5.7411485
0000a0 f6 7c b2 bd 9d 1a f3 bf c5 a1 c1 bf 03 ba 4b c0
       -0.08715241 -1.8992497 -1.5127493 -3.1832283
0000b0 81 46 da be 74 3b 9c c0 56 f0 97 3e 89 96 63 40
       -0.42631915 -4.8822575 0.2967555 3.556063
0000c0 c5 09 d5 3e af db bb 3e 40 96 50 3f b3 4d 84 c0
       0.41609016 0.36691043 0.81479263 -4.134485
0000d0 9b 2c a3 3d 88 d5 f5 bf b0 02 11 bf 0c e1 97 c0
       0.07967492 -1.920579 -0.56644726 -4.7462215
0000e0 fe 8f 8a bf 01 73 a5 40 ab 25 3e bd 71 7b 70 c0
       -1.0825193 5.1702886 -0.04642264 -3.7575343
0000f0 3e 68 05 3f 3d f8 5c c0 e2 b5 78 bf 74 3f a9 40
       0.52112186 -3.4526513 -0.9715253 5.2889957
000100 60 fc 99 3d b6 ec 65 40 a7 a2 50 bf 17 da cb 3f
       0.0751884 3.5925727 -0.8149819 1.5925931
000110 f7 f9 3b 3f 90 9f 9e 3f 38 47 39 40 df 88 62 40
       0.7342829 1.2392445 2.8949718 3.539604
000120 06 d7 5d c0 09 7d 8e c0 06 65 5b 3f df aa 2b c0
       -3.466249 -4.452763 0.85701025 -2.6823041
000130 f8 bd 2d 3e 63 3b ab 40 c2 cd e2 be 2b 19 82 bf
       0.16966999 5.3509994 -0.44297606 -1.0163931
000140 d4 29 75 be 13 7a 8b c0 36 6e 2f 3f d9 f6 40 c0
       -0.23941737 -4.3586516 0.68527544 -3.0150664
000150 d3 49 64 bf c2 6c 4c c0 6b 6a 75 be 62 a3 99 3f
       -0.89175147 -3.194138 -0.23966376 1.2002985
000160 68 09 90 be 8c d7 25 c0 02 37 3d 3f c3 e6 90 c0
       -0.28132176 -2.591281 0.7391206 -4.528169
000170 94 48 f0 3e 09 e3 9c 40 62 fd 31 3d 90 82 0b 3f
       0.46930373 4.9027143 0.043454535 0.544961
000180 78 5f 64 3e 3c 98 88 c0 89 34 2d be c1 6f 1b 3f
       0.22302043 -4.2685833 -0.16914572 0.607174
000190 a6 8d 84 be dd f8 b6 3f 13 04 e1 be 2a 67 2c c0
       -0.2588932 1.4294697 -0.4394842 -2.6937966
0001a0 d5 f7 d6 3e 7e 40 d9 40 bf 10 d8 be 15 fb 7f 3f
       0.41985956 6.7891226 -0.42200276 0.99992496
0001b0 34 40 82 bf d8 80 80 40 75 e4 88 3f 98 7e 2a c0
       -1.0175843 4.015728 1.069472 -2.6639767
0001c0 20 e0 2b 3f 41 1e 62 c0 01 13 a9 be bf f0 5f c0
       0.6713886 -3.5330966 -0.3302231 -3.499069
0001d0 88 d6 47 bf b5 76 ce 40 66 c9 ff bd 32 1c 8f be
       -0.78061724 6.4519906 -0.124895856 -0.279512
0001e0 04 e6 53 3e 09 26 a1 40 50 50 a0 be 07 25 71 c0
       0.20693213 5.035893 -0.31311274 -3.767885
0001f0 02 6e 45 3f 3d 44 6d 40 11 a0 5c 3e 24 b9 49 40
       0.77120984 3.70729 0.21545435 3.151925

bias f4 [64]
000000 92 54 09 bf e0 a3 c7 bb 51 be 82 3e 81 6e 83 be
       -0.5364467 -0.0060925335 0.25535825 -0.25670245
000010 f3 8f 04 be 97 87 35 be f4 79 01 3f f7 be a8 3e
       -0.12945537 -0.17727505 0.5057671 0.32958195
000020 4a 9e e7 3e 7f c7 0c 3e 1f 99 a4 be 9f 34 d4 3d
       0.45237952 0.13747977 -0.32148072 0.10361599
000030 a9 b6 84 3d ab 3a 31 3e 28 23 d2 be fa 80 1c be
       0.06480152 0.17307536 -0.41042447 -0.15283576
000040 9b e1 2f bf b5 ca 00 3e f5 3b 59 be 7b 9b 46 3d
       -0.6870362 0.12577327 -0.21214278 0.04848812
000050 39 45 19 bc 2c 0a 32 3d 6d 78 54 bc db b9 6f 3e
       -0.009354883 0.043466732 -0.012968165 0.23410742
000060 85 4b 04 3f ef f9 f0 3e 87 30 ce be c7 b0 c8 be
       0.51677734 0.47065684 -0.40271398 -0.3919737
000070 f1 ed 30 bf f4 83 0f be 43 92 b7 3e 3b a6 28 bf
       -0.6911307 -0.1401518 0.35853776 -0.6587865
000080 fa 5f 6d bd 55 97 f4 be 25 be 0a 3f 44 f3 8f be
       -0.05795286 -0.47771707 0.5419639 -0.28115284
000090 d3 83 8f 3e 3c 1d 0b 3f fa 81 97 3d 7b bb e0 3e
       0.2803026 0.54341483 0.07397838 0.43893036
0000a0 f1 d2 f0 bd bd 3a c2 3e 75 a5 3c bf aa 48 0d bf
       -0.11758984 0.3793544 -0.7368997 -0.55189
0000b0 c7 b8 e2 be 13 ab fa 3e 38 69 bf 3d b5 4e f5 be
       -0.442816 0.48958644 0.09346241 -0.4791161
0000c0 b0 4b ad 3d 45 7f 18 bf 59 58 1f bf d2 a8 8d be
       0.08461702 -0.595692 -0.6224418 -0.27667862
0000d0 bd 49 7e 3e 97 5c 06 bf 3f 09 23 bf a8 d5 3c 3f
       0.24832816 -0.5248503 -0.63685983 0.73763514
0000e0 a3 46 c6 3e e7 7a 86 be 69 9c 09 bf b2 b1 ca be
       0.38725767 -0.26265642 -0.5375429 -0.39588696
0000f0 ac 69 46 bc 7b c7 a2 3d b7 52 19 3e 5d 61 39 3e
       -0.012110155 0.07948204 0.1497296 0.18103547

weight f4 [64, 64]
000000 bf e7 a1 bf 8c 5b 6c c0 5d 76 d8 bc 01 f3 22 be
       -1.2648848 -3.6930876 -0.026423628 -0.15913011
000010 c5 fe 73 c0 c1 f9 25 bd 26 37 f6 bf 92 2a b2 3a
       -3.812425 -0.040521387 -1.923558 0.0013593009
000020 e7 3a 8b 3e a2 c2 36 3d d3 e7 76 be 35 f4 b8 3e
       0.27193376 0.04461921 -0.24111871 0.36123815
000030 0e 28 7a 3e cd bc 74 3e 8d d1 fe be bf 16 81 be
       0.24429342 0.23900147 -0.4976925 -0.25212666
000040 6f a6 b7 bc ba b7 27 c0 60 62 56 3b f7 e8 be 3e
       -0.022418229 -2.6205888 0.0032712445 0.37287113
000050 7c b4 79 bd 18 5f 43 be 56 33 0d be 38 68 84 3e
       -0.06096314 -0.19079244 -0.13789114 0.25860763
000060 f7 d1 c6 3d cc 54 63 be 7e a4 a4 bd ef 65 78 bf
       0.09708016 -0.22200316 -0.08039187 -0.9703054
000070 3d dc 18 3f 92 0c 5e be e4 31 32 be 9f f8 05 3f
       0.59711057 -0.21684483 -0.17401844 0.5233249
000080 6a 36 ca 3d 64 f3 6a be cf 66 ea 3c f1 22 fa 3c
       0.0987366 -0.22944409 0.028613476 0.03053424
000090 b9 cf 95 bc b7 3d 60 bd d2 61 08 3e 00 c2 c3 3d
       -0.018287526 -0.054746356 0.13318565 0.09558487
0000a0 20 66 f3 be 3a f8 99 3d 9f 71 95 be 0d 39 7a bd
       -0.47538853 0.075180486 -0.2918825 -0.061089564
0000b0 6e 4c 6f 3c 84 7d 32 bf 4f 84 ce 3e 89 bc 09 be
       0.014605625 -0.6972277 0.40335318 -0.13450827
0000c0 d1 27 64 be 8b e7 94 ba 67 45 cf bc cd 07 81 be
       -0.22280814 -0.0011360509 -0.025301648 -0.25201264
0000d0 7c e0 41 3f d9 18 5f bc 5e fa af 3d 5e f6 44 bc
       0.7573316 -0.013616764 0.085926756 -0.012021629
0000e0 84 78 e4 be 3d 8d 08 bf 1b a2 45 3f a4 5a 17 be
       -0.44623196 -0.5334051 0.7720048 -0.1478067
0000f0 3d 32 be 3d 01 19 04 bd cc 6a ba 3e 06 f0 3e 3e
       0.09286926 -0.032250408 0.36409605 0.18646249
000100 31 e0 21 3f 2c 56 c4 3e 11 b1 27 3c 18 40 c5 3b
       0.63232714 0.38346994 0.010235087 0.0060196035
000110 a3 3b 6b 3e e8 33 a0 3d c2 88 13 bf 9a 33 85 bd
       0.22971968 0.078224 -0.5763055 -0.06503983
000120 ea da 37 be 3f 6e 05 be 7b 69 59 3e d6 19 94 be
       -0.17954603 -0.13030337 0.21231644 -0.2892596
000130 a1 e3 92 be 97 a2 8c bd ec 9e 09 3e ad 82 89 3d
       -0.28689292 -0.06866949 0.1343953 0.067143776
000140 ff d2 03 3e 17 f6 6e 3d f1 0c b1 3c a3 4e 20 bd
       0.12873457 0.05834016 0.021612616 -0.039137494
000150 97 dd 31 3e 7d ff 66 bb 75 38 ef 3d 92 18 22 be
       0.17369686 -0.0035247498 0.1168069 -0.15829685
000160 f3 f2 9a 3d cf 6e 6c be 42 e0 81 bd e1 43 13 3e
       0.0756587 -0.23089145 -0.06341602 0.14381362
000170 82 9f 06 3f c4 52 e4 3d 6b 9b 3f be 07 e7 97 3e
       0.5258714 0.11148599 -0.18711631 0.29668447
000180 85 d6 86 bd d9 7d b7 3e 1d 38 b2 be 58 91 20 be
       -0.06583885 0.35838202 -0.34808436 -0.15680444
000190 96 2f c0 3d cb 36 10 bf 0f 5a 9d be 11 62 06 3d
       0.09384076 -0.5633361 -0.30732772 0.032808367
0001a0 09 39 7a 3e b0 6b 05 be 2a 75 86 3e ff f3 7a 3d
       0.2443582 -0.13029361 0.26261264 0.06126785
0001b0 b0 ea 86 bc dc 11 cf be f9 9a 7b be d8 29 c4 bc
       -0.01646933 -0.40443313 -0.24570836 -0.023945734
0001c0 c3 4f 19 3d 1b 08 9d 3a be e5 98 bd 78 1a 2e 3e
       0.037429582 0.0011980565 -0.07465695 0.17002285
0001d0 5f 0f 8c be 7a e9 2b ba 19 40 71 3d 7d b9 ed bd
       -0.27355477 -0.0006557923 0.05889902 -0.11607645
0001e0 75 af 96 be db b8 b9 3d c7 ac 7d 3e 1b 9d ef bd
       -0.29430738 0.090684615 0.2477294 -0.11699887
0001f0 29 68 0f 3c ce 05 bc 3c a8 83 81 be 23 38 58 3d
       0.008752861 0.022951987 -0.25295758 0.05278791
000200 be 46 21 bf 32 4f e2 be 29 fb 30 3e f0 9c c9 bd
       -0.6299857 -0.44201046 0.1728331 -0.098443866
000210 6a 38 9c be 74 1b a9 bd c7 4e d6 3e 99 66 01 3e
       -0.3051179 -0.082571894 0.41856977 0.12636794
000220 dd 5a 53 3e 71 5b c8 3d 58 4c a9 be fc 96 b9 3b
       0.2064013 0.09783066 -0.33066058 0.0056637507
000230 53 97 49 bc 4b 44 ca bc fa 13 89 be d4 f7 d5 bc
       -0.012304145 -0.024690768 -0.26773053 -0.02611915
000240 97 a8 cc be 72 e5 c8 3d 51 dd d5 3c df 03 4a bd
       -0.39972374 0.09809388 0.026106508 -0.049320098
000250 f2 7f 39 3d 63 2e 0e be 1e 6f 2d bd d7 1c fd 3d
       0.045288034 -0.13884883 -0.042342298 0.123590164
000260 01 96 f1 3d 7a 4a d0 3e a1 b9 b2 3c 39 8b 86 be
       0.11796189 0.4068182 0.02181703 -0.26278093
000270 6f 92 d7 be 31 95 f1 3c 70 8d a5 3e 75 73 ce be
       -0.42103907 0.029490085 0.3233447 -0.40322462
000280 8b 3b 0c 3d 98 b7 19 bf 5b 85 34 3e 15 dd 87 bd
       0.034236472 -0.60045767 0.17628996 -0.06633965
000290 d1 98 0d be b8 e6 cf 3e fd 19 fe bd a0 e9 32 3e
       -0.13827826 0.40605712 -0.124073006 0.17471933
0002a0 6b 0f b8 bd 0e 0d 1b 3f 27 f9 42 be 7c af 82 bd
       -0.08987316 0.60566795 -0.19040357 -0.06381127
0002b0 6a 8c c5 bd 07 68 ee 3e 54 18 81 bd 4d 84 17 bc
       -0.096459225 0.46563742 -0.06303468 -0.009247852
0002c0 6d c4 26 bd e5 00 40 be 5d eb 01 be dd 0c c5 be
       -0.04071467 -0.18750341 -0.1268744 -0.38486376
0002d0 8a 63 a7 3e 63 dc e7 bd bf b2 00 bf 0d e6 16 3f
       0.3269313 -0.11321332 -0.50272745 0.5894478
0002e0 9a 4b e4 3e 41 d6 5f bd c3 e9 f9 be c8 9e 25 3c
       0.4458893 -0.054647688 -0.4881116 0.010108657
0002f0 7e 19 1e 3c 6e 7a 90 3c 6f 65 a3 3c ed 5d 53 3e
       0.0096496325 0.017636504 0.019945828 0.20641299
000300 a3 e9 4f 3f af 67 50 40 1a a9 45 3d 00 51 eb 3d
       0.81215876 3.2563283 0.04825697 0.11490059
000310 7e 20 06 40 fc 2a e1 3d d1 a7 37 3f a8 c9 5a 3d
       2.0957332 0.10994527 0.7174044 0.05341497
000320 94 64 a4 be 4f 25 47 bd a4 3b 22 3f 1e e1 82 be
       -0.32107985 -0.048619565 0.63372254 -0.25562376
000330 b3 0f 8e be 34 d0 3e be 1a a8 05 3f 40 3e 20 3e
       -0.27746353 -0.1863411 0.5220963 0.15648746
000340 0a e6 86 3e 1c 8a e2 3f 72 49 08 bd 58 de 5e be
       0.2634738 1.7698398 -0.033273168 -0.21764505
000350 17 f7 89 3d c8 6b 4d bd 18 9a 60 3e ff 3a 3e be
       0.06736582 -0.050151616 0.21933782 -0.18577193
000360 78 d6 d1 bd 8a 59 69 3c 55 e2 16 3e a5 ed 23 3f
       -0.10245985 0.014242539 0.14734776 0.6403449
000370 ac 20 06 be 71 e6 97 3e 62 17 89 3e 77 c2 26 be
       -0.13098401 0.29668 0.26775652 -0.1628512
000380 0c f6 89 ba eb ef 3f 3e 8d fc 41 be f4 47 39 3b
       -0.0010525598 0.18743865 -0.18943997 0.0028271647
000390 88 f4 8f 3d 37 27 f1 bd fd 9e ac be 11 b7 5d 3d
       0.070290625 -0.11775058 -0.33715048 0.054129664
0003a0 36 b5 77 3f 65 d2 89 3c f3 c1 85 3e 5e b0 95 bc
       0.9676088 0.016823957 0.26124534 -0.018272575
0003b0 b3 ac 93 3b 64 90 ad 3d 1d 0e 0a be ce 7a 23 3e
       0.0045066713 0.08474806 -0.13481946 0.15964815
0003c0 11 48 da 3e cc 24 33 3e 7e 62 45 3d a0 82 3d 3f
       0.42633107 0.17494506 0.048189633 0.7402744
0003d0 e6 f0 3b bf 12 6f e6 3d 6b 2b c3 3d 1b 18 19 be
       -0.73414457 0.11251654 0.09529766 -0.14950602
0003e0 11 30 cf 3c 73 df 08 3f 8c b8 cc be 24 b2 52 3b
       0.025291475 0.53465956 -0.39984548 0.0032149637
0003f0 21 bd 75 be a5 eb 45 bb 81 15 14 bd 3a 62 91 be
       -0.23997928 -0.003020027 -0.03615332 -0.28395253

bias f4 [64]
000000 67 c2 7c bd 82 e5 c6 bd 63 3d 06 3e 95 de d7 bc
       -0.061708834 -0.09711744 0.13109355 -0.026351253
000010 6b 5d 17 bc 24 94 a3 bd e2 57 72 bc ad 47 93 bc
       -0.009238581 -0.0798724 -0.014791461 -0.017978514
000020 31 d7 03 be 7f e7 bf bd bc a4 54 3d fa f3 0d 3d
       -0.12875058 -0.09370326 0.051914915 0.034656502
000030 ce 61 33 bd 7a b4 ba 3d 30 bb 6b bb c8 ca 80 3d
       -0.043794446 0.091164544 -0.0035969727 0.062886775
000040 e1 3e e8 3c e4 31 d1 3c b0 be 2a bd 5f f3 a2 bd
       0.028350295 0.025536485 -0.04168576 -0.079565756
000050 bc 43 f8 be 0a 95 56 bd 91 ca ff bd 26 91 38 3d
       -0.48489177 -0.05238823 -0.12489808 0.0450603
000060 21 0e 0c be 4f bc 18 3e 13 fc 1c be 25 78 69 3d
       -0.13677265 0.14915584 -0.15330534 0.056999344
000070 1c 8f 16 3e 17 65 37 bd b5 7f df bd b3 47 48 bd
       0.1470303 -0.04477414 -0.1091303 -0.048896503
000080 27 66 28 3e 2a 4b 93 bd b3 59 e1 bd ce ab fa bb
       0.16445218 -0.07192071 -0.11003437 -0.0076498752
000090 21 25 65 3d 41 1c 49 3d 1a 95 15 be 01 88 bb bd
       0.055943612 0.04909921 -0.14607659 -0.091568
0000a0 1c 33 58 3e da 3d eb bd da c7 0b bd 88 40 5e 3c
       0.21113247 -0.114864066 -0.03412614 0.01356519
0000b0 2c 2e a3 bd 77 e4 c4 bd 0a ec 96 bd 7c 1b 0d be
       -0.07967791 -0.09613889 -0.0736924 -0.13780016
0000c0 7a db d6 bd 35 a8 d2 3d 4a 02 a9 bd 3b 04 fa bd
       -0.104910806 0.10285989 -0.0825239 -0.12207838
0000d0 2d 7d 31 3d ce 91 04 3c a6 35 00 be 25 16 73 3d
       0.043332268 0.008091403 -0.12520465 0.05934729
0000e0 7d 1d a5 bd 96 ca 9c 3d c9 00 ac 3d 86 62 be 3d
       -0.08062265 0.07655828 0.08398587 0.092961356
0000f0 67 cc e2 3c bf 05 cf 3c 6f f0 5c 3d c7 fd 30 bd
       0.027685357 0.025271295 0.053940233 -0.04321077

weight f4 [1, 64]
000000 ae 6b 14 be d9 01 2e bd 03 e6 60 be 52 f8 2f be
       -0.14494202 -0.04248223 -0.21962743 -0.1718457
000010 d5 c2 ea 3b 07 04 21 bd 49 f1 68 be 8f 98 b2 bd
       0.007164339 -0.03931048 -0.22748293 -0.087205045
000020 ea 53 80 3d b4 d6 7e bd 5f 62 20 3d 9f 8d 5a be
       0.06266005 -0.062216476 0.039156314 -0.21343087
000030 38 53 1f 3e 98 df d1 bd 15 1d 38 3c 69 fc 89 bc
       0.15559089 -0.10247725 0.011237402 -0.016843991
000040 84 7f d3 be d8 48 8f be cb 93 7c 3d 13 94 8f be
       -0.41308224 -0.27985263 0.061664384 -0.2804266
000050 d7 f8 7d be b7 50 df 3d b4 05 09 be c7 32 15 bd
       -0.24801956 0.10904067 -0.13381082 -0.03642538
000060 57 4c 56 3e 74 f4 cf bd 06 d8 8f 3d 63 2c 3d bd
       0.20927559 -0.101540476 0.07023625 -0.04618491
000070 18 03 30 be fb 29 d8 bc 42 43 1e be 19 76 9e 3d
       -0.1718868 -0.026387205 -0.15455344 0.07737369
000080 ab 7f 48 be 0c c7 48 3e 4c 51 83 3c f9 62 8a 3d
       -0.19579951 0.1960718 0.016029976 0.06757159
000090 74 12 2b be 90 2d 78 3d 3c 63 8d bd ef 82 9f 3c
       -0.16706258 0.060590327 -0.06903693 0.019471614
0000a0 e3 e3 98 3d 57 50 0f 3e e8 69 64 3d 77 90 29 3e
       0.07465341 0.13995491 0.055765063 0.16559015
0000b0 49 e9 59 3e 42 6b c5 3e 1e 0e dd 3c 41 55 a9 3d
       0.21280397 0.38558394 0.02698427 0.08268214
0000c0 21 c4 3c 3e 47 e0 bd 3d 3d 29 6c be 68 f7 b0 bd
       0.18434192 0.09271293 -0.23062606 -0.08640939
0000d0 49 03 a3 ba ce 43 12 3e 3a 9f 1d be 75 31 d8 3e
       -0.0012436892 0.14283678 -0.15392771 0.42225233
0000e0 dc 8c 0f 3d 4f 10 4c bd d2 68 ee 3c 1a b4 c4 3b
       0.035046443 -0.04982024 0.029102717 0.006002915
0000f0 96 37 ae bc 78 91 48 be e1 9f 0f 3e 06 81 24 bd
       -0.02126674 -0.19586742 0.14025833 -0.04016211
