data/rnd_scale=1000_no_norm/rnd_scale=1000_no_norm_s20/pyt_save/model.pt (torch_old, 59768 bytes, 16 tensors)

weight f4 [64, 2]
0	0x3ca21974	0.019787528
1	0xc03bb09d	-2.9326546
2	0x3f81be7f	1.013626
3	0x3ebadd0f	0.3649678
4	0xbf02faaa	-0.51163733
5	0x4029e55c	2.654624
6	0x3f8c9ab4	1.0984712
7	0x3d05dc8e	0.03268104
8	0xbf401e18	-0.7504592
9	0x3fec23d8	1.8448439
10	0xbf18460c	-0.59481883
11	0xc00ffbc5	-2.2497418
12	0x3f8309ba	1.0237343
13	0xbecf15d2	-0.40446335
14	0x3ee73d17	0.45163795
15	0x40447c28	3.070078
16	0x3df4579f	0.11930775
17	0xc03a02ee	-2.9064288
18	0x3e1d2cac	0.15349072
19	0x3fdaa710	1.7082233
20	0x3ed1af1e	0.40953916
21	0x3f85012f	1.0390986
22	0x3f861e7f	1.0478057
23	0x3f672d42	0.9030343
24	0x3de1eaf9	0.110311456
25	0xc053d362	-3.3097768
26	0x3e942960	0.28937817
27	0xc024a400	-2.5725098
28	0xbd1268a5	-0.035744328
29	0x4050ecdd	3.264457
30	0xbe348553	-0.17628984
31	0xc063dcbb	-3.5603473
32	0x3f8ad111	1.0845052
33	0x3ee732f6	0.45156068
34	0xbe665137	-0.22491919
35	0xc058b0ac	-3.3857832
36	0xbec23ebf	-0.37938496
37	0xc02246af	-2.5355642
38	0xbedc8aa2	-0.43074518
39	0xbfc233cf	-1.5172061
40	0xbe6e8661	-0.23293449
41	0x40131307	2.2980363
42	0xbe9dbd63	-0.30808553
43	0x40619108	3.524477
44	0x3f5855fb	0.84506196
45	0xbf368518	-0.71296835
46	0x3f02fa7e	0.5116347
47	0x3fbb4af1	1.4632245
48	0xbf721c7e	-0.94574726
49	0xbf58bd86	-0.8466419
50	0xbf509ab7	-0.81486076
51	0xbf36b8e4	-0.7137587
52	0x3d659d74	0.056058362
53	0x4044e94f	3.07674
54	0x3f16299e	0.5865725
55	0xc0294652	-2.644917
56	0xbf9a801a	-1.2070343
57	0xbf43c2d1	-0.7646914
58	0xbddc0538	-0.10743183
59	0x40564115	3.3477223
60	0x3f95dc18	1.1707792
61	0xbe8373dc	-0.2567433
62	0x3d7f37f6	0.062309228
63	0x4065ffab	3.5937297
64	0x3ee58c3f	0.44833562
65	0x4041c4d2	3.027638
66	0xbf3d24d9	-0.7388435
67	0xbfffa7af	-1.9973048
68	0xbe116cb9	-0.1420163
69	0xc0436428	-3.052988
70	0xbf4dbb31	-0.80363756
71	0x3f961bab	1.1727194
72	0xbee7fa37	-0.45308086
73	0x3fefc1fe	1.8731077
74	0x3ee3d63d	0.44499388
75	0x3fd05398	1.6275511
76	0x3d51a4d4	0.051182583
77	0xc0659027	-3.5869234
78	0xbedecf8d	-0.43517724
79	0x403e652d	2.9749253
80	0xbd72db09	-0.05929092
81	0xc05d7366	-3.4601684
82	0x3f2d349d	0.67658406
83	0xc0010ae2	-2.0162892
84	0x3e1850c0	0.14874554
85	0xc037dc3e	-2.8728175
86	0xbf7eb356	-0.99492395
87	0xbfad107f	-1.3520659
88	0xbf74f428	-0.9568505
89	0x3fc60a02	1.5471804
90	0xbf8750e8	-1.0571566
91	0xbf8f66bf	-1.1203231
92	0xbe35bd25	-0.17747934
93	0x40416d0b	3.0222805
94	0xbf144715	-0.5792096
95	0xc02240a2	-2.5351949
96	0xbe7b093d	-0.24515243
97	0x404ac397	3.1681879
98	0xbf878510	-1.0587482
99	0x3f2312df	0.6370067
100	0x3f7f90d3	0.9983036
101	0xbf4509f3	-0.76968306
102	0x3f0e1d14	0.5551312
103	0x3da9af4c	0.08285388
104	0xbe1507da	-0.14553776
105	0xc048370b	-3.1283596
106	0x3f0253a5	0.5090888
107	0x4009ae93	2.1512802
108	0xbed1c405	-0.40969864
109	0x4031a82a	2.775889
110	0x3e4e836a	0.20167318
111	0x40413ba8	3.0192661
112	0xbf7d1502	-0.9886018
113	0xbfc5e405	-1.5460211
114	0x3d0d3a85	0.034479637
115	0x405dfb21	3.4684527
116	0x3eac465f	0.3364744
117	0xc066fd64	-3.6092157
118	0x3e8ec727	0.27886316
119	0xc037eeea	-2.8739572
120	0xbf2bdf67	-0.6713776
121	0x3f2454a2	0.6419164
122	0xbcda0131	-0.026611896
123	0x4063eed2	3.5614514
124	0xbe3a7770	-0.18209624
125	0x40408367	3.0080202
126	0x3f162326	0.5864738
127	0x407c761a	3.9447083

bias f4 [64]
0	0xbf004890	-0.5011072
1	0x3f1583eb	0.58404416
2	0xbc822b63	-0.015889829
3	0x3cbdb04f	0.02315536
4	0xbeee6dad	-0.4656805
5	0xbe835a09	-0.2565463
6	0x3ede75d9	0.43449286
7	0x3eeac05b	0.4584988
8	0x3e35754e	0.1772053
9	0xbef6409e	-0.48096174
10	0x3dd2ffc7	0.10302692
11	0xbdf34a25	-0.11879376
12	0x3e0b84b3	0.1362484
13	0xbe1c6e24	-0.1527639
14	0x3ec543da	0.3852833
15	0xbf076dad	-0.52901727
16	0xbee5b9a4	-0.44868195
17	0xbe97d46d	-0.29654256
18	0x3f130582	0.5743028
19	0xbe6776e4	-0.22603947
20	0xbeb0cad5	-0.3452975
21	0x3ee0e250	0.43922663
22	0x3f41db40	0.75725174
23	0xbe63a1aa	-0.22229639
24	0x3f388ee6	0.72093046
25	0xbe9b88de	-0.3037786
26	0x3eb6ce08	0.35704064
27	0xbcbdc704	-0.023166187
28	0x3e9fbbcd	0.31197968
29	0x3e04334f	0.12910198
30	0x3eac9aa2	0.33711725
31	0x3b901f0d	0.004398233
32	0xbe62de58	-0.2215513
33	0xbf169050	-0.58813953
34	0xbf1b948a	-0.6077353
35	0xbe90ccf2	-0.2828136
36	0x3d5acc87	0.05341771
37	0xbf36b183	-0.7136461
38	0xbdc01c0e	-0.09380351
39	0xbf1a59e0	-0.6029339
40	0xbf046a79	-0.51724964
41	0x3f1b132d	0.60576135
42	0xbe08e988	-0.13370335
43	0x3eab8124	0.33496964
44	0xbf1d252d	-0.6138485
45	0x3e86412c	0.26221597
46	0x3e67622b	0.22596042
47	0xbe12c25a	-0.14331952
48	0xbc835dbe	-0.01603591
49	0xbe994078	-0.29931998
50	0x3f38e8e8	0.72230387
51	0x3f00547a	0.501289
52	0xbde87f8f	-0.11352455
53	0xbd6a884b	-0.057258885
54	0x3e8a1759	0.26970938
55	0x3f2f0bbd	0.68377286
56	0xbf3273be	-0.6970786
57	0x3eb16af3	0.34651908
58	0xbed0fd47	-0.40818235
59	0x3ec066a3	0.37578306
60	0xbf1f7854	-0.6229298
61	0x3e9d0c32	0.30673367
62	0x3ee2cc85	0.4429666
63	0x3f2b5e14	0.66940427

weight f4 [64, 64]
0	0xbcc7f703	-0.024409777
1	0xbf7f911f	-0.9983081
2	0x3f44827b	0.767616
3	0xbf11e84a	-0.5699507
4	0x400be558	2.185873
5	0x3f202c9c	0.6256807
6	0xc01b4290	-2.4259377
7	0xbe30d125	-0.17267282
8	0xbf4c5efe	-0.79832447
9	0x3d986664	0.074414045
10	0xbf2b6fc2	-0.66967404
11	0xbe9f4456	-0.31106824
12	0xbf8bb32f	-1.0914057
13	0xbe973e4d	-0.2953972
14	0x3e1f2fc9	0.15545572
15	0x3d80c68f	0.06287872
16	0xbe46885f	-0.19387959
17	0x3d915bbd	0.07097576
18	0xbdf1c16d	-0.11804471
19	0x3f8537be	1.0407636
20	0x3f02c432	0.5108062
21	0x3e31f376	0.17378029
22	0xbf519aac	-0.81876636
23	0xbe421951	-0.1895497
24	0xbb86915c	-0.0041066837
25	0x3fdec2b2	1.7403166
26	0x3dc5c033	0.096558
27	0xbf0bf166	-0.5466522
28	0x3e842f53	0.25817356
29	0x3f29f10e	0.66383445
30	0xbf8e21c8	-1.1104059
31	0x40074fc2	2.114243
32	0x3d8fc69a	0.07020302
33	0x3f116dfd	0.56808454
34	0x3e0034d2	0.1252015
35	0x3fc80fb3	1.5629791
36	0x3eda7951	0.42670682
37	0x3b1c828c	0.0023881523
38	0xbf57261d	-0.8404253
39	0x3f10bd61	0.5653897
40	0xbc557744	-0.013028923
41	0xbf48d020	-0.78442574
42	0xbec78661	-0.3896971
43	0x3dad3426	0.08457212
44	0x3ffa34be	1.9547346
45	0x3e969b0c	0.29415166
46	0x3e7831fb	0.24237816
47	0x3f5f6d3f	0.8727607
48	0x3fb39f8e	1.4033067
49	0x3f978871	1.1838514
50	0xbfa51b49	-1.2898952
51	0xbf089bec	-0.5336292
52	0xbed31168	-0.41224217
53	0xbebadffc	-0.36499012
54	0x3e2f4473	0.17115955
55	0xbde0f868	-0.1098488
56	0x3f4e8999	0.8067871
57	0x3be47ec4	0.0069731195
58	0xbdbc4901	-0.09193612
59	0xbf2e556d	-0.680991
60	0x3f1a5f88	0.6030202
61	0x3e4860ca	0.19568172
62	0x3dddbd15	0.1082708
63	0xbdd4d184	-0.103915244
64	0x3e341cf6	0.17589173
65	0x3c949d57	0.018141432
66	0x3cfc688d	0.030811572
67	0xbb86e593	-0.004116723
68	0xbe91e869	-0.28497627
69	0x3eac9f2e	0.33715194
70	0xbdac7591	-0.084208615
71	0xbe7990ef	-0.24371694
72	0x3e17f256	0.14838538
73	0xbe058728	-0.1303984
74	0xbe516b08	-0.20450985
75	0xbd4a66f8	-0.049414605
76	0x3ea5c736	0.32378548
77	0x3d4f3c0f	0.050594386
78	0xbe72facf	-0.23728488
79	0x3e23239c	0.15931553
80	0xbe3d587b	-0.18490784
81	0x3ec2f6c3	0.3807889
82	0x3e1b07df	0.15139721
83	0x3e52899a	0.20560303
84	0xbdfa711b	-0.122286044
85	0xbd4117a1	-0.047141675
86	0x3e85f5e6	0.26164168
87	0x3d310101	0.043213848
88	0x3dc057c2	0.093917385
89	0x3e4e3810	0.20138574
90	0xbe5ac45d	-0.21363969
91	0xbdcbaf8d	-0.09945593
92	0x3dc16258	0.09442586
93	0xbeb4b72f	-0.35296008
94	0xbcab1b90	-0.020887166
95	0xbf64f2a9	-0.8943277
96	0xbd882b25	-0.06648854
97	0x3d99fcb2	0.07518901
98	0xbc0d215f	-0.008613913
99	0xbdd3f74b	-0.10349902
100	0xbe179593	-0.14803152
101	0xbcb3bf51	-0.021941813
102	0x3f36a96a	0.71352255
103	0xbd52123e	-0.05128693
104	0x3e344c98	0.17607343
105	0x3dc282f3	0.09497633
106	0x3e6b5cb1	0.22984578
107	0x3de7366b	0.11289676
108	0xbea27f74	-0.31737864
109	0x3dc4bafa	0.096059754
110	0xbdfe84b9	-0.124276586
111	0x3e9c324d	0.30507126
112	0xbee872f4	-0.45400202
113	0x3d277e67	0.04089203
114	0x3da67c61	0.08129192
115	0x3e111f65	0.14172132
116	0x3fae6c4b	1.3626798
117	0xbe5b7b5d	-0.21433778
118	0xbcb4c0e1	-0.022064628
119	0xbc841c27	-0.016126705
120	0xbbb7933a	-0.0056022676
121	0xbe716658	-0.23574197
122	0x3d77a67b	0.060461503
123	0x3da59a87	0.080861144
124	0x3b36a9c1	0.0027872177
125	0xbe0dc009	-0.13842787
126	0x3d40074c	0.04688196
127	0xbd0b8877	-0.03406569
128	0x3e82b3f3	0.25527915
129	0xbe5ec7d7	-0.2175592
130	0x3e1487c5	0.14504917
131	0x3cd1a013	0.025589025
132	0x3e498fc0	0.19683743
133	0x3e13ada3	0.14421706
134	0xbe8370d8	-0.2567203
135	0xbf47c119	-0.7802902
136	0xbd417985	-0.04723503
137	0x3e083c2b	0.13304202
138	0xbe35f8f7	-0.17770754
139	0xbdddd118	-0.10830897
140	0xbe4cdc75	-0.20005973
141	0xbdb97289	-0.09055049
142	0xbe8e888d	-0.27838555
143	0x3eac4892	0.33649117
144	0xbbbe8bda	-0.0058150114
145	0x3ecb6e99	0.39732817
146	0xbe00d864	-0.12582546
147	0x3ec20f26	0.37902182
148	0x3e81fc57	0.25387833
149	0xbe295c46	-0.16539106
150	0xbf2f039b	-0.68364877
151	0xbe192de8	-0.14958918
152	0xbe55a423	-0.20863394
153	0x3e89edc9	0.26939228
154	0xbe8ca46f	-0.27469203
155	0xbe6c2b23	-0.2306333
156	0x3e1c896e	0.152868
157	0xbd88ea0f	-0.06685268
158	0xbd66562f	-0.056234535
159	0xbeb7b071	-0.35876802
160	0xbd5eb49a	-0.054371454
161	0x3eda8fa7	0.42687723
162	0x3e7e61c2	0.24841979
163	0x3e5f6b7c	0.21818346
164	0x3e15968d	0.14608212
165	0x3da9a05f	0.082825415
166	0x3e5e8053	0.2172864
167	0x3e2a83db	0.16651861
168	0x3e28c12d	0.1647994
169	0xbf693190	-0.9109125
170	0x3c8bf7cc	0.017085932
171	0x3cecf2fa	0.028924454
172	0x3e2c71e3	0.1684032
173	0x3d1984a5	0.037480015
174	0xbe1c02ea	-0.15235487
175	0x3d351dc1	0.04421783
176	0x3e4f7bf1	0.20262124
177	0x3d33c9a9	0.04389349
178	0xbe62f708	-0.22164547
179	0xbf1b3fd7	-0.60644287
180	0x3edce730	0.43145132
181	0xbd75f577	-0.060048547
182	0xbddd15a5	-0.10795144
183	0xbe4df89c	-0.20114368
184	0x3e66b40e	0.22529623
185	0xbdb771ef	-0.08957278
186	0x3da6d7a5	0.081466
187	0xbea15442	-0.31509596
188	0x3f4df410	0.80450535
189	0xbe40fe05	-0.18846901
190	0xbe5b45fe	-0.21413419
191	0xbf0fd8e5	-0.5619033
192	0xbe4af69b	-0.19820635
193	0xbe2a9f11	-0.16662242
194	0xbd297a7e	-0.041376583
195	0xbcdb8ccb	-0.026800534
196	0x3ebde836	0.37091225
197	0xbe41ff42	-0.1894503
198	0xbdf46b58	-0.11934537
199	0x3d8201ef	0.06348025
200	0xbe4257ea	-0.18978849
201	0x3d4d854d	0.050175954
202	0x3e3fd029	0.1873175
203	0x3da93349	0.08261735
204	0xbec0aa7c	-0.3763007
205	0xbe3fb439	-0.18721093
206	0x3e816507	0.2527239
207	0xbdf9bbbb	-0.1219401
208	0x3dfb810c	0.12280473
209	0xbe56063d	-0.20900817
210	0x3da4377e	0.08018397
211	0xbe1af3b7	-0.15132032
212	0x3e30c83b	0.17263882
213	0x3e1abf3b	0.15112011
214	0xbdee7a28	-0.11644393
215	0x3e20b75c	0.15694946
216	0xbcdbb34f	-0.0268189
217	0xbe07ee51	-0.13274504
218	0x3dadc8cc	0.084855646
219	0x3c9fc08a	0.01950099
220	0x3c2c0a80	0.01050055
221	0x3ed664e8	0.4187386
222	0x3daf24cc	0.0855194
223	0x3f293d85	0.66109496
224	0x3d9a47dc	0.07533237
225	0xbd15b204	-0.036546722
226	0xbe577e39	-0.21044244
227	0xbd6b0277	-0.057375398
228	0x3da47370	0.080298305
229	0x3c5d2ac7	0.013498968
230	0xbf252ef8	-0.64524794
231	0xbccd502c	-0.025062643
232	0xbe6050af	-0.21905778
233	0xbe675d97	-0.22594295
234	0xbe215f88	-0.15759099
235	0x3bdebaf3	0.0067971884
236	0x3eb4e40f	0.35330245
237	0xbda5094f	-0.08058416
238	0x3e800bd3	0.2500902
239	0xbea6d1b0	-0.32581854
240	0x3ef1e567	0.47245333
241	0x3b9f0cec	0.0048538353
242	0xbe68ffbd	-0.22753806
243	0xbc3a6f99	-0.011379146
244	0xbf91628d	-1.13582
245	0x3e33c265	0.17554624
246	0xbd00ef91	-0.03147847
247	0x3e0d2792	0.13784626
248	0x3e17a6c2	0.14809707
249	0x3e2115dd	0.15730996
250	0xbd7b0565	-0.06128444
251	0xbe11de13	-0.14244871
252	0x3e472d11	0.19450785
253	0x3e892cca	0.26791984
254	0x3da66c12	0.081260815
255	0x3d89d2f0	0.06729686

bias f4 [64]
0	0xbe3ae787	-0.18252383
1	0xbd294d15	-0.041333277
2	0xbe062bd4	-0.13102657
3	0xb90e995e	-0.00013599309
4	0xbde02d41	-0.109461315
5	0x3dba7a05	0.09105305
6	0xbbc34a08	-0.005959753
7	0xbd1bdcdd	-0.03805243
8	0x3e8c0204	0.27345288
9	0x3d9fe403	0.07807162
10	0xbdca6d24	-0.09884098
11	0x3c93978c	0.0180166
12	0xbe1a3562	-0.15059426
13	0x3da300cc	0.07959136
14	0xbcccd834	-0.025005437
15	0xbd49f8ae	-0.049309425
16	0x3e4fc58d	0.20290203
17	0x3c95c5b6	0.018282752
18	0xbc881dfd	-0.016615862
19	0x3df6fe9d	0.120602824
20	0x3df0e563	0.11762502
21	0x3dc58447	0.096443705
22	0x3c63ee03	0.013911727
23	0xbc40c042	-0.011764588
24	0xbdea7b1b	-0.11449262
25	0x3ec1229e	0.37721723
26	0xbd8982be	-0.0671439
27	0x3cbb18f7	0.022839053
28	0x3dc5909e	0.09646724
29	0x3cb9379d	0.022609526
30	0x3d9db8ee	0.07701288
31	0xbd88d3b1	-0.06681002
32	0x3d973bba	0.07384439
33	0xbd7ba7d1	-0.06143934
34	0x3dd9e7ca	0.106399134
35	0x3d7ad678	0.06123969
36	0xbe2defd1	-0.16986014
37	0x3e1165e8	0.1419903
38	0xbb580408	-0.0032961387
39	0xbe49f225	-0.19721277
40	0x3b2df8e9	0.0026546067
41	0xbd8b5d05	-0.068048514
42	0xbe25337b	-0.1613292
43	0xbde92fee	-0.11386095
44	0x3e110eae	0.14165756
45	0x3ebf7616	0.3739478
46	0x3d576ec2	0.05259586
47	0xbc9f1bf9	-0.019422518
48	0x3dbe011e	0.09277557
49	0x3db439ec	0.0880011
50	0x3ddf49a6	0.10902719
51	0xbd1ea933	-0.03873558
52	0xbc80b659	-0.01571195
53	0xbeb82e85	-0.35972992
54	0xbde6c2b2	-0.11267604
55	0x3d497368	0.049182326
56	0xbc4bdc3a	-0.012442643
57	0x3da0bfb8	0.078490674
58	0x3cc7f5e0	0.024409235
59	0x3e0257c2	0.1272879
60	0xbd1ece27	-0.03877082
61	0x3db7ab56	0.089682266
62	0xbd26bc3f	-0.04070687
63	0xbdab4f62	-0.083647504

weight f4 [3, 64]
0	0xc01c3c7b	-2.4411914
1	0x3f4c5cf5	0.7982934
2	0xbe71fca9	-0.23631538
3	0xbf26f838	-0.652225
4	0xbf4478a3	-0.7674658
5	0xbf2c581e	-0.67321956
6	0x3eb86cb5	0.36020437
7	0x3f3d02a1	0.73832136
8	0x3fce6dc7	1.6127251
9	0x3f63f896	0.8905119
10	0x3f42e54f	0.7613115
11	0x3f22536d	0.6340855
12	0x3efe2c2a	0.4964307
13	0x3f6941ea	0.911162
14	0xbf1c686c	-0.61096835
15	0xbf434059	-0.7627006
16	0x3f197f9c	0.5996034
17	0x401cf849	2.4526541
18	0xbf3ad12f	-0.7297544
19	0xbe986908	-0.29767632
20	0xbf4a4b25	-0.7902091
21	0x3fe4673f	1.7844008
22	0xbf92e80c	-1.1477065
23	0x3ea55784	0.32293332
24	0xbef39353	-0.47573337
25	0x3f9ef7b1	1.241934
26	0x3f37b0c2	0.71754086
27	0xbeed47e1	-0.46343902
28	0x3f908a6c	1.1292243
29	0x3f3e829e	0.74418056
30	0xbf612b10	-0.87956333
31	0xbf5d0e17	-0.86349624
32	0xbeb88025	-0.36035267
33	0x3f60a729	0.87755066
34	0xbe5af4fc	-0.21382517
35	0x3f57eb02	0.8434297
36	0xbf7f36ee	-0.9969319
37	0xbf330018	-0.6992202
38	0xbf36a60a	-0.71347106
39	0xbfc7aa17	-1.5598782
40	0xbec9f54d	-0.39444962
41	0xbe8258cb	-0.2545837
42	0xbf20fd66	-0.62886655
43	0xbf61bb84	-0.8817675
44	0x3fdcc266	1.7246826
45	0x3f86627d	1.0498806
46	0x3ef3179d	0.47478953
47	0xbf204807	-0.62609905
48	0x3f8a6c73	1.0814346
49	0xbf4ac87f	-0.7921218
50	0x3f444cd2	0.7667972
51	0xbf5daead	-0.8659466
52	0x3ec41463	0.38296804
53	0xbfce347f	-1.610977
54	0x3e7535fa	0.23946372
55	0x3f206c05	0.62664825
56	0x3f810ad5	1.0081431
57	0xbf18b24c	-0.5964706
58	0x3edf99b5	0.43671957
59	0xbf25b0b4	-0.6472275
60	0xbeb2d320	-0.349267
61	0xbf6009c3	-0.87514895
62	0x3f6c0b43	0.92204684
63	0xbf5f89d4	-0.87319684
64	0xbea669d0	-0.32502604
65	0x3dce673f	0.100782864
66	0x3f11b43e	0.5691565
67	0xbe9497c2	-0.29022032
68	0xbda2353f	-0.07920312
69	0xbeba156a	-0.36344463
70	0x3e487d65	0.19579084
71	0xbdfb4fbc	-0.122710675
72	0xbf024d29	-0.5089899
73	0x3dfbf89c	0.12303278
74	0x3e71fc7d	0.23631473
75	0x3d9aa0d2	0.07550205
76	0x3ea6897e	0.32526773
77	0xbd44507d	-0.047928322
78	0xbcd6fe91	-0.026244434
79	0xbe1c2ba1	-0.15251018
80	0xbe83171e	-0.25603575
81	0x3e054247	0.13013564
82	0xbdfbaca4	-0.12288788
83	0xbde1f064	-0.11032179
84	0xbe71b62f	-0.23604654
85	0x3d85a1ed	0.065250255
86	0xbf08d902	-0.5345613
87	0x3d5407c8	0.051765233
88	0x3e227716	0.1586574
89	0xbf2bc0ec	-0.6709125
90	0x3d868166	0.065676495
91	0xbdff3ac7	-0.12462383
92	0x3ec63018	0.38708568
93	0xbdf40712	-0.11915411
94	0xbe3eb54b	-0.18623845
95	0x3eab098c	0.3340572
96	0xbd0cd6f4	-0.034384683
97	0x3ebda8e8	0.37042928
98	0xbe18672d	-0.14883108
99	0xbda29e64	-0.07940367
100	0x3f2f9b9e	0.6859683
101	0xbe3c0921	-0.18362857
102	0xbe012ea7	-0.12615453
103	0x3f0fb912	0.5614177
104	0xbe151ca9	-0.14561714
105	0xbe139c85	-0.14415176
106	0x3ea9a0d1	0.33130506
107	0x3cab4c88	0.020910516
108	0x393633de	0.00017376195
109	0xbf43aeba	-0.76438487
110	0x3d968527	0.073496155
111	0x3d1b8be2	0.0379752
112	0x3d4ae072	0.049530454
113	0xbe8c4d29	-0.2740262
114	0x3ede535e	0.4342298
115	0x3d95c693	0.07313266
116	0xbe97712b	-0.29578528
117	0x3f1be442	0.6089517
118	0x3da87258	0.08224934
119	0x3ec7db79	0.39034632
120	0x3e1f6373	0.1556528
121	0x3d0c3040	0.034225702
122	0xbdd321a4	-0.10309151
123	0xbe939619	-0.28825453
124	0x3c6cfd81	0.014464737
125	0xbdc76d65	-0.09737662
126	0x3e7382cd	0.23780365
127	0x3eeac886	0.45856112
128	0x400c7998	2.1949215
129	0xbf73c290	-0.95218754
130	0xbd89248c	-0.06696424
131	0x3f58c00c	0.8466804
132	0x3f41fe3d	0.7577856
133	0x3f5427e1	0.8287335
134	0xbf13f6d1	-0.57798487
135	0xbf3b62b5	-0.7319749
136	0xbf9fddd2	-1.2489569
137	0xbf676a4b	-0.90396565
138	0xbf3f7815	-0.74792606
139	0xbf1f673c	-0.622669
140	0xbf45ddb9	-0.77291447
141	0xbf63ca07	-0.88980144
142	0x3f42d2cb	0.76102895
143	0x3f5590a2	0.8342382
144	0xbea774ad	-0.32706204
145	0xc014f9aa	-2.3277383
146	0x3f4f236b	0.8091342
147	0x3eb3390f	0.3500447
148	0x3f529241	0.82254416
149	0xbfc2bf70	-1.5214672
150	0x3fa8245e	1.3136098
151	0xbf25cf37	-0.6476931
152	0x3e931318	0.28725505
153	0xbf27a89b	-0.65491647
154	0xbf14bb7f	-0.58098596
155	0x3f0ab83e	0.5418738
156	0xbfb3e254	-1.4053445
157	0xbf418de6	-0.75607145
158	0x3f6ab1f3	0.9167778
159	0x3f323d42	0.6962472
160	0x3ef544dd	0.479041
161	0xbf78e560	-0.97225
162	0x3ed47fed	0.4150385
163	0xbf4f7c17	-0.8104872
164	0x3f46bb49	0.77629524
165	0x3f3715b2	0.7151748
166	0x3f5c8ce9	0.8615251
167	0x3f99a521	1.2003518
168	0x3f153cd9	0.5829597
169	0x3ecf22e0	0.40456295
170	0x3ef429ea	0.47688228
171	0x3f61426e	0.8799199
172	0xbfd4e84e	-1.6633394
173	0xbee35a93	-0.4440504
174	0xbf0ad8a1	-0.542368
175	0x3f277d5a	0.65425646
176	0xbf8824a9	-1.0636188
177	0x3f96ae94	1.1772027
178	0xbf8aeb93	-1.0853142
179	0x3f7ca484	0.9868853
180	0xbdd48fd6	-0.10378997
181	0x3fa9f3cf	1.327753
182	0xbef57660	-0.47941875
183	0xbf388c2c	-0.72088885
184	0xbf9b2f1d	-1.2123753
185	0x3f476bbd	0.7789877
186	0xbf01c2e0	-0.5068798
187	0x3f410966	0.75404966
188	0x3ed74cf0	0.42050886
189	0x3f708ef4	0.9396813
190	0xbf681ca6	-0.90668714
191	0x3f0768d0	0.52894306

bias f4 [3]
0	0x3df8a7ac	0.12141356
1	0xbe8e6449	-0.27810887
2	0x3e039200	0.12848663

weight f4 [64, 2]
0	0xbf509d74	-0.81490254
1	0xc0adb7e5	-5.428698
2	0xbf3687b3	-0.7130081
3	0x408dc409	4.43018
4	0xbf27b16e	-0.6550511
5	0xc0a65e87	-5.199039
6	0x3fafd197	1.3735837
7	0xc0a26eb1	-5.076012
8	0x40467a6f	3.1012228
9	0x40cc55c6	6.3854704
10	0xc04475e4	-3.0696955
11	0xc0bd5be0	-5.917465
12	0xbe55d5ba	-0.20882311
13	0xc0bb6d76	-5.857112
14	0x3f4a1715	0.7894147
15	0x40a4f50b	5.1549125
16	0xbf9fd897	-1.2487973
17	0x407a2f9e	3.9091563
18	0xbe773571	-0.2414148
19	0xc0cbde4e	-6.370887
20	0x3fedf852	1.8591406
21	0xc086c881	-4.2119756
22	0x4046aad8	3.1041775
23	0x40af3932	5.475732
24	0xbf3975a5	-0.72445136
25	0xc0b88c13	-5.767099
26	0xbe7e98d1	-0.24862982
27	0xc0c3c9d6	-6.118388
28	0xc0072ded	-2.112178
29	0xc0a0a6b6	-5.0203505
30	0xc044bdb3	-3.0740783
31	0xc0aba506	-5.3638945
32	0x3e97e79c	0.2966889
33	0x407ad835	3.9194462
34	0x3d043238	0.032274455
35	0xc0a42e5b	-5.1306586
36	0x3f1b47ee	0.6065663
37	0xc0c7bf7a	-6.2421236
38	0xbf90d309	-1.1314403
39	0x40b777e6	5.733386
40	0x3e963c9f	0.29343125
41	0xc0d6e982	-6.7160044
42	0xbfb00a1b	-1.3753084
43	0xc08c31a5	-4.38106
44	0xbe0727d9	-0.13198794
45	0xc0d308f1	-6.5948415
46	0xbc30dcb1	-0.010794804
47	0x40cf54a5	6.4790826
48	0xbee0853e	-0.43851656
49	0xc0c7e749	-6.246983
50	0x3fcd84d3	1.605616
51	0xc002a78f	-2.041477
52	0xbfa94378	-1.3223715
53	0xc04aaa5c	-3.166648
54	0x3f08fb32	0.53508294
55	0xc0c8974d	-6.2684693
56	0xbe73a3a2	-0.2379289
57	0xc0c8634a	-6.2621202
58	0x3fad5f80	1.3544769
59	0xbec18283	-0.37794885
60	0x3fdc31c9	1.7202693
61	0xc0af1e06	-5.472415
62	0x3f5bf551	0.859212
63	0x4099b916	4.8038435
64	0xbf0fb741	-0.56139
65	0xc0ac6366	-5.3871336
66	0xbfeeac34	-1.8646302
67	0xc0a896a6	-5.2683897
68	0xbfb4f2ac	-1.4136558
69	0x405cab6a	3.4479623
70	0xbbf3e8d6	-0.0074435277
71	0x40b68283	5.7034316
72	0xbf982d2e	-1.1888788
73	0xbe3e63cf	-0.18592761
74	0x3f06926e	0.52567184
75	0x40cfc1fe	6.4924307
76	0x3ee850a8	0.45374036
77	0xc0cd3743	-6.412996
78	0xbfaabb3f	-1.3338393
79	0x409505b9	4.6569486
80	0xc0390885	-2.891145
81	0xc085ecfa	-4.185178
82	0x3e5e4036	0.21704182
83	0x40c31418	6.096203
84	0xbfaf9109	-1.3716136
85	0x4046e87f	3.1079404
86	0x3f13600b	0.57568425
87	0x40ae8925	5.4542413
88	0x3d64bb88	0.055842906
89	0x40cbf849	6.3740582
90	0xc04a6724	-3.1625452
91	0xc0d09a6b	-6.51885
92	0xbf100ffb	-0.56274384
93	0x3f47c081	0.7802811
94	0xc0314d4e	-2.7703433
95	0xc0a002a0	-5.0003204
96	0x3fb03d42	1.3768694
97	0xbff37a8e	-1.9021776
98	0xbf85dfda	-1.0458939
99	0x40940f56	4.626872
100	0x3ed71cf9	0.42014292
101	0x40b9c6ee	5.8055334
102	0xbf32c8b0	-0.69837475
103	0xc045bffa	-3.0898423
104	0x3eb46832	0.35235745
105	0x40a91c41	5.284699
106	0xbf2e7bdf	-0.6815776
107	0x409258f5	4.573359
108	0x3f2b4877	0.6690745
109	0x40a92fcf	5.287086
110	0xbf2257d1	-0.6341525
111	0x40b5423f	5.6643367
112	0x3e37703b	0.17913906
113	0x40d2c34a	6.586339
114	0x3f0fd029	0.56177
115	0xc0b7632f	-5.7308574
116	0xbf1e3d5d	-0.6181238
117	0x40a49e64	5.144335
118	0x3ee00a9b	0.4375809
119	0x4096e630	4.715599
120	0x3fafd2a6	1.373616
121	0xc08942e8	-4.2894173
122	0x3dfea140	0.124331
123	0xc0ce4d5e	-6.446944
124	0x3ecb2a92	0.39680916
125	0x40a004c3	5.0005813
126	0x3f8f90d7	1.1216077
127	0xc03fd66e	-2.9974627

bias f4 [64]
0	0x3e845112	0.25843102
1	0xbeb393b1	-0.35073617
2	0x3d8ebdde	0.06969808
3	0x3f208359	0.6270042
4	0xbf00c22c	-0.5029628
5	0x3e3322fe	0.17493817
6	0xbf4afdf3	-0.79293746
7	0x3f722acd	0.9459656
8	0xbf32fda0	-0.6991825
9	0xbd6dc3a6	-0.058047913
10	0x3f800306	1.0000923
11	0xbf1a406d	-0.60254556
12	0x3e26261d	0.16225477
13	0xbe1dcc95	-0.15410073
14	0x3eeeb772	0.46624333
15	0x3e488c1e	0.195847
16	0xbf810b1b	-1.0081514
17	0xbf6812e6	-0.90653837
18	0x3e2b574c	0.1673252
19	0xbf1f9b72	-0.62346566
20	0x3d5d9f01	0.054106716
21	0x3f2ecbee	0.6827992
22	0xbd04eeeb	-0.032454412
23	0x3cd77300	0.026299953
24	0x3d045a23	0.032312524
25	0x3f86e825	1.0539595
26	0xbf904b3a	-1.1272957
27	0x3e84b7fe	0.25921625
28	0xbe61a26f	-0.2203462
29	0x3f77f250	0.96854115
30	0x3f56416b	0.8369357
31	0xbeaf02d4	-0.34181845
32	0x3ef94bf6	0.48690766
33	0x3f01a5a4	0.5064337
34	0xbf61977d	-0.8812178
35	0x3dee2b97	0.11629408
36	0xbf7c1cbb	-0.9848134
37	0xbdd10263	-0.10205533
38	0x3e7ec7c9	0.248809
39	0xbf2fbaab	-0.6864421
40	0x3f0c17ab	0.54723614
41	0x3e13c390	0.1443007
42	0xbf478e4c	-0.779515
43	0x3f633227	0.887484
44	0x3d8c2d6a	0.068445995
45	0x3df57879	0.11985869
46	0xbf7da5f9	-0.9908138
47	0x3e6ba1f1	0.23010994
48	0x3f5d6cdf	0.8649425
49	0xbef014b8	-0.46890807
50	0x3f4aae29	0.79172
51	0xbf8ffb8b	-1.124864
52	0x3ea91714	0.3302542
53	0xbec2bd35	-0.38034979
54	0xbd462139	-0.048371527
55	0xbe9ed8df	-0.31024835
56	0x3d62dc84	0.05538608
57	0x3e47d84d	0.19516106
58	0xbeae4f89	-0.34045056
59	0x3e13e070	0.14441085
60	0x3f43159d	0.76204854
61	0x3d8c7d7a	0.0685987
62	0x3f79f3d8	0.976377
63	0x3f371519	0.7151657

weight f4 [64, 64]
0	0x3f0df20b	0.55447453
1	0xbea9cfe1	-0.33166412
2	0x3ec2d6e2	0.38054568
3	0x3e0334ce	0.12813112
4	0xbf1b907d	-0.60767347
5	0x3f10762d	0.5643032
6	0xbf157aa3	-0.58390254
7	0x3f505309	0.813767
8	0xbf15a8e8	-0.58460855
9	0xbcb27f38	-0.021789178
10	0x3eaf618b	0.34254107
11	0xbf2331ea	-0.6374804
12	0x3f0be139	0.5464054
13	0x3d2140dd	0.0393685
14	0x3f115cad	0.56782037
15	0x3f0b7d61	0.5448819
16	0xbf2fcef3	-0.68675154
17	0xbefdb8d8	-0.49555087
18	0x3c92e4d9	0.017931389
19	0xbe4d2c57	-0.20036446
20	0x3e04f040	0.12982273
21	0x3f238a7c	0.63883185
22	0xbd8035ba	-0.062602475
23	0x3e5bef3d	0.21477981
24	0x3ea9757a	0.3309744
25	0x3eced690	0.40398073
26	0xbf47b12b	-0.7800471
27	0x3e285fbd	0.16442771
28	0xbe4762aa	-0.19471231
29	0x3f3af0ec	0.7302387
30	0x3e91a79f	0.28448197
31	0xbf027f52	-0.50975525
32	0x3ee41e23	0.44554242
33	0x3ee552f4	0.4478985
34	0xbf1259eb	-0.57168454
35	0xbe0da59c	-0.13832706
36	0xbf1bc316	-0.6084455
37	0xbec4e171	-0.38453248
38	0x3d72dbd9	0.059291694
39	0xbecf76d5	-0.4052035
40	0x3ed6cf04	0.41954815
41	0x3ee681d2	0.4502092
42	0xbeb484e7	-0.35257646
43	0x3f17374a	0.5906874
44	0x3eada1b9	0.33912447
45	0x3f131477	0.574531
46	0xbf24dda3	-0.6440069
47	0x3ee0c61a	0.4390114
48	0x3efe166d	0.49626485
49	0xbeb0968b	-0.34489855
50	0x3f0c7396	0.5486387
51	0xbf5c7bd5	-0.8612645
52	0x3ee3a055	0.4445826
53	0xbf22e2cc	-0.63627315
54	0xbf3b509d	-0.7316988
55	0xbf005054	-0.5012257
56	0x3e3c82dc	0.18409294
57	0x3e94fb31	0.29097894
58	0xbf31f9d6	-0.69521844
59	0xbe8b5b33	-0.27218017
60	0x3e772c09	0.24137892
61	0x3d4fbf0e	0.050719313
62	0x3f0abb96	0.54192483
63	0x3f208991	0.6270991
64	0xbf8b9944	-1.0906148
65	0x3faf612e	1.3701532
66	0xbf724f09	-0.9465185
67	0xbf85a2b5	-1.0440279
68	0x3f25b48b	0.6472861
69	0xbf0b8ed1	-0.54514796
70	0x3eadf09b	0.3397263
71	0xbcc38494	-0.02386693
72	0x3fdab9de	1.7087972
73	0xc063f4de	-3.5618205
74	0xbfda7338	-1.7066412
75	0x3f0fd527	0.5618462
76	0xbfb0605f	-1.377941
77	0xc00c7339	-2.1945326
78	0xbf319fbe	-0.6938437
79	0xbf04d3af	-0.51885504
80	0x3f81556f	1.0104197
81	0x3f0447fa	0.5167233
82	0xbf4c71ae	-0.7986096
83	0x3fcdfd79	1.6092979
84	0xbfc8b83e	-1.5681226
85	0xbf316e61	-0.6930905
86	0xc0506081	-3.2558901
87	0x4025fc44	2.593522
88	0xc03cc298	-2.949377
89	0xbfec8f6c	-1.8481269
90	0x3df8e891	0.121537335
91	0xbfb00622	-1.3751872
92	0xbfede1d3	-1.8584541
93	0xbf9d9fa0	-1.2314339
94	0xbfbd68e7	-1.4797639
95	0x3f4d928b	0.8030173
96	0xbf96c6f3	-1.1779464
97	0xbefec342	-0.49758345
98	0x40001b87	2.0016801
99	0x3ff2200d	1.8916031
100	0x3f25b73c	0.6473272
101	0x40266612	2.5999799
102	0xbfca1d49	-1.5790187
103	0x3fd300bd	1.64846
104	0xbeed12e0	-0.46303463
105	0x4015a1a5	2.337991
106	0x3fc24fc6	1.5180595
107	0xbd022e63	-0.03178252
108	0x4019df32	2.4042478
109	0xbf14998d	-0.580468
110	0x3f8d952d	1.106115
111	0xbf098af5	-0.53727657
112	0xbfd165a8	-1.6359148
113	0x3f9a51ce	1.2056215
114	0x3ccddbe4	0.025129266
115	0x3f0ef4d2	0.55842316
116	0x3fa6d41d	1.3033482
117	0x3fddb57f	1.7321013
118	0x3fd113f2	1.6334212
119	0x3fec6cd1	1.8470708
120	0x404e9579	3.227873
121	0xbfac5f63	-1.346661
122	0x3ff2b82d	1.8962456
123	0x40141103	2.3135383
124	0xbfd11498	-1.633441
125	0xc00e05e3	-2.2191093
126	0xbed6a7dd	-0.41924945
127	0xbff7da2e	-1.9363458
128	0x4089a89e	4.301833
129	0xbf0fb364	-0.56133103
130	0x3fd6ae05	1.6771857
131	0x3e6da276	0.23206505
132	0xbf49ac85	-0.7877887
133	0x3eeced83	0.46274957
134	0xbe1f0398	-0.15528715
135	0x3e728522	0.23683599
136	0xbe353bb6	-0.17698559
137	0x3fdf17d2	1.7429144
138	0xbdfbadb0	-0.12288988
139	0xbef22cda	-0.47299844
140	0x403e0e07	2.9696062
141	0x3f856a99	1.0423156
142	0x40066eee	2.1005206
143	0x3eb7576f	0.35808894
144	0xbf7c2eb4	-0.98508763
145	0xbe99ce39	-0.30040148
146	0x3f43e009	0.76513726
147	0xbe832197	-0.25611565
148	0x3fdcdd95	1.7255121
149	0x3fa3b37e	1.2789152
150	0x40046751	2.068806
151	0xc013d973	-2.310147
152	0x4010d776	2.2631507
153	0x3c854739	0.016269313
154	0xbe00d710	-0.1258204
155	0x3f36d847	0.71423763
156	0x3f8bcdf3	1.0922226
157	0xbc2d854a	-0.010590861
158	0x3d83ae64	0.06429747
159	0xc0285057	-2.6299036
160	0x3fb6543d	1.4244457
161	0x400753d7	2.1144922
162	0xbe7039b3	-0.2345951
163	0xbff123d0	-1.8839054
164	0xbe1d4ccf	-0.15361331
165	0xc034cf48	-2.8251514
166	0x3f368e0a	0.71310484
167	0xbe33ea2c	-0.17569798
168	0x3f0b642f	0.54449743
169	0xbfb4b107	-1.4116524
170	0xbe481df6	-0.19542679
171	0x3e1fe42d	0.15614386
172	0xbfdbd4fb	-1.7174371
173	0x3f19950e	0.59993064
174	0xbeb1cb69	-0.34725502
175	0x3f4e0f73	0.80492324
176	0x3d133404	0.035938278
177	0xbee54946	-0.44782466
178	0x3e9f8275	0.31154218
179	0xbe6faaa0	-0.23404932
180	0xbf20412f	-0.6259946
181	0xbf17791b	-0.5916917
182	0xbfd0684b	-1.6281828
183	0xbf6be272	-0.92142403
184	0xbfe7d099	-1.8110534
185	0x3f7e1d69	0.99263626
186	0xbf4206af	-0.7579145
187	0xbf7d0534	-0.98836064
188	0x3e492950	0.19644666
189	0x3fe2a854	1.770762
190	0x3ee371e9	0.44422844
191	0x3ea14037	0.31494305
192	0x3f2ec1ee	0.68264663
193	0xbfb4b1a0	-1.4116707
194	0x3f20a428	0.6275048
195	0x3f9702b9	1.1797706
196	0xbffc0f2e	-1.9692132
197	0x3ffe8654	1.9884744
198	0x3f4712e7	0.7776322
199	0xbe8e707c	-0.27820194
200	0xbf60e3a7	-0.8784737
201	0x40070f9f	2.1103284
202	0x3f3ec07e	0.7451247
203	0xbfc47b94	-1.5350213
204	0x3f53e7bb	0.8277547
205	0x3fe195b4	1.7623811
206	0x3fb2b9f7	1.3963002
207	0x3fe09ef5	1.754851
208	0x3effa263	0.4992858
209	0x3f738782	0.95128644
210	0x40088380	2.1330261
211	0xbf4f6b11	-0.81022745
212	0x40673b4a	3.6129937
213	0x3db04204	0.086063415
214	0x4033bb21	2.8082964
215	0xc050ecb1	-3.2644465
216	0x3fde7799	1.7380248
217	0x3f836376	1.0264728
218	0xbef6df51	-0.48217252
219	0x400779ce	2.1168094
220	0x3fd7c9a3	1.685841
221	0x3f5445ae	0.8291882
222	0x3f6c0bc8	0.92205477
223	0xbe7dad8e	-0.24773237
224	0x3d0c7ff7	0.034301724
225	0x3f7c16f1	0.98472506
226	0xbf4e2e70	-0.8053961
227	0xc0450ea6	-3.079019
228	0xbeac6066	-0.33667296
229	0xbfe9ba49	-1.8259975
230	0x4003cf6a	2.0595345
231	0xbf6b67d7	-0.9195532
232	0x3f9cf1de	1.2261312
233	0xbff489c1	-1.9104539
234	0xbf5a368a	-0.8523947
235	0xbf03573a	-0.5130497
236	0xc030e6f0	-2.7640953
237	0x40272102	2.6113896
238	0x3d603f80	0.05474806
239	0x3fefe580	1.8741913
240	0x3f28ba60	0.65909386
241	0xbfa93149	-1.3218166
242	0xbf18e43d	-0.59723264
243	0x3e47a4e0	0.19496489
244	0xbf9e7a39	-1.2381049
245	0xbfd7eb41	-1.6868669
246	0xbf9dcb6a	-1.2327702
247	0xc0166f2b	-2.3505352
248	0xc0190b4b	-2.3913143
249	0x402357f0	2.5522423
250	0xc00303ac	-2.047099
251	0xbf830492	-1.023577
252	0x3f58311c	0.84449935
253	0x404624bc	3.095992
254	0xbf272040	-0.65283585
255	0x3f63f649	0.89047676

bias f4 [64]
0	0x3ec48cdb	0.38388714
1	0xbf585799	-0.84508663
2	0x3f0d5913	0.5521404
3	0xbf2fcba9	-0.68670136
4	0xbed41cd8	-0.41428256
5	0x3e7e80fd	0.24853893
6	0xbdbfe840	-0.0937047
7	0xbe32f1be	-0.1747503
8	0x3df89c69	0.12139208
9	0x3e4ab4b0	0.1979549
10	0x3d61e387	0.055148628
11	0x3ebfa4f8	0.3743055
12	0xbef56f1f	-0.4793634
13	0xbf045895	-0.51697665
14	0xbf9dd942	-1.2331927
15	0xbf09b980	-0.53798676
16	0x3f063868	0.5242982
17	0xbf56dd68	-0.8393159
18	0xbf0b2a49	-0.543614
19	0xbf3f4cae	-0.7472638
20	0xbf3b145d	-0.73077947
21	0xbf09bceb	-0.5380389
22	0xbd1b5a2c	-0.03792779
23	0xbf3f42f1	-0.7471152
24	0x3e410edd	0.18853326
25	0xbdc64c8f	-0.09682571
26	0xbeaf794f	-0.3427224
27	0x3f1341dc	0.5752237
28	0x3f145fcd	0.5795868
29	0xbf18bd9d	-0.59664327
30	0xbec6f598	-0.38859248
31	0x3edcf428	0.43155026
32	0xbe8640b5	-0.26221243
33	0x3f0d81d8	0.5527625
34	0xbe5d9af0	-0.21641135
35	0xbf032be7	-0.51238865
36	0xbf04cfb3	-0.51879424
37	0x3f289280	0.6584854
38	0xbf83e7d8	-1.0305128
39	0x3f4ad63d	0.7923315
40	0x3eb3c428	0.35110593
41	0x3f01c497	0.506906
42	0xbe857138	-0.26062942
43	0xbf04ff80	-0.5195236
44	0xbf270cef	-0.6525411
45	0x3f2a3c2d	0.6649807
46	0x3e993de2	0.29930025
47	0x3efd7251	0.4950128
48	0xbb430f5d	-0.0029763796
49	0x3d0f9062	0.035049804
50	0xbead86cb	-0.338919
51	0x3e499d19	0.19688834
52	0x3f1222ba	0.5708424
53	0x3e80cc0d	0.25155678
54	0xbecc021a	-0.39845353
55	0x3d3414ac	0.043965027
56	0x3f0e406f	0.5556707
57	0xbecc79bf	-0.39936635
58	0xbecb57c0	-0.39715385
59	0x3ef1d901	0.47235873
60	0xbef790d8	-0.48352695
61	0x3e80cfa5	0.2515842
62	0x3ecbb7ae	0.39788574
63	0xbed69a43	-0.41914567

weight f4 [1, 64]
0	0xbfc3f4c0	-1.5309067
1	0x3f926481	1.1436921
2	0xbf96b618	-1.1774321
3	0xbf94f14d	-1.1636139
4	0x3ef76161	0.48316482
5	0xbfc122a4	-1.5088696
6	0x3fa504cc	1.2892089
7	0x4024e887	2.5766923
8	0xbff83af4	-1.9392991
9	0xbfa949d7	-1.3225659
10	0x4075ea25	3.842416
11	0xbfa0c5fc	-1.256042
12	0x3f993652	1.1969702
13	0x3f9436b8	1.1579199
14	0x3fd490f8	1.6606741
15	0x3fba5bb0	1.4559231
16	0x3efbe7c2	0.49200255
17	0x3faa0f6f	1.328596
18	0x3f9d3ad2	1.2283576
19	0x3f921d6b	1.1415228
20	0xbf98937e	-1.1920011
21	0x3fbdc23c	1.4824901
22	0xbfb4ae9f	-1.411579
23	0xbf90fc99	-1.1327087
24	0xbfdc1c8c	-1.7196212
25	0x3f22a518	0.63533163
26	0x3fac7d63	1.3475765
27	0x3fef3198	1.868701
28	0xbf9b920d	-1.2153946
29	0x3fdd5138	1.7290411
30	0x3fa0e29d	1.2569157
31	0xbfa01a69	-1.250806
32	0x3fbac83b	1.4592355
33	0xbfb12753	-1.3840126
34	0x3fce7823	1.6130413
35	0x3fa1252e	1.2589471
36	0x3fbd98fb	1.4812311
37	0xbfaef61b	-1.3668855
38	0x3fdc449d	1.7208439
39	0xbf8c5d8f	-1.0966052
40	0xbfc0a0fc	-1.5049129
41	0xbfc368bd	-1.5266339
42	0x3f17a807	0.59240764
43	0x3fa34c73	1.2757705
44	0xbefc8b76	-0.4932515
45	0xbf755be0	-0.95843315
46	0x3feb1301	1.8365175
47	0xbf94849e	-1.1602972
48	0xc00aa8be	-2.1665492
49	0x401987e4	2.398919
50	0x3fafa388	1.3721781
51	0xc0a52443	-5.1606765
52	0x3fe45970	1.7839794
53	0xbfff99ee	-1.9968851
54	0x3fa107d9	1.258052
55	0x3fbe40ee	1.4863565
56	0xbfa229a1	-1.2668954
57	0x3f9407d7	1.1564893
58	0x3f97cad8	1.1858778
59	0xbfbd7f57	-1.4804486
60	0x3f571334	0.84013677
61	0xbfe1b71a	-1.7634003
62	0x401e1b6b	2.4704235
63	0x3fa84664	1.3146482

weight f4 [64, 2]
0	0xbf14bd8d	-0.5810173
1	0xc048d5e7	-3.1380556
2	0x3ed82af0	0.4222026
3	0xc06b0acc	-3.672534
4	0xbf322ade	-0.6959666
5	0xc0405e9b	-3.0057743
6	0xbf0f6b3f	-0.5602302
7	0x407e91b4	3.977643
8	0xc0509234	-3.2589235
9	0xc08c5640	-4.3855286
10	0x3f038e97	0.5138945
11	0x409417dc	4.6279125
12	0xbf5dc5d2	-0.86629975
13	0xc06432db	-3.565604
14	0x3ee21af2	0.44161183
15	0xc089f749	-4.311436
16	0x3e887c3b	0.2665728
17	0xc018c963	-2.3872917
18	0xbfc362bb	-1.5264505
19	0xc0385156	-2.8799644
20	0x3dee9fc2	0.11651565
21	0x3f9845d6	1.1896312
22	0xbdb170b1	-0.08664072
23	0x407daa90	3.9635353
24	0x3fd5f2e5	1.671475
25	0x40654e1f	3.5828931
26	0x404aaac1	3.166672
27	0x4040bdc5	3.0115826
28	0x3f7f2dd0	0.9967928
29	0x401ee498	2.4827023
30	0xbe47a1e9	-0.19495358
31	0xc0103d23	-2.2537315
32	0x3edb600d	0.42846718
33	0xc07e8650	-3.9769478
34	0x3d9ef629	0.07761795
35	0xc093447d	-4.6021104
36	0x3f74859a	0.9551636
37	0x402bd46a	2.6848397
38	0x3eaa9117	0.3331382
39	0x4068c394	3.6369371
40	0xbeb7cae2	-0.35896975
41	0xbd96af7c	-0.0735769
42	0xbf0162ea	-0.50541556
43	0xc057eeb4	-3.3739443
44	0xbeb65ba8	-0.35616803
45	0x407eab40	3.9792023
46	0x3d51c3c1	0.051212076
47	0xc0442756	-3.0649009
48	0xbf44f74c	-0.76939845
49	0x4047778e	3.116672
50	0x3ef1a195	0.4719359
51	0x4045873a	3.0863786
52	0xbec0aeac	-0.37633264
53	0xc0650aa5	-3.5787747
54	0xbf21d827	-0.6322045
55	0xc093ec94	-4.622629
56	0xbed56609	-0.4167941
57	0xc09460b2	-4.6368036
58	0xbf898711	-1.0744344
59	0xc029cdbb	-2.6531818
60	0xbd87bcea	-0.066278294
61	0x4091a4ca	4.551366
62	0x3dada785	0.084792174
63	0xc06d5c04	-3.7087412
64	0x3f1c8ffc	0.611572
65	0xc090f16e	-4.5294714
66	0x3ec98bdb	0.39364514
67	0x40145825	2.31788
68	0xbde51589	-0.11185748
69	0xc0886881	-4.262757
70	0x3f82cb9d	1.0218388
71	0xc06988e3	-3.64898
72	0x3e9d7e05	0.30760208
73	0xbfc379c9	-1.5271541
74	0xbcf8158f	-0.030283717
75	0x406e7679	3.725981
76	0xbd4a3628	-0.049368054
77	0x4093f669	4.6238294
78	0x3f0101c7	0.50393337
79	0xc082dabc	-4.089201
80	0xbf743596	-0.95394266
81	0x407b8de7	3.930536
82	0xbe894448	-0.26809907
83	0xbfae26de	-1.3605611
84	0x3efc2888	0.49249673
85	0xc09d4c66	-4.915576
86	0xbf30fd58	-0.6913657
87	0x4059d1a2	3.40342
88	0x3ec1f166	0.37879485
89	0xc0691ee2	-3.64251
90	0x3ef767f7	0.48321506
91	0x408a6f64	4.3260975
92	0x3f3c6a82	0.7360002
93	0xc099e696	-4.8093977
94	0x3ee1e3bd	0.44119063
95	0xc051a837	-3.275892
96	0xbcb8f140	-0.022575974
97	0xbfacf925	-1.3513533
98	0xbbbe28b0	-0.00580319
99	0x3ed937ad	0.4242529
100	0xbef648c8	-0.48102403
101	0xc04e8636	-3.2269416
102	0x3f7b63e8	0.9819932
103	0xc04405c3	-3.0628517
104	0x3f506fab	0.8142039
105	0xc0929ad0	-4.581398
106	0x3de6d20e	0.112705335
107	0x40840039	4.125027
108	0x3ee09da8	0.43870282
109	0xc0431ac6	-3.0485091
110	0xbeb098fb	-0.34491715
111	0xc08e1747	-4.4403415
112	0x3c1b0189	0.009460815
113	0x406a18a2	3.6577535
114	0xbfae6f82	-1.362778
115	0xc0422fef	-3.0341756
116	0xbf33ea89	-0.7027975
117	0x405c8868	3.4458256
118	0x3f18a9fe	0.5963439
119	0x4073c891	3.8091166
120	0xbe5fe00d	-0.21862812
121	0x405a48e9	3.4107
122	0x3eb88b23	0.36043653
123	0xc081c969	-4.055836
124	0xbd791eb3	-0.060820293
125	0xc07b7e13	-3.92957
126	0xbf604c2e	-0.8761624
127	0xc032c5b6	-2.7933173

bias f4 [64]
0	0xbe18a03c	-0.14904875
1	0x3ef84b13	0.48494777
2	0x3dc9c600	0.09852219
3	0xbecd0471	-0.4004245
4	0x3ef49a18	0.47773814
5	0x3ee67e31	0.4501815
6	0xbf123660	-0.5711422
7	0x3e96839a	0.2939728
8	0x3e1ba017	0.15197788
9	0x3e7d0484	0.24708754
10	0x3ee6884b	0.45025858
11	0x3f26bbb9	0.6513019
12	0xbef208da	-0.47272378
13	0xbf02973d	-0.5101202
14	0x3bd690b4	0.0065480117
15	0x3ef16115	0.4714438
16	0x3ea39cbc	0.31955516
17	0xbe79ebd5	-0.24406369
18	0xbe82a5e4	-0.2551719
19	0x3e268bdd	0.16264291
20	0x3e2915ab	0.16512172
21	0xbdeb6fd0	-0.11495936
22	0xbdd72894	-0.105057865
23	0x3db52edf	0.088468306
24	0xbe463ad2	-0.19358376
25	0x3e940648	0.28911042
26	0xbead7cf4	-0.33884394
27	0xbed6a0ee	-0.41919655
28	0xbe8974d5	-0.26846948
29	0x3edfab89	0.43685558
30	0xbd6df17b	-0.05809162
31	0x3d8b91e7	0.06814938
32	0x3ed7d4ea	0.42154628
33	0x3d61d955	0.055138905
34	0xbc21e8e1	-0.009882183
35	0x3f2877a5	0.65807563
36	0x3f13c44a	0.5772139
37	0xbbc335f5	-0.00595736
38	0xbd9bd9bf	-0.07609891
39	0x3ebe04a9	0.3711293
40	0xbf240c6f	-0.6408147
41	0x3f1c03ec	0.60943484
42	0x3ea0c4a3	0.31400022
43	0xbeee0e48	-0.4649527
44	0x3e9b6003	0.3034669
45	0x3e9689e8	0.2940209
46	0x3efdcd75	0.49570814
47	0x3e94d3e6	0.29067916
48	0xbf416fbf	-0.75561136
49	0x3edbc78f	0.4292569
50	0xbe8ef029	-0.27917603
51	0x3f3a466f	0.72763723
52	0x3f15c8d8	0.5850959
53	0x3d9ed3be	0.0775523
54	0x3e9199dd	0.284377
55	0xbe11c7c9	-0.14236368
56	0xbe84dae8	-0.25948262
57	0x3d540a2e	0.05176752
58	0xbef026c7	-0.46904585
59	0x3ecc1902	0.3986283
60	0xbe7152d9	-0.2356676
61	0x3e8050d8	0.2506168
62	0xbdf8adbe	-0.12142514
63	0x3eb0d204	0.3453523

weight f4 [64, 64]
0	0x3e08c078	0.13354671
1	0x3e4aa0d9	0.19787921
2	0x3de86444	0.11347249
3	0xbe1418b0	-0.14462543
4	0xbcf75121	-0.030190052
5	0x3e317730	0.17330623
6	0xbb9067b8	-0.0044068955
7	0x3e405fc5	0.18786533
8	0xbdb06bb3	-0.08614292
9	0x3e25b464	0.16182095
10	0xbdbf738b	-0.0934821
11	0x3def19d9	0.11674852
12	0xbd09e272	-0.03366322
13	0xbc860f60	-0.016364753
14	0xbd7c0941	-0.061532263
15	0xbd3e529e	-0.04646551
16	0x3dd519de	0.104053244
17	0x3d731c63	0.059353244
18	0xbe03f6b1	-0.12887074
19	0xbec2aa04	-0.38020337
20	0xbd23ed44	-0.040021196
21	0x3ea45099	0.3209274
22	0xbf03a28d	-0.5141991
23	0x3dd7c122	0.10534884
24	0xbea38066	-0.31933898
25	0xbdfa4fb2	-0.12222232
26	0xbb9acef1	-0.0047243764
27	0xbd7e2955	-0.062051136
28	0x3d948b05	0.07253078
29	0x3e0bd405	0.13655098
30	0xbf3b489f	-0.73157686
31	0x3f4c57f0	0.7982168
32	0x3d817bb4	0.063224226
33	0xbe750463	-0.23927455
34	0x3ee62c68	0.44955754
35	0x3eae016e	0.33985466
36	0xbd76d09b	-0.060257535
37	0xbe8df01f	-0.2772226
38	0xbdb33b56	-0.08751552
39	0xbddfd7a6	-0.109298036
40	0xbc69626d	-0.014244658
41	0x3b824a69	0.0039761555
42	0x3e41e3a3	0.18934493
43	0xbd6ef998	-0.0583435
44	0x3e724c60	0.23661947
45	0xbd9c30ae	-0.076264724
46	0x3e48e0f5	0.19617064
47	0x3e0a6a5a	0.13517132
48	0xbd999168	-0.07498437
49	0x3e08b1c6	0.13349065
50	0x3d92526b	0.07144626
51	0x3d6083a6	0.05481305
52	0x3c0013fe	0.0078172665
53	0xbe52cbbd	-0.20585532
54	0xbb26f18e	-0.0025473568
55	0x3e9e2700	0.3088913
56	0xbdf5e609	-0.12006766
57	0x3e158f10	0.14605355
58	0xbd970b94	-0.07375255
59	0xbd35442f	-0.044254478
60	0xbd0963d4	-0.03354247
61	0x3e3da924	0.18521553
62	0x3d5c83fa	0.0538368
63	0x3e526efa	0.20550147
64	0x3da1c6ec	0.078992695
65	0xbaad6847	-0.001322993
66	0xbd883ad5	-0.06651846
67	0x3a8d1eac	0.0010766587
68	0x3cfeb70b	0.031093141
69	0xbde9d616	-0.11417787
70	0x3e6cf4a5	0.231402
71	0xbd67c32f	-0.056582626
72	0x3cd54d30	0.026037782
73	0xbc14502e	-0.009052319
74	0xbc8dda22	-0.017315928
75	0x3db6c2a0	0.089238405
76	0x3c8e340a	0.017358799
77	0x3d88c269	0.06677706
78	0xbd6e5bc3	-0.05819298
79	0xbdf1e2bd	-0.11810825
80	0xbdf65ec7	-0.12029796
81	0xbd8e8d93	-0.06960597
82	0xbc8ddb2d	-0.017316425
83	0xbd4ae8a7	-0.04953828
84	0xbd5a4a34	-0.053293422
85	0xbdd5173d	-0.10404823
86	0x3ea095a4	0.31364167
87	0xbe06e341	-0.13172628
88	0x3ebc44c6	0.3677122
89	0xbdf2d0c8	-0.11856228
90	0x3dfe7a4a	0.124256685
91	0x3e779596	0.24178156
92	0xbc0fc239	-0.008774334
93	0xbc9f7cee	-0.01946875
94	0x3ecf7399	0.40517882
95	0xbf1ef0c8	-0.62086153
96	0xbeb369bd	-0.3504161
97	0x3ceb9273	0.028756356
98	0xbde1f134	-0.11032334
99	0xbdd8f0dc	-0.10592815
100	0xbe27856a	-0.16359487
101	0x3d8fab74	0.07015124
102	0x3d977cd5	0.07396857
103	0xbd9888cf	-0.07447969
104	0x3e8bb7b1	0.27288583
105	0x3da92a72	0.08260049
106	0xbe60fae2	-0.21970704
107	0x3e662090	0.22473359
108	0xba96810a	-0.0011482548
109	0xbdfa4021	-0.12219263
110	0xbec137e9	-0.3773797
111	0xbb4c4441	-0.0031168612
112	0x3d9f0712	0.077650204
113	0xbd188d6d	-0.03724425
114	0x3e12aca5	0.14323671
115	0xbe2b65a8	-0.16737998
116	0xbe845640	-0.25847054
117	0xbca6cf3b	-0.020362487
118	0xbe746134	-0.23865205
119	0xbdf24924	-0.11830357
120	0x3d76422d	0.060121704
121	0xbc3bf10a	-0.011471042
122	0x3e956b67	0.29183504
123	0xbe0a38f3	-0.13498287
124	0x3e240dcc	0.16020888
125	0xbe7ba9fb	-0.24576561
126	0xbc4f9265	-0.0126691805
127	0xbc4fb18b	-0.012676607
128	0x3dfa0572	0.1220807
129	0x3a804ee1	0.0009789133
130	0x3d22335e	0.03959977
131	0x3e03dbeb	0.12876861
132	0x3d343ed7	0.04400524
133	0xbe91e7bb	-0.2849711
134	0x3cb718e6	0.02235074
135	0xbca86fd2	-0.020561133
136	0xbc29c607	-0.010362155
137	0xbdb47ad7	-0.08812492
138	0x3d82a8b1	0.063798316
139	0x3d9b947c	0.075966805
140	0xbd245cfd	-0.040127743
141	0xbd124873	-0.035713624
142	0x3da2a45c	0.07941505
143	0x3bd102f3	0.0063785254
144	0x3d7c3ebc	0.061583266
145	0xbdd62a83	-0.10457327
146	0x3d06b31b	0.032885652
147	0xbcd84c09	-0.026403444
148	0xbdc2d15f	-0.095125906
149	0x3dde15a0	0.108439684
150	0x3e8a3fe0	0.27001858
151	0xbd87739e	-0.06613849
152	0x3f005f5b	0.501455
153	0xbe1111b0	-0.14166903
154	0xbd5415ba	-0.051778533
155	0x3e761af5	0.24033721
156	0x3daf784b	0.08567866
157	0x3c82b852	0.015957031
158	0x3d4fd2fc	0.05073832
159	0xbdc038b6	-0.09385817
160	0xbe61b0f9	-0.22040166
161	0xbdf87429	-0.12131531
162	0x3d17bc97	0.037045088
163	0xbef192cb	-0.47182307
164	0xbdabc8e6	-0.08387928
165	0x3e96e727	0.2947323
166	0x3e31a1be	0.17346856
167	0xbc180c82	-0.009280326
168	0x3e67ffd1	0.2265618
169	0xbd9a3537	-0.07529681
170	0xbd8c43a5	-0.0684884
171	0x3c8e886f	0.017399041
172	0xbd2c304c	-0.042038247
173	0x3d3ecd2b	0.046582382
174	0xbd392e1d	-0.045209993
175	0x3d0fc868	0.03510323
176	0x3ddf10f9	0.10891909
177	0x3d504db3	0.05085535
178	0xbd27c527	-0.040959504
179	0xbe5eec5c	-0.21769851
180	0xbe1ba136	-0.15198216
181	0x3d11ee52	0.03562767
182	0xbe0898ac	-0.1333949
183	0x3c54220d	0.012947571
184	0xbd9a6797	-0.075392894
185	0x3d40c50b	0.047062915
186	0x3ce0f128	0.027458742
187	0x3db45d54	0.088068634
188	0x3d3ae00c	0.045623824
189	0xbd60d22d	-0.05488794
190	0x3bababe9	0.005238999
191	0x3d596edf	0.05308425
192	0x3e859139	0.2608736
193	0xbcf13309	-0.02944328
194	0x3d177bcb	0.036983293
195	0xbb9dca31	-0.004815363
196	0x3eb1a25d	0.34694186
197	0xbe973937	-0.2953584
198	0x3ddc2adf	0.107503645
199	0x3e1f7459	0.15571727
200	0xbd724e57	-0.059156742
201	0xbb691170	-0.0035563372
202	0xbcea97fb	-0.028636923
203	0xbd02869b	-0.03186665
204	0x3d005fd3	0.031341385
205	0xbe8e3461	-0.27774337
206	0xbdf04240	-0.11731386
207	0x3e1a81e6	0.15088615
208	0x3e29b06f	0.1657121
209	0x3df394b5	0.11893598
210	0x3cd40d1c	0.025885157
211	0xbf616f06	-0.88060033
212	0x3c22751f	0.009915619
213	0x3f0cb96c	0.5497043
214	0xbf1fb31b	-0.6238267
215	0x3e0ee17b	0.13953201
216	0xbed15c20	-0.40890598
217	0xbdd10538	-0.102060735
218	0x3d0ac0b8	0.033875197
219	0x3df33114	0.11874595
220	0x3e0101eb	0.12598388
221	0xbd6ed8c8	-0.058312207
222	0xbf0b0620	-0.5430622
223	0x3f9e248a	1.2354901
224	0x3e8bae63	0.27281484
225	0xbe4edfe0	-0.20202589
226	0x3f8c2b80	1.0950775
227	0x3dfbe0b7	0.1229872
228	0x3c8bdab2	0.017072055
229	0xbf52beb3	-0.82322234
230	0xbed744b7	-0.42044613
231	0x3db69f09	0.08917052
232	0xbc8135be	-0.015772697
233	0x3d7804b7	0.06055137
234	0x3dc55e3e	0.09637116
235	0x3cd0a70c	0.02547028
236	0x3e297a84	0.16550642
237	0xbe85af0f	-0.26110122
238	0x3db78bfc	0.08962247
239	0x3cfaf00d	0.030632043
240	0x3d8a344b	0.06748255
241	0x3d39c47f	0.04535341
242	0x3dd814bb	0.10550829
243	0x3d2d0f61	0.042250995
244	0x3e00f0f5	0.12591918
245	0xbe853587	-0.260174
246	0x3df4cf0a	0.11953552
247	0x3f89ad0d	1.0755936
248	0xbe200077	-0.15625177
249	0x3e5e6c30	0.21720958
250	0xbd81df6c	-0.063414425
251	0xbca11c41	-0.019666793
252	0xbe45ea91	-0.19327761
253	0x3e276716	0.16347918
254	0x3e8687c0	0.26275444
255	0x3dead1a9	0.11465771

bias f4 [64]
0	0xbd1ce241	-0.03830171
1	0xbd4d4db3	-0.050122928
2	0xbdd082a6	-0.10181169
3	0x3da931b4	0.08261433
4	0xbd6aaae1	-0.05729187
5	0x3e0036a3	0.12520842
6	0xbd1d2aff	-0.038371082
7	0xbd0ca521	-0.034337167
8	0x3d041126	0.032242917
9	0xbddb02c8	-0.1069389
10	0xbdaab74d	-0.08335743
11	0x3e204f46	0.1565524
12	0x3e0cac4d	0.13737603
13	0x3e049184	0.12946135
14	0x3dd51ef1	0.10406292
15	0x3e2fd44b	0.17170827
16	0x3d649055	0.05580171
17	0xbd0574e8	-0.032582194
18	0xbd8adca9	-0.06780369
19	0x3d9c43d3	0.07630124
20	0x3e18dddd	0.14928384
21	0x3c77b534	0.015118886
22	0xbe09f789	-0.13473333
23	0x3d85e74e	0.065382585
24	0x3cf4a652	0.029864464
25	0xbd47e64c	-0.048803613
26	0x3d9b0b8b	0.07570561
27	0xbe067d27	-0.1313368
28	0xbd190f82	-0.037368305
29	0x3d52ffc3	0.051513445
30	0x3dc08481	0.09400273
31	0x3e1721b0	0.14758945
32	0xbc605180	-0.013691306
33	0xbe1d22a3	-0.15345244
34	0x3d66a8e4	0.05631341
35	0x3d2ef3e2	0.042713054
36	0x3cadbb18	0.021207377
37	0xbdd8bff2	-0.10583486
38	0xbd9242cd	-0.071416475
39	0xbd26472e	-0.040595226
40	0xbd39eb54	-0.045390442
41	0xbda5ccd7	-0.08095711
42	0x3da84899	0.08216972
43	0x3da8f0a7	0.08249026
44	0x3cf1d5ea	0.029520947
45	0x3c38a5c7	0.011269993
46	0x3d3b4a45	0.045725126
47	0xbdb070c9	-0.08615262
48	0x3d70a118	0.05874738
49	0xbc61765d	-0.01376113
50	0xbd6a5870	-0.057213247
51	0x3d930c28	0.07180053
52	0xbe0220ed	-0.12707873
53	0xbdb4815b	-0.08813735
54	0xbdd4cbbf	-0.10390424
55	0x3c7b6409	0.015343674
56	0x3ce89fe0	0.028396547
57	0xbd3e5083	-0.0464635
58	0xbd07979f	-0.03310358
59	0xbd113624	-0.035452023
60	0x3c64cb14	0.013964433
61	0x3c6a8adf	0.014315336
62	0xbca162d9	-0.019700455
63	0xbadcdc2c	-0.0016850284

weight f4 [1, 64]
0	0x3da657cc	0.08122215
1	0xbcb86ef7	-0.02251385
2	0x3bfb2636	0.007664467
3	0xbdab6a08	-0.08369833
4	0xb99c659a	-0.00029830338
5	0xbd1ce545	-0.038304586
6	0xbdd6f1db	-0.10495349
7	0x3d622464	0.055210486
8	0x3c8c6e30	0.017142385
9	0xbd0bfa5b	-0.034174304
10	0xbe015f2a	-0.12633958
11	0x3d9c2e7e	0.07626055
12	0xba3231dc	-0.0006797591
13	0x3d7c99f3	0.061670255
14	0xbaac3c9a	-0.0013140619
15	0x3e180064	0.14843899
16	0x39d9f767	0.00041573794
17	0x3d5e2d6d	0.05424254
18	0x3d9a8023	0.075439714
19	0xbd5d4e91	-0.054030005
20	0xbd071b2b	-0.032984894
21	0x3af0e5ad	0.0018378996
22	0x3ded5686	0.11588769
23	0xbdb7efd0	-0.089812875
24	0x38d1223b	9.9722725e-05
25	0xbcc86697	-0.024462981
26	0xbe86f2c7	-0.263571
27	0xbdaa497f	-0.083147995
28	0x3be4954d	0.006975806
29	0xbc03e4bd	-0.008050141
30	0x3e0f315a	0.1398367
31	0x3d58bf7d	0.052916992
32	0xbd143bcf	-0.03618985
33	0xbe0b92c2	-0.13630202
34	0x3ce83338	0.028344736
35	0x3a0fbf24	0.0005483499
36	0xbdbf7564	-0.09348562
37	0xbd05fd36	-0.032712184
38	0xbc801a8d	-0.01563766
39	0x3e137eb3	0.144038
40	0xbaf6a06b	-0.0018816119
41	0xbd2569e7	-0.0403842
42	0x3d87508c	0.0660716
43	0xbd43c24f	-0.04779273
44	0x3c842e2e	0.016135301
45	0x3d634b3d	0.055491675
46	0xbe129864	-0.14315945
47	0x3e116427	0.14198361
48	0x3d81440b	0.06311806
49	0xb96ad99a	-0.00022397042
50	0xbd116b4e	-0.035502724
51	0xbd0e6fa4	-0.034774438
52	0x3d3e8727	0.04651561
53	0x3ddfb0b3	0.109223746
54	0x3984a917	0.00025302984
55	0x3d525666	0.051351927
56	0xbdb9811a	-0.09057827
57	0xbd761d15	-0.06008633
58	0xbb7d8737	-0.003868533
59	0x3d90c2b7	0.07068389
60	0x3cd53312	0.026025329
61	0x3d93e48a	0.07221325
62	0xbd87ac23	-0.06624629
63	0xbd196db6	-0.037458144
