data/icm_best_0/pyt_save/model.pt (torch_old, 59784 bytes, 16 tensors)

weight f4 [64, 2]
0	0xbe7bebd7	-0.24601685
1	0x4014055d	2.3128273
2	0xbf0b1f20	-0.5434437
3	0xc0303e9c	-2.7538214
4	0xbe513320	-0.20429659
5	0xbffcf59d	-1.9762455
6	0xbdb5f850	-0.088852525
7	0x4032701d	2.7880929
8	0xbe8a20c3	-0.2697812
9	0x401963bb	2.396712
10	0xbe09de33	-0.13463669
11	0xc0165fad	-2.3495896
12	0xbf80a960	-1.0051689
13	0xbfe8ac6b	-1.8177618
14	0xbe8fe225	-0.28102222
15	0xc006da54	-2.1070757
16	0x3e4a03f6	0.19728073
17	0x402b8384	2.679902
18	0xbf1c312b	-0.61012524
19	0xc00b5818	-2.1772518
20	0x3e1f1ba7	0.15537892
21	0x40349cfc	2.8220816
22	0xbdf75504	-0.12076762
23	0x4020d763	2.5131462
24	0x3d1b4a6e	0.03791278
25	0xbfec4852	-1.845957
26	0x3f6ef3b9	0.9334064
27	0xbff12e4e	-1.8842256
28	0xbf9e1b57	-1.2352093
29	0x3e97aa90	0.29622316
30	0xbeec0678	-0.46098685
31	0x40041b7f	2.0641782
32	0xbf1f7238	-0.6228366
33	0xc01801f3	-2.375119
34	0xbecd3c1c	-0.40084922
35	0xc03be1f8	-2.935667
36	0xbea27386	-0.31728762
37	0x401d6a6b	2.4596202
38	0x3e61bcd9	0.22044696
39	0x40221cd5	2.5330098
40	0x3dbace97	0.09121435
41	0xc01aa666	-2.4164062
42	0x3de6670c	0.112501234
43	0xbfafab8f	-1.372423
44	0xbf132810	-0.57483006
45	0xc0294bcd	-2.6452515
46	0x3f0d6831	0.5523711
47	0x40054d27	2.082834
48	0xbe98288c	-0.29718435
49	0xc0084293	-2.1290634
50	0x3ebf3cf0	0.3735118
51	0x403da6b4	2.9632998
52	0x3e56d40c	0.20979327
53	0x4009f0d5	2.1553242
54	0x3f447538	0.7674136
55	0x3f7a3163	0.9773161
56	0x3ed390cf	0.41321418
57	0xc03908e2	-2.8911672
58	0xbf852ae4	-1.0403714
59	0xbfaab55c	-1.3336596
60	0x3e98b6b0	0.2982688
61	0x4015e56e	2.3421283
62	0xbf80181e	-1.000736
63	0xbf80a16a	-1.004926
64	0x3ee7ca2d	0.45271435
65	0x3fe5ad23	1.7943462
66	0xbe25e58a	-0.16200843
67	0x40068fe3	2.1025321
68	0x3f0d75d5	0.5525792
69	0xbf473471	-0.77814394
70	0xbf3a7af9	-0.7284389
71	0xc018a3f4	-2.385007
72	0x3e5e6bf1	0.21720864
73	0x402b71cf	2.6788213
74	0x3f3cee4a	0.738011
75	0x401f87a3	2.4926536
76	0x3e7f558c	0.24934977
77	0x3f7903d6	0.9727148
78	0x3e9ca871	0.3059726
79	0xc01c27a5	-2.4399197
80	0xbf7e16fa	-0.9925381
81	0x404e3786	3.222139
82	0x3f2cfd58	0.6757407
83	0xbfa23fd6	-1.2675731
84	0x3ef08cd0	0.4698243
85	0xbff144cc	-1.884912
86	0xbd366dbc	-0.044538245
87	0xc01b80a3	-2.4297264
88	0x3f1a6af2	0.60319436
89	0xc03a2bb4	-2.9089174
90	0x3e319eb6	0.173457
91	0x40290999	2.6412108
92	0x3f3e8720	0.74424934
93	0x3fe65166	1.7993591
94	0xbf87dfdb	-1.061519
95	0xbf9bd136	-1.2173221
96	0x3eb83479	0.35977533
97	0x400afe42	2.1717687
98	0xbeff6c33	-0.49887237
99	0xc0256ff4	-2.584958
100	0x3f5ae51d	0.8550585
101	0x4023583f	2.552261
102	0xbe723fe7	-0.2365719
103	0xc0132b8a	-2.2995324
104	0xbf91585b	-1.1355089
105	0xbf32a464	-0.6978209
106	0xbf1b23e4	-0.6060164
107	0xc024af19	-2.573187
108	0xbd826cd1	-0.06368411
109	0x4006eacd	2.108081
110	0xbe9fef40	-0.3123722
111	0x401fc299	2.4962523
112	0xbec73dbb	-0.38914284
113	0x40019dec	2.0252638
114	0x3f2e4ff6	0.6809076
115	0xc0203f92	-2.50388
116	0xbdbe3aa5	-0.09288529
117	0xc008af2e	-2.1356921
118	0xbcf62e99	-0.030051516
119	0x401a8b18	2.4147396
120	0x3d99077c	0.07472131
121	0x3fd9a3b2	1.7003081
122	0xbf24661a	-0.64218295
123	0xbfa27af4	-1.2693772
124	0xbf83452a	-1.0255482
125	0xbfdfce94	-1.7484918
126	0xbe67135e	-0.22565982
127	0x3f07b28b	0.5300681

bias f4 [64]
0	0xbe62f67a	-0.22164336
1	0xbf0b1efd	-0.5434416
2	0xbe208267	-0.15674745
3	0x3e0e3580	0.13887596
4	0xbedb8b6d	-0.4287981
5	0xbd577f3c	-0.052611575
6	0x3ef336bf	0.47502705
7	0xbd909d10	-0.07061207
8	0x3d1c580a	0.038169898
9	0xbcd53e8b	-0.0260308
10	0x3e19e962	0.15030435
11	0x3ecf7887	0.40521643
12	0x3f29f348	0.6638684
13	0x3f099afa	0.537521
14	0x3eda765e	0.42668432
15	0xbdf4716e	-0.119356975
16	0xbf1fd70c	-0.6243751
17	0xbea0b627	-0.3138897
18	0x3eca20ce	0.39478153
19	0x3cc063b5	0.023485044
20	0xbea89800	-0.32928467
21	0xbeff96a3	-0.49919614
22	0xbf204af9	-0.626144
23	0xbf0689ea	-0.5255419
24	0xbe0ba49e	-0.13637015
25	0x3eb97e43	0.36229143
26	0x3ec4e45c	0.38455474
27	0xbf2bc889	-0.6710287
28	0x3ed10ec8	0.4083159
29	0xbeecec1b	-0.46273884
30	0xbdf7b74d	-0.12095509
31	0xbe8b9726	-0.27263755
32	0xbde3a057	-0.11114567
33	0xbe0f1272	-0.1397188
34	0xbf0038b7	-0.5008654
35	0xbf105e40	-0.56393814
36	0xbdc378e6	-0.09544544
37	0xba86c08a	-0.001028077
38	0xbea9fb57	-0.3319957
39	0x3e7e67d8	0.24844301
40	0xbf2d2cc9	-0.6764646
41	0x3db4ff95	0.08837811
42	0x3f16223e	0.58646
43	0xbe8e9464	-0.27847588
44	0x3f19dd9a	0.6010376
45	0x3e84cfb3	0.25939712
46	0xbf161d55	-0.5863851
47	0x3eb5945d	0.35464755
48	0xbd867beb	-0.06566604
49	0xbe9081b3	-0.28223953
50	0x3edd09b9	0.4317148
51	0xbf0f0625	-0.5586875
52	0xbd1201b2	-0.035646148
53	0xbdd19a16	-0.10234468
54	0x3ef40d12	0.47666222
55	0x3de9af89	0.11410434
56	0x3e79fa55	0.244119
57	0x3ead9d9d	0.33909312
58	0xbe32c073	-0.17456226
59	0xbdf19698	-0.117963016
60	0xbefffc4e	-0.4999718
61	0x3eb591fd	0.35462943
62	0x3f00e046	0.50342214
63	0x3ef9ac38	0.48764205

weight f4 [64, 64]
0	0xbf02a27a	-0.5102917
1	0xbf10068e	-0.5626
2	0xbf895ead	-1.0732018
3	0x3e803cde	0.25046438
4	0xbebce5d3	-0.36894092
5	0xbf83b660	-1.0290031
6	0xbd99dad3	-0.075124405
7	0xbf482a73	-0.7818977
8	0x3f3971a6	0.7243904
9	0xbec46f84	-0.3836633
10	0x3f87cc84	1.0609288
11	0x3e072800	0.13198853
12	0x3e0bb723	0.1364408
13	0x3f9d6119	1.2295257
14	0xbc8d848c	-0.017275117
15	0xbeaee753	-0.3416086
16	0xbeefb0b2	-0.46814495
17	0xbf6fab9e	-0.9362124
18	0x3e0012d2	0.1250718
19	0x3f142c51	0.5788012
20	0xbe65e992	-0.22452381
21	0xbe6b7bf4	-0.22996503
22	0xbef8cdac	-0.48594415
23	0xbdadb94d	-0.08482609
24	0xbfb87114	-1.4409509
25	0x3f290863	0.6602842
26	0x3f081498	0.53156424
27	0xbe6deb81	-0.23234369
28	0x3ecc07f6	0.39849824
29	0xbf5f68f2	-0.8726951
30	0x3e89d5c0	0.2692089
31	0xbf14106a	-0.57837546
32	0x3e2f0bed	0.17094393
33	0xbea6a313	-0.3254629
34	0xbe43be1d	-0.19115491
35	0xbf3c9b1d	-0.73674184
36	0x3e88fba0	0.26754475
37	0x3ed28d6c	0.4112352
38	0xbe00def3	-0.12585048
39	0x3f1934d7	0.5984625
40	0xbf4caf21	-0.79954726
41	0x3f018869	0.5059877
42	0x3ee3be5e	0.44481176
43	0xbee4be3f	-0.44676396
44	0x3efb3bd4	0.49069083
45	0x3f013e7d	0.50485975
46	0xbe1acb68	-0.15116656
47	0xbcea36d3	-0.028590595
48	0x3eead1ff	0.4586334
49	0xbf9cb1e7	-1.2241791
50	0x3f8895c7	1.0670708
51	0xbeb9b989	-0.36274365
52	0xbea8ab10	-0.3294301
53	0xbf3f2e90	-0.74680424
54	0x3ea5e9f3	0.32405052
55	0xbe062161	-0.1309867
56	0x3cefc522	0.029268805
57	0x3f8132a3	1.0093578
58	0xbf1ed7ea	-0.6204821
59	0xbda1f27e	-0.0790758
60	0xbd815fed	-0.063171245
61	0x3a0f0d80	0.0005457029
62	0xbd4d536a	-0.050128378
63	0x3dcc6364	0.09979895
64	0xbe89307e	-0.2679481
65	0x3dce166a	0.10062869
66	0x3e44d245	0.19220836
67	0xbec5fe7f	-0.38670728
68	0xbe092162	-0.13391641
69	0x3edcb0b2	0.43103558
70	0x3e029775	0.12753089
71	0x3e946e54	0.28990424
72	0xbe7539f0	-0.23947883
73	0x3d699e04	0.05703546
74	0xbf4b747e	-0.7947463
75	0xbd588460	-0.052860618
76	0x3dcd09ec	0.10011658
77	0x3ea1f65e	0.31633276
78	0xbbb5260f	-0.0055282186
79	0xbea1734b	-0.31533274
80	0xbdbba87b	-0.091629945
81	0x3e8d11e5	0.27552715
82	0xbdfedb46	-0.12444167
83	0xbea25435	-0.3170487
84	0x3e609806	0.21932992
85	0xbd11a3a4	-0.03555645
86	0x3c6ada69	0.0143343
87	0x3c59c2fb	0.013291116
88	0x3e825ec1	0.25462916
89	0xbe88883a	-0.26666433
90	0xbe3e36b4	-0.18575555
91	0x3db4bde1	0.08825279
92	0x3e22b056	0.1588758
93	0x3e1adfd4	0.15124446
94	0xbdf1f38d	-0.11814032
95	0x3dc419cc	0.09575233
96	0xbd8addb1	-0.067805655
97	0xbe276030	-0.16345286
98	0xbda56c0d	-0.0807725
99	0x3d74f9b3	0.059808444
100	0xbdb7115c	-0.08938858
101	0xbdcd5227	-0.10025435
102	0xbc4dbe79	-0.012557619
103	0x3dc0c987	0.09413438
104	0xbe58eaf6	-0.2118338
105	0xbd1cece4	-0.038311854
106	0x3dba7067	0.0910347
107	0x3de830ee	0.113374576
108	0x3d87bc0e	0.066276655
109	0xbe55b7ff	-0.2087097
110	0xbdbeee0d	-0.09322748
111	0x3db4a005	0.08819584
112	0xbd5c9fb5	-0.053863246
113	0x3dbda006	0.09259038
114	0xbc61a35e	-0.01377186
115	0x3ddf02d5	0.10889212
116	0x3dc4c6e9	0.096082516
117	0x3e08938f	0.13337539
118	0xbe2cfb4e	-0.1689274
119	0xbe1a00c4	-0.15039355
120	0xbbe0ea3f	-0.006863862
121	0x3edb6c26	0.42855948
122	0x3e94c137	0.2905366
123	0xbd9825a0	-0.074290514
124	0xbd878eb1	-0.06619013
125	0x3c944f22	0.01810414
126	0x3ddefe48	0.10888344
127	0xbbb1b4cd	-0.0054231645
128	0xbe0f9a44	-0.14023691
129	0x3d754db2	0.05988855
130	0x3e3af8c0	0.18258953
131	0xbe8e35d4	-0.27775443
132	0x3c3359a3	0.010946664
133	0x3efaaebf	0.48961446
134	0x3e248fde	0.16070506
135	0x3e712b09	0.23551573
136	0xbe7a6399	-0.24452056
137	0x3d7a8782	0.061164387
138	0xbf721db9	-0.94576603
139	0xbe357dc2	-0.17723754
140	0x3e0e837e	0.13917348
141	0x3ec6b0cb	0.38806757
142	0xbb048ef2	-0.0020226804
143	0xbe36e46d	-0.17860575
144	0x3de6214d	0.1123682
145	0x3ed17c27	0.40915033
146	0x3d9c5818	0.0763399
147	0xbe0379ca	-0.12839428
148	0x3d7a5bd6	0.061122738
149	0xbc8b6363	-0.017015165
150	0x3e00923b	0.12555782
151	0x3cd49ae2	0.02595276
152	0x3e4b9738	0.19881904
153	0xbda4a31d	-0.08038924
154	0xbc8ff85d	-0.017574484
155	0x3d0ca884	0.034340397
156	0x3d94825b	0.07251426
157	0x3d6a863e	0.05725693
158	0xbe1022e1	-0.14075805
159	0x3e10c504	0.14137655
160	0xbdaeacf4	-0.08529082
161	0xbddf6db7	-0.10909598
162	0xbbdb4399	-0.006691408
163	0x3d8658dd	0.06559918
164	0xbe4319ea	-0.19052854
165	0xbd77ff38	-0.06054613
166	0xbdb9e494	-0.09076801
167	0x3e543e8b	0.20726983
168	0xbeced907	-0.40399954
169	0xbdc30bfc	-0.0952377
170	0xbd3e70f2	-0.04649443
171	0x3e73d47d	0.23811527
172	0x3e55bc94	0.20872718
173	0xbdfa2317	-0.12213724
174	0x3d48a95b	0.048989635
175	0xbcccbd7e	-0.0249927
176	0xbe3ec318	-0.1862911
177	0x3e47900f	0.19488548
178	0xbdee929c	-0.11649057
179	0x3e01ecd8	0.12688005
180	0xbcb047d6	-0.021518629
181	0x3de12eef	0.1099528
182	0xbe2b577a	-0.16732588
183	0xbe35417d	-0.17700763
184	0x3d9af9ab	0.07567152
185	0x3f2554ee	0.6458272
186	0x3eacb02d	0.3372816
187	0xbd8b83e6	-0.06812267
188	0x3dbed0c3	0.09317162
189	0x3c0d8781	0.008638264
190	0x3e0db59f	0.13838814
191	0x3dedbee3	0.116086744
192	0xbe1c00c7	-0.15234672
193	0x3dfb41ea	0.122684315
194	0x3e666354	0.22498828
195	0xbe716add	-0.23575921
196	0xbe091d10	-0.13389993
197	0x3ea98cdd	0.33115283
198	0x3d7353d6	0.059406124
199	0x3d9af0aa	0.07565434
200	0xbe8f416f	-0.2797961
201	0xbd1d689e	-0.03842985
202	0xbf5a1e40	-0.8520241
203	0x3a6547e7	0.0008746371
204	0x3dc7a5a2	0.09748389
205	0x3ecce2a9	0.40016678
206	0xbd0db542	-0.03459669
207	0xbe79b115	-0.24383958
208	0x3d74faf9	0.05980966
209	0x3e4d5284	0.20051008
210	0xbdf23cac	-0.118279785
211	0xbcc4d8cd	-0.02402916
212	0x3e1c1cb1	0.1524532
213	0xbd62b2a5	-0.05534615
214	0x3dde3e9d	0.10851786
215	0x3d9db7bd	0.07701061
216	0x3dc07e59	0.09399099
217	0xbd67c77c	-0.056586727
218	0xbdfc7961	-0.12327839
219	0xbcde40ea	-0.027130563
220	0x3e9700fd	0.29492941
221	0xbd51aac9	-0.051188264
222	0xbe0d1160	-0.1377616
223	0xbddcd763	-0.10783269
224	0xbd2aeb78	-0.041728467
225	0xbe60ec08	-0.21965039
226	0x3c2e1b64	0.010626648
227	0x3d9a4918	0.07533473
228	0xbdc02fae	-0.09384094
229	0xbdf2a66a	-0.11848147
230	0x3ce35a72	0.027753089
231	0x3e9553b6	0.2916543
232	0xbea8d794	-0.32976973
233	0x397b9921	0.0002399427
234	0x3d594034	0.053039744
235	0x3d3b49fc	0.045724854
236	0x3def6c30	0.11690557
237	0xbe1a25b2	-0.15053442
238	0xbde30cb8	-0.1108641
239	0x3dab5e36	0.08367579
240	0x3d866195	0.06561581
241	0x3dccead7	0.1000573
242	0xbd1cdf19	-0.0382987
243	0xbc5c5932	-0.013449
244	0x3cac5c5a	0.02104013
245	0xbd0f40f9	-0.034974072
246	0x3c05002d	0.008117718
247	0xbe883d33	-0.2660919
248	0xbe3e33be	-0.18574426
249	0x3f144f2f	0.57933325
250	0x3e3a8b79	0.18217267
251	0xbd92f84b	-0.071762644
252	0xbdfc88f8	-0.12330812
253	0x3dd92d21	0.10604311
254	0xbbeb8cb8	-0.007188406
255	0x3cbb417e	0.022858378

bias f4 [64]
0	0x3e002fa5	0.12518175
1	0x3b209927	0.0024505348
2	0x3d9de3d6	0.07709472
3	0xbd189fbc	-0.03726171
4	0x3d15a054	0.036529854
5	0x3c0827b9	0.008310252
6	0x3d2db110	0.042405188
7	0xbe4a35f2	-0.19747141
8	0xbe86f373	-0.26357612
9	0x3d9d7548	0.07688385
10	0x3e5061d4	0.20349818
11	0xbc04ce6a	-0.008105854
12	0xbe0fceb1	-0.1404369
13	0xbdb82565	-0.089915074
14	0xbd8e7294	-0.06955448
15	0xbac69c03	-0.0015152696
16	0xbbd9e285	-0.0066493177
17	0xbd211524	-0.039326802
18	0xbddb0cf7	-0.10695832
19	0xbd352cd7	-0.044232216
20	0x3e3c1f04	0.18371207
21	0xbe8311c7	-0.255995
22	0x3cd83a55	0.026395002
23	0x3d98e802	0.07466127
24	0xbe328583	-0.17433743
25	0xbc9e0713	-0.019290483
26	0x3a89d003	0.0010514263
27	0x3d698928	0.057015568
28	0x3c9d3851	0.019191893
29	0x3d1b7b5b	0.037959438
30	0xbd1acb2e	-0.037791423
31	0x3dce2731	0.10066069
32	0xbd0d1e3b	-0.03445266
33	0x3d20f84e	0.0392993
34	0x3d530d96	0.05152663
35	0x3c53a8d6	0.012918672
36	0x3d758c98	0.059948534
37	0x3e0bd050	0.13653684
38	0x3e1c3e15	0.15258057
39	0xbe6df793	-0.23238973
40	0x3c83aa72	0.016072486
41	0xbdd4b49a	-0.103860095
42	0x3e8bb424	0.27285874
43	0x3df765cd	0.12079964
44	0xbd75a0b8	-0.059967726
45	0x3c879134	0.01654873
46	0xbe1888d9	-0.14895953
47	0x3dcdbd7d	0.10045908
48	0xbdcc9e8f	-0.0999118
49	0x3dc86201	0.09784318
50	0xbcffb6a4	-0.03121502
51	0xbe04813c	-0.12939924
52	0x3c945d01	0.018110754
53	0x3db0853c	0.086191624
54	0x3da7190c	0.08159074
55	0xbda14497	-0.078744106
56	0xbdd2c459	-0.102913566
57	0xbd8922b9	-0.06696076
58	0x3d351043	0.04420496
59	0xbdda0412	-0.106453076
60	0xbccddcc8	-0.02512969
61	0xbd5fdff2	-0.05465693
62	0x3da05b88	0.07829958
63	0x3d53a8b2	0.051674552

weight f4 [3, 64]
0	0xbf13a31f	-0.5767078
1	0x3f001dc4	0.5004542
2	0x3f99c825	1.2014204
3	0x3f5e90f8	0.86939955
4	0xbf94f5be	-1.1637495
5	0xbfac2643	-1.3449177
6	0xbf7f384e	-0.9969529
7	0x3eebdf66	0.46068877
8	0xbf293682	-0.660988
9	0x3f71d122	0.94459736
10	0x3e82c5a0	0.255414
11	0x3f2a1117	0.6643233
12	0x3f085019	0.5324722
13	0xbf4ce944	-0.80043435
14	0xbf26bc15	-0.6513074
15	0xbf4ff09e	-0.8122653
16	0x3e0c66fa	0.13711157
17	0xbfbdccc5	-1.4828116
18	0xbf729fe4	-0.94775224
19	0x3f8e496d	1.1116158
20	0x3f3881ff	0.7207336
21	0xbf7bfc8f	-0.9843225
22	0xbf7e5ed4	-0.99363446
23	0xbf89071d	-1.0705296
24	0xbf7b02b6	-0.9805101
25	0x3f6e619e	0.931177
26	0xbeb37ed8	-0.35057712
27	0xbefb01fe	-0.49024957
28	0xbf4e1e6a	-0.8051516
29	0x3f69b15f	0.9128627
30	0x3ed5bd75	0.41746107
31	0xbf771545	-0.9651683
32	0x3f908df5	1.1293322
33	0xbf5811f0	-0.8440237
34	0xbf9e0272	-1.2344496
35	0xbf75bf51	-0.9599505
36	0x3fb385d8	1.4025221
37	0xbf88e7f4	-1.0695786
38	0xbf68dfd0	-0.9096651
39	0xbea6340f	-0.32461593
40	0xbf8a614a	-1.081094
41	0x3f66dc1f	0.9017963
42	0x3e6b4c15	0.22978242
43	0xbf60e323	-0.87846583
44	0xbf880367	-1.0626038
45	0xbf8639b9	-1.0486366
46	0xbf714f14	-0.9426129
47	0xbf77c365	-0.96782523
48	0x3f00c432	0.5029937
49	0xbf98ee22	-1.1947672
50	0x3f8d6772	1.1047194
51	0x3fb9fe6b	1.4530767
52	0x3f2d1757	0.6761374
53	0x3fc08e4d	1.5043427
54	0xbf88ff1d	-1.0702854
55	0xbf741c90	-0.9535608
56	0x3f80c2d2	1.0059454
57	0xbf8149c9	-1.0100642
58	0x3f41257d	0.7544783
59	0x3f400657	0.75009674
60	0xbf8e2b79	-1.1107017
61	0x3ef11dfa	0.47093183
62	0xbfa39cbf	-1.278221
63	0xbf67b94a	-0.90517104
64	0x3ef1a557	0.47196457
65	0x3e2bac88	0.16765034
66	0xbceed49e	-0.029154118
67	0xbe6f33ca	-0.233596
68	0xbddc883a	-0.10768171
69	0xbec60634	-0.38676608
70	0xbdabb2da	-0.083837226
71	0xbefb672e	-0.49102157
72	0x3e74a99a	0.23892823
73	0xbd121da1	-0.035672788
74	0xbe3717e0	-0.17880201
75	0x3e153d56	0.14574179
76	0xbee3f64b	-0.44523844
77	0xbbc98feb	-0.0061511896
78	0xbd6122f2	-0.054964967
79	0x3ea2bda3	0.31785306
80	0x3e37fa0a	0.17966476
81	0x3cc30009	0.023803728
82	0x3e287644	0.16451365
83	0xbe5d5ff5	-0.21618636
84	0xbe709900	-0.23495865
85	0xbbf04c41	-0.007333309
86	0xbd115209	-0.035478625
87	0x3e34e470	0.17665267
88	0x3e5e6967	0.21719895
89	0x3e251053	0.16119508
90	0xbe93b428	-0.28848386
91	0xbe0d300b	-0.13787858
92	0x3d1bdcca	0.038052358
93	0x3d62a5a5	0.055333752
94	0xbefb2357	-0.490504
95	0xbcecb527	-0.028894974
96	0xbd8eab8f	-0.06966316
97	0xbe73b557	-0.23799644
98	0x3d15763a	0.036489703
99	0x3cb5a2e7	0.022172404
100	0x3e9f0021	0.31054786
101	0xbe08e73a	-0.13369456
102	0x3cc75d64	0.024336524
103	0x3ea1c0e3	0.31592473
104	0x3e4a5d7c	0.19762224
105	0x3dbc0d80	0.091822624
106	0xbea06d30	-0.31333303
107	0x3d6ec44a	0.058292665
108	0x3decc8aa	0.11561711
109	0x3da48cdf	0.080346815
110	0x3e5de468	0.21669161
111	0xbdab57eb	-0.083663784
112	0x3dc6e3d3	0.09711423
113	0x3d7e5629	0.062093887
114	0x3e13f03f	0.14447115
115	0xbe00b11d	-0.12567563
116	0x3e57fd20	0.21092653
117	0x3eb63803	0.3558961
118	0xbd09463d	-0.03351425
119	0xbe2808fd	-0.16409679
120	0x3d9c0264	0.076176435
121	0xbb95e773	-0.00457471
122	0x3dd1eef5	0.102506556
123	0xbb29210a	-0.0025807046
124	0xbe3543ab	-0.17701595
125	0x3df311b7	0.11868613
126	0xbc957a89	-0.018246906
127	0x3dc3b485	0.09555916
128	0x3e97802f	0.29589984
129	0xbf20d74e	-0.6282853
130	0xbf643a00	-0.89151
131	0xbf11da14	-0.56973386
132	0x3f73f9dd	0.95303136
133	0x3fa04e1c	1.2523837
134	0x3f376f29	0.7165399
135	0xbeb15339	-0.34633806
136	0x3ee16b4c	0.44027174
137	0xbf807183	-1.0034641
138	0x3d7e105d	0.062027324
139	0xbf2454ae	-0.6419171
140	0xbe37603b	-0.17907803
141	0x3f439488	0.76398516
142	0x3f2270d1	0.63453394
143	0x3f2edb56	0.6830343
144	0xbebe90b3	-0.37219772
145	0x3fa79d40	1.3094864
146	0x3f1f3412	0.6218883
147	0xbf2e1be5	-0.68011314
148	0xbea11dd7	-0.31468078
149	0x3f13dbfa	0.5775753
150	0x3f6bb171	0.9206763
151	0x3f413468	0.7547059
152	0x3f1e49bd	0.61831266
153	0xbf6426b7	-0.89121574
154	0x3f264a13	0.6495678
155	0x3f14ecb8	0.58173704
156	0x3f519d97	0.8188109
157	0xbf35039b	-0.70708627
158	0xbd4c1e39	-0.04983351
159	0x3f56a991	0.8385249
160	0xbf5d7ddc	-0.8652017
161	0x3f1876f5	0.59556514
162	0x3f7a8319	0.9785629
163	0x3f35e992	0.71059525
164	0xbfa59a5c	-1.2937732
165	0x3f710170	0.9414282
166	0x3f658dd8	0.8966956
167	0x3e21e6ea	0.15810743
168	0x3f28a12e	0.6587094
169	0xbf4e3315	-0.80546695
170	0x3e2dcde0	0.16973066
171	0x3f4cead4	0.8004582
172	0x3f60df1b	0.8784043
173	0x3f4e326c	0.8054569
174	0x3ef77e79	0.48338678
175	0x3f4a3472	0.78986275
176	0xbf3be42a	-0.73395026
177	0x3f865d25	1.0497175
178	0xbf87c65c	-1.060741
179	0xbf9e4c94	-1.236712
180	0xbf3b0d62	-0.73067296
181	0xbf8c6015	-1.0966822
182	0x3f59ee6a	0.85129416
183	0x3f518a6f	0.8185186
184	0xbf5b4c28	-0.8566308
185	0x3f2a7031	0.6657744
186	0xbf24d241	-0.6438332
187	0xbf4d4ec0	-0.8019829
188	0x3f6b9ffe	0.92041004
189	0xbf38d689	-0.72202355
190	0x3f6d6137	0.92726463
191	0x3f5c92ab	0.861613

bias f4 [3]
0	0xbccfb933	-0.025356865
1	0xbe3184b5	-0.1733578
2	0x3d24e462	0.040256865

weight f4 [64, 2]
0	0xbe94e33a	-0.2907961
1	0xc0b48b5e	-5.6420126
2	0x3d652b13	0.055949282
3	0xc0debac8	-6.9603004
4	0xc02cb2ca	-2.6984124
5	0xc099bd48	-4.8043556
6	0xbf86674b	-1.0500273
7	0xc031266c	-2.76797
8	0xbf9c7294	-1.2222466
9	0xc06d054b	-3.703448
10	0xbf63fd73	-0.8905861
11	0xc079f0cd	-3.9053223
12	0xbf7006d1	-0.937604
13	0x40e0331e	7.00624
14	0x3f7e07f0	0.9923086
15	0x40a29a51	5.0813375
16	0xbf2a8854	-0.6661427
17	0x40eccac1	7.39975
18	0xbed52234	-0.41627657
19	0x4100fadc	8.061245
20	0x3f699dd1	0.91256434
21	0x404eb926	3.2300506
22	0xbfb3a474	-1.4034562
23	0xc051fd7d	-3.2810967
24	0xbe88302d	-0.26599255
25	0xc0e4b764	-7.1473866
26	0xbeede9c8	-0.46467423
27	0xc003eaf5	-2.0612156
28	0x3eea93cc	0.45815885
29	0x40a007c9	5.0009503
30	0xc05502f1	-3.3283045
31	0xc05317d6	-3.2983298
32	0xbf063ee6	-0.52439725
33	0xc0de90e0	-6.955185
34	0xbf153f53	-0.5829975
35	0x40d1218d	6.5353456
36	0xbfcf6a1b	-1.6204256
37	0xc048247d	-3.127227
38	0xbe525c84	-0.20543104
39	0x40ec3fbc	7.38278
40	0x4031fdf3	2.7811248
41	0x40950728	4.6571236
42	0x3f789abf	0.97111124
43	0x4091436a	4.5394793
44	0xbee4f37c	-0.44717014
45	0x40f98293	7.797189
46	0x3e0129a0	0.12613535
47	0x40e5256f	7.1608195
48	0x40043ac6	2.0660872
49	0x40c2c42f	6.086448
50	0xbed9fea1	-0.4257708
51	0xc0eaabf3	-7.33349
52	0xbf966a48	-1.1751184
53	0x40efc021	7.492203
54	0xc03d086c	-2.953639
55	0xc0d22cf0	-6.5679855
56	0xbeaa16fd	-0.33220664
57	0xc0bd70b0	-5.920006
58	0x40345cf3	2.8181732
59	0x409a75d6	4.8268843
60	0x3fb4db5a	1.4129441
61	0xc0c4dfce	-6.15232
62	0x3fad1e39	1.3524848
63	0x3fc4f188	1.538621
64	0x403acc21	2.918709
65	0x40ce65c3	6.449922
66	0xbfab09e0	-1.3362389
67	0xc00c11ae	-2.188579
68	0xbcb433f2	-0.021997426
69	0xc0fb4a3a	-7.852811
70	0xbec95b4a	-0.3932746
71	0x410b1f8d	8.695203
72	0x3f8fbe6a	1.1229985
73	0x408176dc	4.045759
74	0xbe6061a0	-0.21912241
75	0xc0f239e5	-7.569567
76	0x400600a3	2.0937889
77	0x40ad972d	5.424704
78	0xbe855422	-0.2604075
79	0xc0ddc5f0	-6.9304123
80	0x3f88f574	1.0699906
81	0xbf7afe3b	-0.98044175
82	0x40399d7a	2.9002366
83	0x40c77bf1	6.2338796
84	0x3ebe9de3	0.37229833
85	0xc0eba56d	-7.3639436
86	0x402f643c	2.7404928
87	0x40c74fbf	6.2284846
88	0xbf82ad81	-1.0209199
89	0xc05ced8d	-3.451999
90	0x3f116d39	0.56807286
91	0xc0e7abcb	-7.239721
92	0x3e22ea5a	0.1590971
93	0x40e9dd0f	7.3082347
94	0x3e9c3416	0.30508488
95	0xc0e38c7e	-7.1109
96	0xbe5a9962	-0.21347573
97	0x40facba9	7.837361
98	0x3eef99be	0.46796983
99	0xc1067d05	-8.405522
100	0xc0379f5d	-2.8691018
101	0xc094f1f2	-4.6545343
102	0x4039ebf3	2.9050262
103	0x409d5b3d	4.9173875
104	0xbf31ac2c	-0.6940334
105	0x40f5d42f	7.6821513
106	0xc032d3ac	-2.7941694
107	0xc080ac3b	-4.021024
108	0xbf1d288c	-0.61389995
109	0xc0c8a3dd	-6.270003
110	0xbde0e5a9	-0.10981304
111	0x40ee32d2	7.4437037
112	0x3f3f101e	0.7463397
113	0x40414fb7	3.0204904
114	0x4036f32b	2.8585918
115	0x40987bf6	4.765132
116	0xbf6de3e9	-0.9292589
117	0x40eb09b7	7.344936
118	0x3ed83e14	0.42234862
119	0x409888b8	4.7666893
120	0xbe28b835	-0.1647652
121	0xc0ba180c	-5.8154354
122	0xbf5af644	-0.8553202
123	0xc072107e	-3.7822566
124	0xbf1a60c5	-0.6030391
125	0xc0997128	-4.795063
126	0xc04ce221	-3.2013018
127	0xc0989479	-4.768124

bias f4 [64]
0	0x3f1313f1	0.57452303
1	0xbe1fe767	-0.15615617
2	0x3ebbd489	0.3668559
3	0xbf496d3f	-0.7868232
4	0xbf5d886e	-0.865363
5	0xbf0c7670	-0.5486822
6	0xbeaac405	-0.33352676
7	0x3f0f7b6f	0.5604772
8	0xbe883d5e	-0.2660932
9	0xbe2905a0	-0.16506052
10	0x3f121848	0.570683
11	0xbf07c2d0	-0.53031635
12	0x3d8ed370	0.06973922
13	0x3e132aa1	0.1437173
14	0x3eb3c3b5	0.3511025
15	0xbeae5d0f	-0.34055373
16	0x3e895ec5	0.26830116
17	0xbdf5ab87	-0.11995607
18	0xbf3e6c2a	-0.74383795
19	0x3de03d1b	0.10949155
20	0xbf2f6978	-0.6852031
21	0x3f512605	0.8169864
22	0xbe72115b	-0.23639433
23	0x3e3a0cde	0.18168971
24	0xbf2288b4	-0.6348984
25	0x3efbcb55	0.49178568
26	0xbef40293	-0.47658214
27	0x3f18f1bb	0.5974385
28	0xbe45dd7b	-0.1932277
29	0xbf1ba58f	-0.607995
30	0x3f21725a	0.6306511
31	0x3f5d39b4	0.86416173
32	0xbf1d43b7	-0.6143145
33	0xbf794492	-0.97370255
34	0xbdf9b0db	-0.12191936
35	0xbe4efdc3	-0.2021399
36	0x3f7781fc	0.96682715
37	0xbe6c8245	-0.23096569
38	0xbeedd29d	-0.46449748
39	0xbeee9984	-0.46601498
40	0x3ef4e8e1	0.47833923
41	0xbf107240	-0.5642433
42	0x3e437b95	0.19090112
43	0xbf0b684d	-0.54456025
44	0x3d6ab175	0.057298142
45	0x3de16698	0.11005896
46	0xbd15e2bf	-0.036593195
47	0x3dca3d8d	0.09875021
48	0xbe56ca38	-0.20975578
49	0x3e8bb820	0.27288914
50	0x3f14879e	0.58019435
51	0xbe7a6d3f	-0.24455737
52	0xbea4f6eb	-0.32219633
53	0x3d8ed6f1	0.069745906
54	0x3ea0edfc	0.31431568
55	0x3de4b684	0.111676246
56	0x3ed2be36	0.41160744
57	0xbf45363d	-0.77035886
58	0xbec6b0ab	-0.38806662
59	0x3f52621c	0.82180953
60	0x3f6a7415	0.9158338
61	0xbf460928	-0.7735772
62	0xbefd9ca9	-0.49533585
63	0xbd4af37c	-0.04954861

weight f4 [64, 64]
0	0x3f98a609	1.192567
1	0x3fe2e87c	1.7727199
2	0x3fac9c76	1.3485248
3	0x3eb7436a	0.3579362
4	0x3ec1c3b5	0.37844625
5	0x3ebb5474	0.3658787
6	0xbfead82b	-1.8347219
7	0xbf18fbdd	-0.5975931
8	0xc006267f	-2.0960996
9	0xc03c0893	-2.9380233
10	0xbed69e25	-0.4191753
11	0x3ebc6a33	0.36799774
12	0x403e3f0d	2.9725983
13	0x3f5583bb	0.8340413
14	0xbf6ed9ba	-0.93300974
15	0xbd4461b6	-0.047944747
16	0x40ad2af3	5.411493
17	0xc01cf1ed	-2.452266
18	0x3ef5204d	0.47876206
19	0xc016d5b3	-2.3567932
20	0xbf97e7e8	-1.1867647
21	0xbeb8de43	-0.36107072
22	0xc016405c	-2.3476782
23	0xbf9e111a	-1.2348969
24	0xbfa3427b	-1.2754663
25	0x3ff8a3b8	1.9424963
26	0xbfe8677c	-1.8156581
27	0x3fbad66f	1.459669
28	0x3fb93d63	1.4471859
29	0xbf9fd1f1	-1.2485944
30	0x3fa9c71c	1.3263888
31	0xbd1d1d9b	-0.038358312
32	0xbfbc37dc	-1.4704547
33	0x3e8c1f99	0.27367857
34	0x3fe3281c	1.7746615
35	0xc03e2bd2	-2.9714246
36	0xbe8e6652	-0.2781244
37	0x3fae8a88	1.3636026
38	0xbf72d8ef	-0.94862264
39	0x3f8ef28a	1.1167767
40	0x3dff43b6	0.12464087
41	0xbfab80fe	-1.339874
42	0x402d2d38	2.705885
43	0xbf9a8fb8	-1.207511
44	0x3f04d6c1	0.5189019
45	0x4022b62a	2.5423684
46	0xc01edbe8	-2.482172
47	0x403b96d3	2.9310806
48	0xc03ae7d2	-2.9203992
49	0x4023581b	2.5522525
50	0x3f96cfe3	1.1782192
51	0xbf378855	-0.716924
52	0xbfe94c5a	-1.8226426
53	0x3e70ebf7	0.23527513
54	0x4029b815	2.6518605
55	0xbff30d92	-1.8988516
56	0xbf0a886a	-0.541144
57	0xbfa17c13	-1.261599
58	0xbfd12971	-1.6340772
59	0xbec68c6d	-0.3877901
60	0x3f421fd7	0.75829834
61	0x3f11f254	0.5701039
62	0x3f33da28	0.70254755
63	0x3f4891a0	0.78347206
64	0x3edb668f	0.42851683
65	0xbfedc66e	-1.8576181
66	0x3da35f1f	0.07977127
67	0xbf69f179	-0.91384083
68	0xbf35655c	-0.7085779
69	0xbe88aecf	-0.26695868
70	0x3f1268bb	0.57191056
71	0x3e267fc8	0.16259682
72	0xbb7353b0	-0.003712874
73	0x3f17d9ed	0.59316903
74	0x3ee99987	0.45624945
75	0x3ed0d91a	0.40790635
76	0xbe6e7fb4	-0.23290902
77	0x3e69e10b	0.22839753
78	0x3f842460	1.0323601
79	0x3f596f50	0.84935474
80	0xbe3222ba	-0.1739606
81	0x3f881c5a	1.0633652
82	0x3ea2f865	0.31830135
83	0x401077ef	2.2573202
84	0xbf666b13	-0.9000713
85	0x3fa7cbf9	1.3109123
86	0xbe4ff3fe	-0.2030792
87	0x3fd077e1	1.6286584
88	0xbf21056d	-0.62898904
89	0x3ec366fa	0.38164502
90	0x3ee18854	0.44049323
91	0x3f302908	0.6881261
92	0xbf3eaca5	-0.74482185
93	0xbf55d43a	-0.8352696
94	0xbef76d05	-0.48325363
95	0x3e8fdc0b	0.28097567
96	0xbf17e5d2	-0.5933505
97	0xbf70ee1c	-0.94113326
98	0xbfc97db8	-1.5741491
99	0x3e6ca64a	0.23110309
100	0x3fd32431	1.649542
101	0xbfcbcbd4	-1.5921578
102	0xbf31985a	-0.69373095
103	0xc047fdce	-3.124866
104	0x3e34c023	0.1765142
105	0xbf41d063	-0.757086
106	0x3b5a9f9d	0.0033359297
107	0xbf117ebd	-0.5683401
108	0x3ee604f7	0.44925663
109	0xbfb470c1	-1.409691
110	0x3eab12a7	0.33412668
111	0xbf30b4e5	-0.69026023
112	0xbe48cfb4	-0.19610482
113	0x3ee0b0b1	0.43884805
114	0x3f44b34d	0.7683609
115	0xbf10d69e	-0.5657748
116	0xbea59cbf	-0.3234615
117	0x3f149222	0.5803548
118	0x3e9e394f	0.30903098
119	0x3fbf47c6	1.4943779
120	0x3e7d862c	0.24758214
121	0xbf5b35dc	-0.8562906
122	0x3e1bf0b4	0.1522854
123	0x4020c2ce	2.51189
124	0x3f1769e4	0.5914595
125	0xbfe72bba	-1.8060219
126	0xbf9ae7ce	-1.2101991
127	0x3f254b64	0.6456816
128	0x3ed874aa	0.42276508
129	0x3eb33920	0.3500452
130	0x3f72ce9a	0.948465
131	0x3ee360f0	0.44409895
132	0x3edf13a2	0.43569666
133	0x3f16092c	0.58607745
134	0x3e676474	0.22596914
135	0xbf2bf7da	-0.67175066
136	0xbe8549d4	-0.2603289
137	0xbec80296	-0.39064473
138	0xbed81658	-0.42204547
139	0x3f7fe639	0.99960667
140	0x3fa93038	1.321784
141	0x3f6c7f60	0.9238186
142	0xbf4226cc	-0.7584045
143	0x3f7013f4	0.93780446
144	0x3f1c0a2f	0.6095304
145	0x3ef933ea	0.4867242
146	0x3f3be95e	0.73402965
147	0x3e8b7d50	0.27244043
148	0xbe3fba4b	-0.18723409
149	0xbebd3bae	-0.36959594
150	0xbed49511	-0.4151998
151	0xbf0f38fc	-0.55946326
152	0xbe8f4692	-0.27983528
153	0x3e5e405f	0.21704243
154	0x3e934227	0.28761408
155	0x3dab7a40	0.08372927
156	0x3f8c10ce	1.0942628
157	0xbe64b0c7	-0.2233306
158	0xbeceddc4	-0.4040357
159	0xbec4cada	-0.38436013
160	0xbe53607f	-0.20642279
161	0x3f4b5551	0.7942706
162	0x3ef0561b	0.46940693
163	0xbf1548ed	-0.583144
164	0xbeeb1b54	-0.45919287
165	0x3edee2e4	0.4353248
166	0xbf0d5b83	-0.5521776
167	0x3bedba14	0.0072548483
168	0xbeb28d1f	-0.34873292
169	0xbe807250	-0.25087214
170	0x3ef7845d	0.48343173
171	0xbe87b03c	-0.26501644
172	0x3f3a55bb	0.72787064
173	0xbf01ec24	-0.50750947
174	0xbfacb148	-1.3491602
175	0x3ddce0de	0.107850775
176	0xbf4cac0b	-0.79950017
177	0x3f0558c5	0.52088577
178	0x3e1deca4	0.15422302
179	0xbf3cbc68	-0.73724985
180	0xbe74e172	-0.23914126
181	0x3f8a4fa0	1.080555
182	0x3f54ca0a	0.8312079
183	0xbe267b98	-0.16258085
184	0xbf81cbcd	-1.014032
185	0xbd4807ea	-0.048835672
186	0xbdf19bd3	-0.11797299
187	0xbeac14fb	-0.33609757
188	0xbc108cda	-0.008822644
189	0x3f3e40fc	0.7431791
190	0x3ec8b22f	0.39198443
191	0x3fbe3140	1.485878
192	0xbfed38b1	-1.8532926
193	0xbfe31a5a	-1.7742417
194	0xbf6af7e1	-0.91784483
195	0xbdb8f181	-0.09030438
196	0xbec4c834	-0.38433993
197	0xbf20f295	-0.6287015
198	0x3fd63165	1.6733824
199	0x3f4a0f7b	0.7892987
200	0x3fd56f7e	1.667465
201	0x40215f7e	2.5214534
202	0x3ee010e0	0.43762875
203	0xbf3e45c2	-0.7432519
204	0xc03a7e34	-2.9139528
205	0xbfdb4cda	-1.7132828
206	0x3f94457f	1.1583709
207	0x3d201874	0.03908582
208	0xc0f4709c	-7.6387463
209	0x400203bb	2.0314777
210	0xbf59f880	-0.85144806
211	0x400acb72	2.1686673
212	0x3f8fe268	1.1240969
213	0x3ea356cb	0.31902155
214	0x4009323f	2.1436918
215	0x3fbb4f94	1.463366
216	0x3fa9f912	1.3279135
217	0xc01e3bff	-2.4724119
218	0x3fc5efd9	1.5463821
219	0xbf8fdf44	-1.124001
220	0xbfe27297	-1.769122
221	0x3f897202	1.0737917
222	0xbf93d885	-1.1550452
223	0x3e4685bf	0.19386958
224	0x3f95dd68	1.1708193
225	0x3d2b7b5d	0.041865695
226	0xbff1833d	-1.8868176
227	0x4026e76b	2.6078746
228	0x3d65384d	0.055961896
229	0xbfd93c9a	-1.6971619
230	0x3fb09028	1.3793993
231	0xbfa18759	-1.261943
232	0x3e8022c2	0.25026518
233	0x3fac6828	1.3469286
234	0xc026560e	-2.5990024
235	0x3fa07fe1	1.2539026
236	0xbfb8ece5	-1.4447294
237	0xc0164854	-2.3481646
238	0x4019b13e	2.401443
239	0xc02695c9	-2.6028922
240	0x40217e0f	2.523319
241	0xc003df84	-2.0605173
242	0xbf6bcea4	-0.92112184
243	0x3f2482c2	0.6426202
244	0x3fc9706e	1.5737436
245	0xbecb2aff	-0.3968124
246	0xc082ebac	-4.0912685
247	0x3fe4e08f	1.788103
248	0x3f1fdad1	0.6244326
249	0x3f93ac58	1.153697
250	0x3fac9efe	1.348602
251	0x3e84c215	0.25929323
252	0xbfa0c6db	-1.2560686
253	0xbbcd4467	-0.0062642577
254	0xbf5cf1a1	-0.86306196
255	0xbef0d9ba	-0.47041112

bias f4 [64]
0	0x3ed6d26b	0.4195741
1	0x3f57a868	0.8424134
2	0xbcdb8e37	-0.026801212
3	0xbf70c31a	-0.940477
4	0x3f82d4a5	1.0221144
5	0x3e013b99	0.12620391
6	0x3eb796d2	0.35857254
7	0x3e922ae5	0.2854835
8	0xbf2809f8	-0.6564021
9	0x3f38c126	0.7216972
10	0x3e6740d6	0.22583327
11	0x3e7546bb	0.23952763
12	0xbe51abb8	-0.20475662
13	0x3edbc00b	0.42919955
14	0x3e5d096e	0.21585628
15	0xbe375c60	-0.17906332
16	0x3f3bc13a	0.73341715
17	0x3f3ad8ff	0.7298736
18	0x3eaeb882	0.34125143
19	0x3e8688ae	0.26276153
20	0xbfc184ca	-1.5118649
21	0x3df1d9aa	0.11809094
22	0xbf2b3b0e	-0.66886985
23	0x3ece907d	0.4034461
24	0x3e812fc6	0.2523176
25	0xbf4245c8	-0.7588773
26	0xbedd63db	-0.43240246
27	0x3f3863ee	0.7202748
28	0x3ecf478d	0.40484276
29	0xbf3c6a39	-0.7359958
30	0x3ecf7be4	0.4052421
31	0xbef9611b	-0.48706898
32	0xbee27e69	-0.44237068
33	0xbe03f4fc	-0.12886423
34	0x3f7346cf	0.9502992
35	0x3da55aa7	0.08073931
36	0xbf3ac2c3	-0.7295343
37	0xbed91df8	-0.42405677
38	0x3eda7caa	0.42673236
39	0x3c88a004	0.016677864
40	0x3f26fd4a	0.6523024
41	0xbdaf0574	-0.08545962
42	0x3f59184a	0.8480269
43	0xbf14c22e	-0.58108795
44	0xbec9eef7	-0.39440128
45	0xbf1a7dfb	-0.6034848
46	0x3fae2037	1.3603581
47	0x3f37281a	0.71545565
48	0xbea316a5	-0.31853214
49	0xbeef2772	-0.46709782
50	0x3e02873f	0.12746905
51	0x3f519d4d	0.81880647
52	0x3ef5a504	0.4797746
53	0xbea06ad4	-0.31331503
54	0x3f2bdc90	0.67133427
55	0xbf07210b	-0.52784795
56	0x3f8131e6	1.0093353
57	0x3e5f55af	0.2181003
58	0xbf2c05dd	-0.67196447
59	0x3f26564c	0.6497543
60	0x3ec4cdce	0.38438267
61	0xbed55d86	-0.41672915
62	0x3f4af6c9	0.79282814
63	0xbea76d5e	-0.32700628

weight f4 [1, 64]
0	0xbf9c2a51	-1.2200414
1	0xbfa2999b	-1.2703127
2	0xbf39dda5	-0.7260383
3	0x3fca8b00	1.582367
4	0xbfbbad42	-1.4662249
5	0xbfc09a60	-1.5047112
6	0xbf4d4d88	-0.8019643
7	0x3ff08f22	1.8793681
8	0x3fdd7daa	1.7303975
9	0xbf8ea16e	-1.1143014
10	0xbfd962dc	-1.6983294
11	0xbfa4377a	-1.282943
12	0xbcc69fc5	-0.024246106
13	0x3fe600f4	1.7969041
14	0x3f1e49da	0.6183144
15	0x3f6a0e49	0.9142805
16	0x3f1cb80b	0.6121833
17	0x3f4b8b00	0.7950897
18	0xbfdc5f1b	-1.7216524
19	0x3fb24903	1.3928531
20	0x3fc08e52	1.5043433
21	0x3f8aba29	1.0838062
22	0x3f60cf7f	0.87816614
23	0x3f487e0e	0.78317344
24	0xbfcaee2c	-1.5853934
25	0xbf1e1647	-0.6175274
26	0xbf7893df	-0.97100633
27	0xbfddb19c	-1.7319827
28	0x3fcffca6	1.6248977
29	0x3f5ece36	0.870334
30	0x3f89104d	1.07081
31	0x3fe63664	1.7985349
32	0xbcf661f8	-0.030076012
33	0xbfc0938a	-1.5045025
34	0xbf72971c	-0.94761825
35	0x3ff345a2	1.9005625
36	0xbef1a42c	-0.47195566
37	0x3f9f73f4	1.2457261
38	0x3fbb0c02	1.461304
39	0x3f240d7f	0.64083093
40	0xbf615e85	-0.8803485
41	0x3fde1974	1.7351518
42	0xbf895ddb	-1.0731767
43	0xbf36a56f	-0.7134618
44	0xbf79becf	-0.97556776
45	0xbf5d03c7	-0.8633389
46	0xbfbf39e9	-1.4939548
47	0x3f77c38e	0.9678277
48	0x3f94e41e	1.1632116
49	0x3f0b6a71	0.5445929
50	0x3fa88f1f	1.3168677
51	0x3f67c410	0.9053354
52	0xbf9a0ef6	-1.2035816
53	0x3fbfdcba	1.4989235
54	0x4044a7af	3.0727346
55	0x3fd3f777	1.6559895
56	0xbf9d4b1a	-1.2288544
57	0x3fa9e25e	1.3272207
58	0xc03ae770	-2.9203758
59	0xbf5b10ea	-0.85572684
60	0xbfd76a10	-1.6829243
61	0x3f9d9c73	1.231337
62	0xbfb38115	-1.4023768
63	0x3fc472ff	1.5347594

weight f4 [64, 2]
0	0x4050f58e	3.2649875
1	0x40193667	2.3939455
2	0x3e427f4b	0.18993871
3	0x404af0ea	3.1709542
4	0x3e882946	0.2659399
5	0x4004a019	2.0722716
6	0xbe9d70f7	-0.30750248
7	0xc0c9af75	-6.302668
8	0xc01ad23e	-2.4190822
9	0x401b8d13	2.4304855
10	0x3e802dcd	0.25034943
11	0x40efa020	7.4882965
12	0xbe2dab72	-0.16959932
13	0x4067bd24	3.6209192
14	0xbef6ebc5	-0.48226753
15	0x40aa3bda	5.319806
16	0xbe022164	-0.1270805
17	0xc0dac68b	-6.836736
18	0x3d492699	0.049109075
19	0xc09edd2d	-4.964499
20	0xbed74e99	-0.42052153
21	0xbfdee3d8	-1.7413282
22	0xbf08f2b2	-0.53495324
23	0x4094f5bd	4.6549973
24	0xbe897f59	-0.2685497
25	0x3fba4379	1.4551841
26	0xbd32abd4	-0.0436209
27	0xc0d757b0	-6.729454
28	0x3ebcc8ef	0.3687205
29	0xc04f3581	-3.2376406
30	0x3ea9cd24	0.33164322
31	0x4027cc85	2.621858
32	0x3edb4b5d	0.42830935
33	0x3eaa1d29	0.33225372
34	0xbf7cee55	-0.98801166
35	0x3f7d5db9	0.98971134
36	0x3ecb4147	0.3969824
37	0xc0b37106	-5.607547
38	0xbed0e1cc	-0.4079727
39	0x40d01231	6.5022206
40	0x3f4cf532	0.8006164
41	0xc07d6527	-3.9592988
42	0x3d411481	0.047138695
43	0x40c22fd5	6.068339
44	0xbe9a2830	-0.30108786
45	0xc01ae410	-2.4201698
46	0x3f00411a	0.5009934
47	0x402ba32b	2.681834
48	0x402c7f7f	2.6952817
49	0x3df27b11	0.11839879
50	0xbf55f535	-0.8357728
51	0x40a1915c	5.048994
52	0x3ee2b703	0.44280252
53	0x3fa3771d	1.2770725
54	0x4029055e	2.6409526
55	0xbeaeb956	-0.34125775
56	0x3ec0892f	0.37604663
57	0x403730db	2.862357
58	0x3ddea524	0.10871342
59	0x401a5613	2.4115036
60	0xbda5734c	-0.08078632
61	0x407421ab	3.814555
62	0xbfa554ff	-1.2916564
63	0xc090c803	-4.5244155
64	0x3c81e5c9	0.01585664
65	0xc095674a	-4.6688585
66	0x403f496a	2.9888558
67	0xbcb37868	-0.021908
68	0xbf6fc4c3	-0.9365961
69	0x4075897b	3.8365161
70	0x3edd9733	0.43279418
71	0x4091e256	4.558879
72	0xbf5b4ea2	-0.8566686
73	0x409a00be	4.8125906
74	0xbf398632	-0.7247039
75	0x40b39404	5.6118183
76	0xbecc7969	-0.3993638
77	0x4097ca24	4.7434254
78	0x3eafae38	0.34312606
79	0x409d0cc0	4.9078064
80	0x400ad438	2.1692028
81	0xbf8f86e6	-1.1213043
82	0xbea0d3a9	-0.31411484
83	0xc0bc8ad5	-5.8919473
84	0xbf42a31e	-0.7603015
85	0xc01ce4a8	-2.451456
86	0xbce6d62e	-0.0281783
87	0xc0635dcc	-3.5526
88	0x3e959377	0.2921407
89	0xc0be4666	-5.9460936
90	0xbe327255	-0.17426427
91	0xc0978f7f	-4.7362666
92	0x401ef9de	2.4840007
93	0xbfddf474	-1.7340226
94	0x3ebaf517	0.36515114
95	0xc093e4dc	-4.621687
96	0x3f642782	0.89122784
97	0xc0803c4d	-4.007361
98	0xc01b3792	-2.4252667
99	0x4065806d	3.5859635
100	0x401b1c4d	2.4236023
101	0xbf8c8a4e	-1.0979707
102	0x3e8ddabf	0.27705953
103	0xc0b31b89	-5.597111
104	0xbea4e60e	-0.32206768
105	0xbf802355	-1.0010782
106	0x3e9e4acc	0.3091644
107	0x405d62a9	3.4591467
108	0x3ec79da8	0.3898747
109	0x3eb997e4	0.36248696
110	0x3e46b45d	0.1940474
111	0xc0ba034d	-5.812903
112	0xbc6172b5	-0.013760258
113	0x4098e592	4.7780237
114	0xbec50d73	-0.38486823
115	0xbf680fcc	-0.90649104
116	0xbecfbe0a	-0.40574676
117	0xbda2e474	-0.0795373
118	0xc00fa3c9	-2.2443717
119	0x4031203c	2.7675924
120	0xbcdeebd6	-0.027212065
121	0xc0b7a90c	-5.7393856
122	0x3ec6dcd4	0.38840353
123	0x3f32ec27	0.6989159
124	0xc01afb37	-2.421583
125	0x3fd1762a	1.6364186
126	0x40192bcb	2.393298
127	0xbf977fce	-1.1835878

bias f4 [64]
0	0xbecd3765	-0.40081325
1	0xbd63472c	-0.055487797
2	0xbe20c0be	-0.15698525
3	0x3c8feb79	0.017568337
4	0xbf03c84c	-0.51477504
5	0xbca941e2	-0.020661298
6	0x3ef2024b	0.47267374
7	0xbe6ef356	-0.23335013
8	0xbe35a81c	-0.1773991
9	0xbdaf887a	-0.08570953
10	0x3f3565b6	0.70858324
11	0xbeccdd8a	-0.4001277
12	0x3ef35c9b	0.4753159
13	0xbed013c5	-0.40640083
14	0xbf10ddfb	-0.56588715
15	0xbf016f0b	-0.50560063
16	0xbf553f2b	-0.8329951
17	0xbf7dab4a	-0.9908949
18	0xbf2bc417	-0.67096084
19	0x3d86043a	0.06543775
20	0x3f288a21	0.6583577
21	0x3e006203	0.12537389
22	0x3e5df4d0	0.2167542
23	0xbf157ac4	-0.5839045
24	0xbebd624d	-0.3698906
25	0xbf35b66a	-0.70981467
26	0xbf570db8	-0.8400531
27	0xbe8f55ea	-0.27995235
28	0xbe1aac62	-0.15104821
29	0xbd6a4b34	-0.057200626
30	0x3e09f091	0.13470675
31	0xbfc96a51	-1.573557
32	0xbdc962b4	-0.09833279
33	0xbef7b333	-0.48378906
34	0xbf4b34fb	-0.79377717
35	0x3ee9e272	0.45680577
36	0xbf24b678	-0.64340925
37	0xbf11bea6	-0.5693153
38	0xbe40119a	-0.18756714
39	0x3dd22f30	0.102629066
40	0xbc84a0ec	-0.016190015
41	0x3cfa3669	0.030543523
42	0xbf7e86b4	-0.9942429
43	0x3ebc6e2e	0.3680281
44	0xbee60c53	-0.44931278
45	0xbf2708fa	-0.6524807
46	0x3f19efa9	0.6013132
47	0x3d6a39e7	0.057184126
48	0x3f398d10	0.7248087
49	0xbf529d46	-0.8227123
50	0xbd14f894	-0.036369875
51	0x3e1f10b8	0.15533721
52	0x3f2605c4	0.6485255
53	0xbe362918	-0.17789114
54	0xbf2feeef	-0.6872396
55	0xbe497b63	-0.19675975
56	0x3e9b4804	0.3032838
57	0x3f5faf0e	0.8737649
58	0x3e35e31a	0.17762414
59	0xbf5f2c5c	-0.8717706
60	0xbe125b7b	-0.1429271
61	0xbed3fbe2	-0.4140311
62	0xbee95b79	-0.455776
63	0x3e5dcdc2	0.21660522

weight f4 [64, 64]
0	0xbea68e39	-0.32530382
1	0xbe6a83bf	-0.2290182
2	0xbed66e1f	-0.4188089
3	0xbf240abf	-0.640789
4	0x3e9d884e	0.30768055
5	0x3f6c3b8a	0.9227835
6	0x3e834603	0.25639352
7	0xbcef04ec	-0.029177152
8	0xbf525fba	-0.8217732
9	0xbf5e461a	-0.86825716
10	0x3ee7247f	0.45145032
11	0xbeaf5fd2	-0.34252793
12	0x3f00dd95	0.5033811
13	0xbf81dd69	-1.0145694
14	0xbfa51701	-1.2897645
15	0xbec6deda	-0.38841897
16	0xbf1a52e8	-0.60282755
17	0xbe906a5c	-0.28206146
18	0xbfe425a2	-1.7823985
19	0x3f99aa4f	1.2005099
20	0x3e8f01eb	0.2793115
21	0x3f661e2e	0.898898
22	0x3ee544c7	0.44779035
23	0xbec1304b	-0.37732157
24	0x3d378a3a	0.044809557
25	0xbe5a6aba	-0.21329775
26	0xbef7bbb6	-0.483854
27	0xbe852429	-0.2600415
28	0xbedae0ce	-0.42749637
29	0xbe04d2f1	-0.12971093
30	0xbe85d7c7	-0.26141188
31	0x3c38d980	0.011282325
32	0xbe8acb07	-0.27108023
33	0xbed93d5c	-0.42429626
34	0xbda5a789	-0.080885954
35	0x3f2c3a74	0.6727669
36	0xbe2f3602	-0.17110446
37	0xbde0556f	-0.10953795
38	0x3f13b5d5	0.5769933
39	0x3ef54be5	0.47909465
40	0xbe92e52b	-0.28690466
41	0xbf30b4e3	-0.6902601
42	0xbf052e9a	-0.52024233
43	0x3ef95adb	0.4870213
44	0xbfe70106	-1.8047187
45	0xbf88f56a	-1.0699894
46	0xbd055f5a	-0.032561637
47	0xbf1c4796	-0.6104673
48	0x3ddc8043	0.107666515
49	0x3e8c5c93	0.2741438
50	0xbe21c3b4	-0.15797311
51	0xbdf7ec97	-0.12105673
52	0x3ec8ddd2	0.39231735
53	0xbebb0864	-0.3652984
54	0xbf20aa74	-0.6276009
55	0xbf0c37b1	-0.5477248
56	0x3f8f0b7c	1.117538
57	0x3f23d044	0.63989663
58	0x3f466082	0.7749101
59	0x3e347617	0.17623173
60	0xbf9ee5d3	-1.2413887
61	0xbf019419	-0.50616604
62	0xbc160609	-0.009156712
63	0xbdc48edb	-0.0959756
64	0x3f636ba6	0.88836133
65	0x3ef86f84	0.4852258
66	0x3efe8185	0.4970819
67	0xbf9c05cb	-1.2189268
68	0xbf249e01	-0.64303595
69	0x3fab6954	1.3391519
70	0x3dc180ac	0.0944837
71	0x3f434a9f	0.7628574
72	0xbf4fe34f	-0.8120622
73	0xbf26da53	-0.65176886
74	0xbdaee680	-0.08540058
75	0x3e7ee195	0.2489074
76	0xbdbb6049	-0.09149224
77	0xbf18b9bb	-0.596584
78	0x3d6c13bb	0.057636004
79	0x3eb1e6db	0.3474644
80	0x3c8beff4	0.017082192
81	0x3f7741d8	0.96584845
82	0xbeb77edf	-0.35838982
83	0x3f965544	1.1744771
84	0xbf1002f9	-0.56254536
85	0x3fa87c75	1.3162981
86	0xbe79ffbb	-0.2441396
87	0x3ec01e72	0.37523228
88	0x3f8ea4ed	1.1144081
89	0x3f8c3f2b	1.0956777
90	0x3e35a091	0.17737032
91	0x3f94d221	1.1626626
92	0x3f0bc2c7	0.5459408
93	0x3e908c85	0.28232208
94	0x3f407066	0.75171506
95	0x3faa0f0d	1.3285843
96	0xbf97a7fc	-1.184814
97	0x3f6a5871	0.915412
98	0x3f93baae	1.1541345
99	0xbe8dbd03	-0.27683267
100	0x3f238b62	0.63884556
101	0x3f9b9613	1.2155174
102	0x3f966a7b	1.1751245
103	0x3ef424a2	0.476842
104	0x3f1d990c	0.61561656
105	0xbfb856b3	-1.4401459
106	0x3f5bca7f	0.8585586
107	0xbe963625	-0.29338184
108	0xbf36db10	-0.7142801
109	0x3d234124	0.039857045
110	0x3f81b30d	1.0132767
111	0xbf5ee8f9	-0.8707424
112	0xbf8c4ac6	-1.0960319
113	0xbf434fba	-0.7629353
114	0x3f8d9231	1.1060239
115	0xbfb147fc	-1.3850093
116	0xbe0d7c92	-0.13817051
117	0x3edd856f	0.43265864
118	0x3e026d98	0.12737119
119	0xbea348fa	-0.31891614
120	0x3f629d88	0.88521624
121	0xbe63dde0	-0.22252607
122	0xbe5576d0	-0.20846105
123	0xbe18477d	-0.1487102
124	0xbf805368	-1.0025454
125	0x3e306a22	0.17227986
126	0xbf4d11c3	-0.8010523
127	0x3f843c96	1.0330989
128	0x3ea1e422	0.31619364
129	0xbd928a7b	-0.07155319
130	0x3dc79599	0.0974533
131	0x3f4b9906	0.7953037
132	0xbed2e107	-0.41187307
133	0xbf722308	-0.94584703
134	0x3cfb8a34	0.030705549
135	0x3e96eead	0.2947897
136	0x3f41c5e4	0.7569258
137	0x3f4e877f	0.806755
138	0xbf1107de	-0.5665263
139	0x3edda5b5	0.43290487
140	0xbf20b9bc	-0.6278341
141	0x3f86e6c6	1.0539176
142	0x3f6d2e0c	0.92648387
143	0x3f00176f	0.50035757
144	0x3f031f72	0.51219857
145	0x3e831eee	0.25609535
146	0x3fa35e08	1.2763071
147	0xbf059061	-0.5217343
148	0xbec1b178	-0.3783071
149	0xbf6538a7	-0.8953957
150	0xbee9ea1e	-0.4568643
151	0x3ed2c933	0.41169128
152	0x3f0cb143	0.5495798
153	0x3e470ff7	0.19439684
154	0x3f0d02d3	0.55082434
155	0x3f4931b3	0.7859146
156	0x3e26f355	0.16303761
157	0x3ea772f7	0.327049
158	0xbdca80b7	-0.09887832
159	0x3f1afbb3	0.6054031
160	0x3ed76a8a	0.4207347
161	0x3ee314d2	0.44351822
162	0x3cc49213	0.023995435
163	0xbeb35635	-0.35026708
164	0x3ee750d5	0.45178857
165	0x3eb15a52	0.3463922
166	0xbec4f5f0	-0.38468885
167	0xbf0838da	-0.5321175
168	0x3f02862f	0.50986
169	0x3f045014	0.5168469
170	0x3ea708bc	0.3262385
171	0xbf00be0b	-0.5028998
172	0x3fae4e02	1.3617556
173	0x3f741e5e	0.95358837
174	0x3c204138	0.009781174
175	0x3edc9ce3	0.43088445
176	0xbdb48a4b	-0.0881544
177	0xbeba0cba	-0.36337835
178	0x3f0693e6	0.52569425
179	0x3c58f525	0.013242041
180	0xbef2134e	-0.47280353
181	0x3e9fe540	0.3122959
182	0x3f05b4bb	0.522289
183	0x3f94d4ed	1.162748
184	0xbf813936	-1.0095584
185	0xbefea0e7	-0.49732134
186	0xbf30ad07	-0.6901402
187	0xbeb40e12	-0.35166985
188	0x3fa7bbbf	1.310417
189	0x3ee55f84	0.44799435
190	0xbe024624	-0.12722069
191	0x3eab7a1a	0.33491594
192	0x3e932146	0.28736323
193	0x3da18bef	0.07888018
194	0x3e439a73	0.19101886
195	0x3f1448a7	0.5792336
196	0xbd3d8ef7	-0.04627892
197	0xbf28d441	-0.65948874
198	0xbdf797e5	-0.120895185
199	0x3e89c33d	0.26906767
200	0x3f459f08	0.7719579
201	0x3ed8bcce	0.42331547
202	0xbeed433f	-0.46340367
203	0x3f1a6e86	0.60324895
204	0xbf1214e6	-0.5706314
205	0x3f37d6b7	0.71812004
206	0x3f88cfa5	1.0688368
207	0x3f01b9e5	0.5067428
208	0x3f115306	0.5676731
209	0x3f3f74ba	0.74787486
210	0x3fc892f2	1.5669844
211	0xbf55092c	-0.8321712
212	0xbf32c069	-0.69824845
213	0xbf1204e0	-0.5703869
214	0xbee36325	-0.4441158
215	0x3f0e6796	0.5562681
216	0xba83e051	-0.0010061358
217	0x3f01efdb	0.50756615
218	0x3efc2e9f	0.4925432
219	0x3e45ba48	0.19309342
220	0x3e65e355	0.22450002
221	0x3cbf5a40	0.023358464
222	0x3e15bb05	0.14622124
223	0x3ead136f	0.3380389
224	0xbdbc4fa6	-0.09194879
225	0x3e1d6fd3	0.15374689
226	0x3f21ad45	0.63155013
227	0xbf371fb5	-0.71532756
228	0x3f0f3458	0.55939245
229	0x3e8ad903	0.27118692
230	0xbe9243e3	-0.28567418
231	0xbf341cef	-0.7035665
232	0x3db2ef3d	0.08737037
233	0x3f0e5785	0.55602294
234	0x3f52ef91	0.823968
235	0xbeec2967	-0.46125337
236	0x3fbddb1c	1.4832492
237	0x3f669422	0.9006978
238	0xbdd92bee	-0.10604082
239	0x3ec8e78f	0.39239165
240	0xbf092197	-0.5356688
241	0xbd4cd95f	-0.05001199
242	0x3d416a8c	0.04722075
243	0x3e7105f2	0.23537424
244	0xbee25d1b	-0.4421166
245	0x3ede691c	0.43439567
246	0x3f0e66c3	0.5562555
247	0x3f055a89	0.5209127
248	0xbf57cdba	-0.8429829
249	0xbef0a09a	-0.4699753
250	0xbede6f62	-0.43444353
251	0x3de70e17	0.11281984
252	0x3f5a39af	0.8524427
253	0x3f10a36c	0.5649936
254	0x3ca4fcc0	0.020140052
255	0x3c8dd93e	0.017315503

bias f4 [64]
0	0x3f25c461	0.64752775
1	0x3d56315a	0.05229316
2	0xbf1d4865	-0.6143859
3	0xbec9c96b	-0.39411482
4	0xbe402bbb	-0.18766682
5	0xbd7d1cf9	-0.06179521
6	0xbee81b72	-0.4533344
7	0x3f7ebeb8	0.99509764
8	0xbf87dfcd	-1.0615174
9	0x3f18610d	0.5952309
10	0x3f1bf2f4	0.6091759
11	0xbf194d6f	-0.5988378
12	0x3ef0b534	0.47013247
13	0x3ef84cc5	0.4849607
14	0xbf16cc2d	-0.589053
15	0x3ea9c211	0.33155873
16	0x3ef36c82	0.47543722
17	0x3e51b705	0.20479973
18	0xbf110dd5	-0.5666173
19	0x3eec18d2	0.46112686
20	0xbf3a09dc	-0.72671294
21	0x3e0c2b0d	0.13688298
22	0x3f1aa249	0.6040388
23	0x3f3b81a3	0.73244685
24	0xbe46d89a	-0.19418564
25	0xbf44a56a	-0.768149
26	0xbebb269f	-0.36552903
27	0x3f5b6c05	0.857117
28	0xbf22fb0b	-0.6366431
29	0x3e96ecde	0.2947759
30	0x3e89aa6c	0.26887834
31	0x3e100332	0.14063719
32	0xbedd568c	-0.43230093
33	0xbe4caf32	-0.19988707
34	0x3dd10d2e	0.10207592
35	0x3f2da425	0.6782859
36	0x3dfdedc8	0.12398869
37	0xbe5543ba	-0.20826617
38	0xbedef152	-0.43543488
39	0xbde92a2c	-0.11384997
40	0x3d2651b3	0.04060526
41	0xbf06e1a6	-0.5268806
42	0xbec52dc1	-0.3851147
43	0xbf8f2ecc	-1.1186156
44	0xbf1519dd	-0.5824259
45	0x3f8fde70	1.1239758
46	0x3ca9a7b8	0.020709857
47	0x3f23985a	0.63904345
48	0x3ef0098e	0.4688229
49	0xbbd4c742	-0.00649348
50	0x3ee1a36c	0.44069993
51	0x3f1bb808	0.60827684
52	0x3e3b7fdf	0.18310498
53	0x3f16b6a8	0.5887246
54	0x3f380207	0.71878093
55	0xbd16b2be	-0.036791556
56	0xbf0d5302	-0.55204785
57	0xbec51d1e	-0.38498777
58	0xbf17aadb	-0.5924508
59	0x3eb56ebc	0.35436046
60	0xbece4fb5	-0.40295187
61	0xbefbfafd	-0.49214926
62	0x3c9db6eb	0.019252261
63	0x3f01ab7d	0.50652295

weight f4 [1, 64]
0	0x3e8ae339	0.27126482
1	0x3ffb6f61	1.9643365
2	0xbf1ab2b0	-0.60428905
3	0xbe9c8b00	-0.305748
4	0xc00f1d7c	-2.2361746
5	0xbf8b5b73	-1.0887283
6	0xbfaf49ff	-1.3694457
7	0x3fb5cab8	1.420249
8	0xbf8e1606	-1.1100471
9	0x3e68eac6	0.22745809
10	0x3e87fca4	0.26559937
11	0xbe532d04	-0.20622641
12	0x3ddec133	0.108766936
13	0x3eb8f6ca	0.36125785
14	0xbf027547	-0.509602
15	0x3ea6e14e	0.3259377
16	0x3eb2ea82	0.3494454
17	0x3ff41067	1.9067506
18	0xbe762765	-0.24038465
19	0x3e764400	0.24049377
20	0xbf52dffa	-0.8237301
21	0x400ef4a6	2.2336822
22	0x3ea331e0	0.3187399
23	0x3ebb1efd	0.3654708
24	0x3fe96ad6	1.8235729
25	0xbf262343	-0.64897555
26	0xbe83b3c9	-0.25723103
27	0x3f91d8c0	1.1394272
28	0xbea6f801	-0.32611087
29	0x4015f87a	2.3432908
30	0xbf85801b	-1.042972
31	0xbfafbc4a	-1.3729336
32	0xbea28dbc	-0.3174876
33	0xbf647a9a	-0.89249575
34	0xc00404b2	-2.0627866
35	0x3e6ccdd9	0.231254
36	0x3f352279	0.70755726
37	0xbfaeee11	-1.3666402
38	0xbf4e1486	-0.80500066
39	0xbeb0da7c	-0.3454169
40	0x3fe3d9ed	1.7800881
41	0xbeb25504	-0.34830487
42	0xbfb6adcd	-1.427179
43	0xbf7a2514	-0.97712827
44	0xbf304998	-0.68862295
45	0x3f82b134	1.0210328
46	0x3f67faeb	0.90617245
47	0x3e5e5232	0.21711043
48	0x3ea419ce	0.32050937
49	0xbf29c916	-0.6632246
50	0x3e5d0cb6	0.2158688
51	0x3eab29d5	0.33430353
52	0xbfcec167	-1.6152772
53	0xbf50c296	-0.81546915
54	0x3e84bb59	0.25924185
55	0xc0042655	-2.0648396
56	0xbfc5e05e	-1.5459096
57	0xbfd009ed	-1.6253029
58	0xbf4330ce	-0.76246345
59	0x3ed6ef42	0.41979414
60	0xbf481992	-0.7816402
61	0xbe636265	-0.22205503
62	0x404cb3db	3.1984775
63	0x3f3f55eb	0.74740475
