data/rnd_scale=1000_no_norm/rnd_scale=1000_no_norm_s40/pyt_save/model.pt (torch_old, 59768 bytes, 16 tensors)

weight f4 [64, 2]
-0.19042903 -1.8103535 -0.9435345 -1.2825392 0.78436285 0.620323 0.20741022 -3.4895298
-0.15161973 -2.7906492 0.3759751 -3.296043 0.30798435 3.0020032 0.27415213 2.25864
0.9195857 -1.6025338 0.46885493 -2.3200264 -0.55866194 -2.5574834 0.5004297 2.823695
0.060133703 -2.455107 -0.10774151 1.8497432 -0.9309828 1.4556286 0.040541235 -2.0777967
-0.7373371 -1.7958474 -0.020673964 -3.4378493 0.93810177 1.3227029 0.7869555 2.5799062
0.16199234 -2.9963973 0.88927484 1.6943914 0.08304241 -3.0677497 -0.70148134 2.485165
-0.20898736 2.1612258 -0.898699 0.5812312 -0.35141897 -3.3083744 0.49702397 1.9398324
-0.3227455 2.3167777 -0.34872058 2.3706565 -1.3218939 -1.484233 0.18127061 2.321078
0.4590258 1.6807389 0.30819762 2.8311248 -0.12806056 2.9177048 -0.8533943 -1.3489975
-0.051234063 3.1959615 0.5914794 -3.381134 -1.0019597 -1.9387631 0.16473931 -1.7566772
-0.15836537 2.4397614 0.07879889 -2.7538223 -0.6624101 1.2000458 0.41446206 -3.2511997
0.57338053 -3.6779053 -0.6839695 -0.050616756 0.85251564 -1.7702824 -0.44529468 -2.539265
-0.17339306 2.2149727 1.4560804 -0.34766096 0.32680288 -2.3922272 0.66336226 -3.1723824
0.050940085 -3.3608787 0.2614841 2.297799 0.6659309 1.5555998 0.624908 2.7195241
-1.0005081 -1.8349184 -0.74326164 1.2868768 -0.017552871 3.3350632 0.24741785 -3.5054173
0.5467904 -2.2902427 0.42514765 -2.4641206 -0.40406397 -2.5094516 0.64982414 -3.2739563
00000000: d4ff 42be aab9 e7bf 7a8b 71bf 3f2a a4bf
00000010: 01cc 483f 7dcd 1e3f 5863 543e 7554 5fc0
00000020: 3442 1bbe ff99 32c0 cf7f c03e 5ef2 52c0
00000030: 20b0 9d3e d220 4040 ab5d 8c3e 8f8d 1040
00000040: f869 6b3f d41f cdbf c10d f03e 507b 14c0
00000050: 7804 0fbf cfad 23c0 291c 003f 6bb7 3440
00000060: c24e 763d 7920 1dc0 95a7 dcbd 63c4 ec3f
00000070: e454 6ebf 0a52 ba3f 910e 263d 9ffa 04c0
00000080: 20c2 3cbf 54de e5bf 725c a9bc b905 5cc0
00000090: 7027 703f 544e a93f ea75 493f 2f1d 2540
000000a0: 52e1 253e f9c4 3fc0 84a7 633f d1e1 d83f
000000b0: 2412 aa3d 0356 44c0 4894 33bf f20c 1f40
000000c0: c800 56be 8651 0a40 2311 66bf 91cb 143f
000000d0: 30ed b3be 68bc 53c0 ed79 fe3e 6e4c f83f
000000e0: e63e a5be 1646 1440 818b b2be d6b8 1740
000000f0: d233 a9bf 59fb bdbf 019f 393e 8b8c 1440
00000100: 6e05 eb3e 7422 d73f 14cc 9d3e 2631 3540
00000110: 4f22 03be adbb 3a40 0d78 5abf f3ab acbf
00000120: cfda 51bd a28a 4c40 326b 173f 8064 58c0
00000130: 3740 80bf 6429 f8bf 6cb1 283e ccda e0bf
00000140: 882a 22be 0d25 1c40 5061 a13d a03e 30c0
00000150: b593 29bf 1a9b 993f 5f34 d43e a813 50c0
00000160: 11c9 123f cd62 6bc0 a018 2fbf 8453 4fbd
00000170: 773e 5a3f 9d98 e2bf aafd e3be 5183 22c0
00000180: f38d 31be 1dc2 0d40 d860 ba3f 9e00 b2be
00000190: b552 a73e 401a 19c0 1cd2 293f 5008 4bc0
000001a0: 8da6 503d a318 57c0 3ee1 853e 240f 1340
000001b0: 737a 2a3f e51d c73f f8f9 1f3f af0c 2e40
000001c0: a610 80bf 9bde eabf 6546 3ebf 61b8 a43f
000001d0: 0acb 8fbc ad71 5540 1b5b 7d3e c258 60c0
000001e0: 75fa 0b3f 5693 12c0 f4ac d93e 27b4 1dc0
000001f0: 79e1 cebe db9a 20c0 e05a 263f 8088 51c0

bias f4 [64]
-0.11587756 0.10674797 0.34781495 0.059327077 0.37484697 -0.18604057 0.16889526 0.16144603
0.7030182 0.15813217 -0.20758106 0.3817126 0.5243835 0.47837722 -0.62172514 -0.35227302
0.37269667 -0.38708752 -0.3105121 0.78549373 -0.28937188 0.36630076 -0.2556149 -0.22568128
0.4275215 -0.6890878 -0.48491508 0.3145309 -0.58804864 0.65901756 0.5687301 -0.62317455
-0.33015984 0.22480513 0.3922813 -0.12510644 0.20405202 -0.18492112 0.5241507 0.5233624
0.44004753 -0.38721213 0.022826783 -0.31901583 -0.16735853 -0.51308405 0.36839885 -0.19876769
-0.37917095 0.008409066 0.45997328 0.16432245 -0.31291875 0.5200116 -0.6338035 -0.209763
-0.181766 -0.48691538 0.42144904 -0.5135057 -0.26043358 0.2510701 0.24336429 0.05355807
00000000: 3751 edbd ae9e da3d cd14 b23e f300 733d
00000010: f1eb bf3e 6b81 3ebe e1f2 2c3e 1c52 253e
00000020: 00f9 333f 66ed 213e 2190 54be d56f c33e
00000030: ff3d 063f dced f43e 6129 1fbf 215d b4be
00000040: 19d2 be3e 5630 c6be 71fb 9ebe 1e16 493f
00000050: 8d28 94be c68b bb3e f5df 82be fe18 67be
00000060: 19e4 da3e 0f68 30bf ca46 f8be 320a a13e
00000070: 5b8a 16bf 60b5 283f 4c98 113f 5e88 1fbf
00000080: b60a a9be 5133 663e 18d9 c83e e71b 00be
00000090: 03f3 503e f65b 3dbe be2e 063f 14fb 053f
000000a0: e94d e13e ab40 c6be 3cff ba3c 0b56 a3be
000000b0: 0960 2bbe 7a59 03bf c69e bc3e c289 4bbe
000000c0: b222 c2be 2ec6 093c 9e81 eb3e 2544 283e
000000d0: e336 a0be 7b1f 053f f240 22bf 1dcc 56be
000000e0: de20 3abe f94c f9be 2bc8 d73e 1c75 03bf
000000f0: 8d57 85be 438c 803e 7d34 793e b55f 5b3d

weight f4 [64, 64]
-0.43611145 -0.122567825 0.13890263 -1.7052234 -0.18256447 -0.22579645 0.66690433 0.6552542
-0.17342828 -0.2916497 -0.4283317 0.12589689 -0.14952679 -0.028011868 0.43209258 -0.02296065
-0.15355943 -0.2877745 -0.056741346 0.022499597 -0.1512736 0.19454592 -0.17688659 0.24382192
-0.047636557 0.23247851 -0.043327592 0.23326823 0.042094264 0.13238043 -0.12487411 -0.034401383
-0.061644763 0.49946076 0.16977729 -0.1202359 0.29665995 -0.11649902 -0.14541984 -0.066660725
0.16969189 -0.21495578 0.062616676 -0.028909158 -0.0996881 0.06369373 -0.2178524 -0.47091252
0.120460965 0.027878705 -0.12289575 -0.16491489 -0.29022315 0.14671777 -0.08207918 0.05947097
-0.13853529 0.22535765 0.104989104 -0.020249374 0.08615235 -0.4320934 0.031660445 -0.046518635
-0.35623682 -0.16832681 0.10906028 -1.4200603 -0.174718 0.034359477 0.7265254 0.35303393
-0.32471478 -0.23644744 -0.28350937 0.07713035 -0.10977622 0.07760329 0.29920617 -0.14223073
0.027478378 -0.19529888 0.16736232 0.021698745 -0.02674105 0.194408 -0.23418781 0.16629675
0.014178432 0.094165325 -0.2218723 0.23815538 0.14356445 0.035345413 0.009158647 0.11198319
0.1438818 0.4360636 0.09443412 0.04480394 0.2344711 0.061483573 -0.11185991 -0.0532081
0.17519613 -0.18520272 -0.025778692 -0.11641386 -0.08881949 -0.020424508 -0.24922535 -0.34993297
-0.05731357 0.024910465 -0.016303262 -0.07286741 -0.22656211 0.11576769 0.032319874 0.016798934
-0.0052235625 0.19191846 0.13680948 -0.0736104 0.054576896 -0.2793815 -0.05814235 -0.17611317
-0.45026687 -0.023754569 0.16905296 -1.4631567 -0.092936836 -0.0501939 0.6466373 0.45529896
-0.28708905 -0.19078878 -0.29498407 0.17205395 -0.067208596 0.06632409 0.45784792 -0.059032455
-0.017738795 -0.13235766 0.01690223 -0.03158938 -0.11154894 0.1915724 -0.10331692 0.17336711
0.09585896 0.20908189 -0.12771685 0.12356037 0.06312075 0.015610647 -0.1526705 0.009888911
0.07880052 0.3435709 0.16806142 -0.04772596 0.3818625 0.059606165 -0.17808479 0.11628899
0.09473071 -0.1081081 0.13272516 -0.021257905 0.035463873 0.1697385 -0.16749412 -0.3859151
0.12794751 0.18388335 0.0687212 -0.2288042 -0.23339726 0.08870431 -0.0037018727 0.006669406
-0.19362095 0.2603706 0.16296464 -0.15905313 -0.11846823 -0.2567642 -0.04436904 0.014427994
0.76272535 -0.004645197 -0.6305686 0.8204912 -0.1358919 0.094826 -1.0495076 -0.87866354
-1.1335485 -0.2909387 0.64115703 -1.1857623 -0.08389378 -0.13016354 0.7651737 0.24059263
-0.05266598 0.38039696 -0.008074734 -2.6636195 0.13761923 -0.5088259 0.43669903 0.11295199
-0.08339559 1.1914737 1.3616683 -0.8497491 0.13638183 -0.19761212 -0.06664309 0.11005914
-0.031696375 -1.2361556 -0.34793448 0.13991955 -0.6096322 0.20100702 -0.10108457 -0.16137376
-0.30722603 0.39100063 0.09384496 0.24138376 0.18519479 1.0452012 -0.2931681 0.7484761
0.10440982 0.13475385 -0.30982015 -0.12754281 0.39301512 -0.51607794 0.009580009 -0.056246165
0.3366009 0.90879714 -0.42620477 0.28266278 0.1860101 -0.531524 0.14836293 -0.076657504
00000000: 004a dfbe d704 fbbd 7e3c 0e3e c344 dabf
00000010: 2ef2 3abe 2f37 67be 3eba 2a3f bdbe 273f
00000020: 2f97 31be 1c53 95be 4b4e dbbe 1deb 003e
00000030: 8d1d 19be 2579 e5bc 3d3b dd3e f917 bcbc
00000040: af3e 1dbe 2e57 93be 9d69 68bd 1351 b83c
00000050: 77e7 1abe 0c37 473e c221 35be 74ac 793e
00000060: 8d1e 43bd d90e 6e3e 4678 31bd dedd 6e3e
00000070: 096b 2c3d bc8e 073e ffbd ffbd 77e8 0cbd
00000080: 387f 7cbd 52b9 ff3e 19da 2d3e 3d3e f6bd
00000090: d0e3 973e 0a97 eebd f0e8 14be 6b85 88bd
000000a0: b6c3 2d3e 5e1d 5cbe 2c3d 803d e6d2 ecbc
000000b0: 4629 ccbd dc71 823d b314 5fbe 721b f1be
000000c0: 3db4 f63d e261 e43c c4b0 fbbd 73df 28be
000000d0: 2198 94be 2f3d 163e 2119 a8bd d597 733d
000000e0: 32dc 0dbe 28c4 663e 8704 d73d 04e2 a5bc
000000f0: a570 b03d 593b ddbe 62ae 013d 538a 3ebd
00000100: ac64 b6be dd5d 2cbe ff5a df3d 89c4 b5bf
00000110: 47e9 32be 86bc 0c3d 92fd 393f ddc0 b43e
00000120: 0441 a6be 471f 72be 2428 91be 84f6 9d3d
00000130: 5bd2 e0bd 79ee 9e3d 8d31 993e efa4 11be
00000140: 561a e13c 6efc 47be 0761 2b3e 91c1 b13c
00000150: 0c10 dbbc e412 473e eece 6fbe b249 2a3e
00000160: a74c 683c c0d9 c03d 7e32 63be 01df 733e
00000170: 8f02 133e 5ac6 103d 260e 163c 7157 e53d
00000180: c055 133e ba43 df3e ad66 c13d 5684 373d
00000190: 3119 703e 33d6 7b3d cf16 e5bd bdf0 59bd
000001a0: 9d66 333e c8a5 3dbe d62d d3bc 646a eebd
000001b0: fee6 b5bd 4c51 a7bc ee34 7fbe 6a2a b3be
000001c0: a2c1 6abd 0811 cc3c 6b8e 85bc 823b 95bd
000001d0: e6ff 67be 9c17 ed3d d861 043d eb9d 893c
000001e0: 6b2a abbb 4686 443e c917 0c3e 0dc1 96bd
000001f0: 068c 5f3d 180b 8fbe ac26 6ebd 0357 34be
00000200: 6189 e6be f198 c2bc 381c 2d3e b848 bbbf
00000210: ab55 bebd 1e98 4dbd 068a 253f f21c e93e
00000220: 56fd 92be 225e 43be 2708 97be e92e 303e
00000230: a9a4 89bd edd4 873d 0b6b ea3e 04cc 71bd
00000240: f350 91bc c488 07be 8c76 8a3c de63 01bd
00000250: c573 e4bd 8e2b 443e d297 d3bd 2687 313e
00000260: b451 c43d 9019 563e 35c8 02be 380d fd3d
00000270: 7445 813d cdc3 7f3c a855 1cbe 1905 223c
00000280: 2b62 a13d 86e8 af3e 4b18 2c3e 4c7c 43bd
00000290: 7b83 c33e 9825 743d dc5b 36be ec28 ee3d
000002a0: 2d02 c23d c867 ddbd 1be9 073e 0f25 aebc
000002b0: 9142 113d eecf 2d3e 9483 2bbe aa96 c5be
000002c0: ac04 033e eb4b 3c3e b3bd 8c3d a64b 6abe
000002d0: b1ff 6ebe 9baa b53d 1e9b 72bb 088b da3b
000002e0: 9244 46be 4c4f 853e 34e0 263e d3de 22be
000002f0: 799f f2bd 9976 83be 4fbc 35bd 6563 6c3c
00000300: f841 433f bd36 98bb f26c 21bf b60b 523f
00000310: 3f27 0bbe 2234 c23d 4456 86bf 18f0 60bf
00000320: 1e18 91bf ebf5 94be de22 243f 0fc7 97bf
00000330: 81d0 abbd 9749 05be 6ce2 433f ea5d 763e
00000340: 48b8 57bd 64c3 c23e e44b 04bc be78 2ac0
00000350: 0eec 0c3e 6a42 02bf 0497 df3e 5f53 e73d
00000360: 4fcb aabd 3682 983f 264b ae3f 2889 59bf
00000370: aea7 0b3e d55a 4abe 2c7c 88bd b066 e13d
00000380: 0fd4 01bd 593a 9ebf 7824 b2be 1247 0f3e
00000390: db10 1cbf c9d4 4d3e 6d05 cfbd 2a3f 25be
000003a0: bb4c 9dbe 3c31 c83e c931 c03d 4e2d 773e
000003b0: b4a3 3d3e 27c9 853f 211a 96be 219c 3f3f
000003c0: d1d4 d53d eafc 093e bfa0 9ebe 959a 02be
000003d0: 4739 c93e af1d 04bf 78f5 1c3c 6162 66bd
000003e0: f456 ac3e eea6 683f 8337 dabe 2db9 903e
000003f0: 6f79 3e3e f511 08bf 74ec 173e 9cfe 9cbd

bias f4 [64]
0.0049928837 0.030139133 -0.026783925 -0.11169407 -0.26621717 0.04869268 0.1202445 -0.01721906
-0.007968423 0.034343105 0.05630215 -0.17265487 -0.039623488 -0.21974857 0.07970281 0.04794353
-0.0036697616 -0.016132902 0.06552237 -0.05388041 0.12465556 0.06920582 -0.076560974 0.009922664
0.04927513 -0.12110949 0.21425392 -0.095505394 0.10992861 -0.2042512 0.102013454 0.012749242
-0.0072810124 0.45944735 0.35266265 -0.071344875 0.011657534 -0.042961493 -0.4127266 -0.050176356
0.25587463 0.031819988 -0.040896993 0.09307066 0.05516262 -0.016594408 0.06848879 -0.03474761
0.12602282 -0.08527998 0.10190056 0.28627726 -0.08034938 -0.101473406 0.10090241 -0.17747892
0.24633196 0.14372084 -0.073148556 0.0009871137 -0.0005793757 0.040276024 0.24042317 0.3453884
00000000: 589b a33b 58e6 f63c f669 dbbc dcbf e4bd
00000010: 9e4d 88be fa71 473d c042 f63d fc0e 8dbc
00000020: fd8d 02bc 5bab 0c3d 159d 663d 70cc 30be
00000030: 3d4c 22bd c505 61be 3a3b a33d 6f60 443d
00000040: 6280 70bb 2629 84bc 9830 863d b4b1 5cbd
00000050: 6a4b ff3d c8bb 8d3d 00cc 9cbd ab92 223c
00000060: b8d4 493d 4108 f8bd 6165 5b3e 5598 c3bd
00000070: 4022 e13d 3a27 51be 6eec d03d 32e2 503c
00000080: 8f95 eebb af3c eb3e 3390 b43e 431d 92bd
00000090: 3eff 3e3c 64f8 2fbd e750 d3be b985 4dbd
000000a0: 0002 833e ad55 023d 9b83 27bd d59b be3d
000000b0: 33f2 613d fff0 87bc da43 8c3d 8353 0ebd
000000c0: 200c 013e 45a7 aebd 3eb1 d03d ef92 923e
000000d0: 378e a4bd 4ad1 cfbd eca5 ce3d 09bd 35be
000000e0: 723e 7c3e 8e2b 133e e9ce 95bd 0a62 813a
000000f0: 3fe1 17ba 79f8 243d 7e31 763e c0d6 b03e

weight f4 [3, 64]
-0.5960041 -0.4311982 -0.7708118 -0.99936044 -1.0404333 -0.54499316 -0.62096894 0.8702403
0.52670765 -0.58397365 1.0791053 -0.5392616 -0.35171223 -0.44887576 -0.41050336 -0.49333143
-0.08278138 -0.06473217 -0.3489745 0.39633906 1.0436641 -0.56389123 0.21286504 -0.7348473
-0.3431455 0.5000494 2.7203834 0.7469362 -0.10776382 -0.68810636 -0.5002473 -0.5555718
0.3338923 -0.9382759 -0.9627603 -0.533076 -0.52940315 0.6011812 0.8883947 0.64819485
0.69751054 -0.494856 -0.7401956 -0.74402833 0.31815347 0.49721557 0.3073466 0.62615937
0.97221166 -0.6679442 -0.1844578 0.63690346 -0.559785 -0.7369066 0.87915593 -2.7797353
0.64828074 0.5324424 0.6482071 -0.39798853 -0.8295483 0.49044237 -0.83114576 1.259791
-1.1808002 -0.91769564 -1.0611924 0.7909571 0.81374675 -1.1253191 -1.139722 0.5112421
1.1271088 -1.0566669 -0.0116620455 -0.023339981 -1.0960156 0.1838694 -1.1076717 -1.0494558
-0.78108084 -0.79167825 -1.1137426 1.0865047 -0.17032747 -0.40445605 0.9479233 0.85581785
-1.1628393 1.1946548 -0.116168045 1.1311401 -0.7309592 0.07989087 -1.1675463 -1.0727832
1.017653 -0.21146534 -0.19847228 -1.1281036 -1.0399201 1.0970857 0.22177005 1.0464876
-0.17289428 -1.1160926 0.088799216 -1.0264949 1.0433959 1.1355896 0.9071866 1.2408901
-0.098791145 0.57020634 -0.9743439 -0.16899171 -1.1510949 0.07194664 0.7184853 0.10859324
0.15705201 -0.21359086 1.1518761 -1.1536596 0.038932666 1.0911152 -0.39483866 -0.7987982
0.728486 0.8255975 1.1314763 0.5597278 0.6345151 0.82668823 0.8721383 -1.0596211
-0.72765034 0.97871006 -1.1693331 0.5850835 0.9711026 0.37056494 0.77193046 0.82174164
0.39733937 0.39243278 0.7657337 -0.6193859 -0.93878275 0.9622844 -0.62462556 0.28655225
0.59764194 -0.8381038 -2.8382802 -0.9823739 0.33020717 0.82885945 0.53809 0.88432056
-0.8067999 1.2209421 1.1584969 0.7349034 0.81613004 -1.175603 -1.1655246 -1.050862
-0.5692879 0.69774497 0.74219984 1.1236265 -0.8191835 -0.6431376 -0.78296906 -0.92851865
-0.75716156 0.4435123 0.5201058 -0.55430925 1.227353 0.7329755 -1.0692768 3.1062732
-0.77648866 -0.39458248 -1.0413129 0.9482996 0.807464 -0.7445603 1.1204879 -1.0730286
00000000: ba93 18bf 03c6 dcbe ec53 45bf 16d6 7fbf
00000010: eb2c 85bf ac84 0bbf d2f7 1ebf 11c8 5e3f
00000020: 50d6 063f 4c7f 15bf 1f20 8a3f 0c0d 0abf
00000030: a013 b4be 0bd3 e5be 7f2d d2be f095 fcbe
00000040: 4989 a9bd 4d92 84bd c9ac b2be f4ec ca3e
00000050: c996 853f 2d5b 10bf 4bf9 593e f41e 3cbf
00000060: c4b0 afbe 3d03 003f c31a 2e40 3637 3f3f
00000070: 47b3 dcbd bd27 30bf 3510 00bf f439 0ebf
00000080: eef3 aa3e d932 70bf 7677 76bf ab77 08bf
00000090: f786 07bf 03e7 193f d66d 633f 19f0 253f
000000a0: 0d90 323f c45d fdbe 757d 3dbf a478 3ebf
000000b0: 03e5 a23e 0a93 fe3e 895c 9d3e fb4b 203f
000000c0: dde2 783f 64fe 2abf 81e2 3cbe 1b0c 233f
000000d0: 124e 0fbf e9a5 3cbf 5d10 613f 2fe7 31c0
000000e0: baf5 253f 254e 083f e7f0 253f 27c5 cbbe
000000f0: 475d 54bf 431b fb3e f8c5 54bf d540 a13f
00000100: 7624 97bf 1aee 6abf 27d5 87bf 2a7c 4a3f
00000110: b551 503f 750a 90bf 69e2 91bf c3e0 023f
00000120: 1a45 903f dc40 87bf 2a12 3fbc 7d33 bfbc
00000130: 3d4a 8cbf 4348 3c3e 30c8 8dbf 9154 86bf
00000140: eaf4 47bf 6dab 4abf 1e8f 8ebf 9612 8b3f
00000150: 536a 2ebe dd14 cfbe 1aab 723f e116 5b3f
00000160: ebd7 94bf 73ea 983f 83e9 edbd 33c9 903f
00000170: 2420 3bbf d39d a33d 2872 95bf f650 89bf
00000180: 7442 823f 5f8a 58be 513c 4bbe b365 90bf
00000190: 1a1c 85bf 4e6d 8c3f b017 633e 4ef3 853f
000001a0: 330b 31be 1fdc 8ebf 5ddc b53d 2f64 83bf
000001b0: ff8d 853f 005b 913f 623d 683f 7dd5 9e3f
000001c0: 0353 cabd 0bf9 113f 9a6e 79bf 2a0c 2dbe
000001d0: 1457 93bf c358 933d a7ee 373f 2266 de3d
000001e0: 3ed2 203e 90b7 5abe ad70 933f 1eab 93bf
000001f0: dc77 1f3d aaa9 8b3f 4b28 cabe 0a7e 4cbf
00000200: 0f7e 3a3f 5c5a 533f 37d4 903f 524a 0f3f
00000210: 956f 223f d7a1 533f 7544 5f3f aaa1 87bf
00000220: 4b47 3abf be8c 7a3f b5ac 95bf 08c8 153f
00000230: 2e9a 783f b0ba bd3e 3c9d 453f a95d 523f
00000240: 1170 cb3e f3ec c83e 2007 443f 1390 1ebf
00000250: 1154 70bf 4558 763f 76e7 1fbf fab6 923e
00000260: 10ff 183f f88d 56bf 62a6 35c0 db7c 7bbf
00000270: ea10 a93e 2230 543f 44c0 093f d562 623f
00000280: 708a 4ebf d547 9c3f a049 943f a122 3c3f
00000290: e6ed 503f 297a 96bf e92f 95bf a582 86bf
000002a0: dabc 11bf 6a9f 323f cf00 3e3f fed2 8f3f
000002b0: 03b6 51bf aaa4 24bf a970 48bf 66b3 6dbf
000002c0: 57d5 41bf 0b14 e33e a725 053f 36e7 0dbf
000002d0: e719 9d3f 48a4 3b3f 10de 88bf 2ecd 4640
000002e0: f6c7 46bf b706 cabe be49 85bf c3c3 723f
000002f0: f6b5 4e3f 819b 3ebf 266c 8f3f 0059 89bf

bias f4 [3]
-0.007377835 0.014920384 0.053588465
00000000: c4c1 f1bb a074 743c 947f 5b3d

weight f4 [64, 2]
-0.7793948 -4.6845245 -0.14318947 6.1741962 -0.35736683 5.0502877 1.4232043 -2.6584446
-0.8288464 3.4227877 0.10882216 6.405639 -0.3042524 -5.320525 0.49016428 5.217796
-0.00649605 5.968032 0.8145437 2.4376616 -0.99164075 -4.9944434 0.50162446 -6.7322717
1.4515035 -4.614271 0.22003603 -6.976033 -0.10654056 6.3845763 4.4981227 6.0821533
-0.7586402 -5.8718166 -2.55289 -5.8979497 -1.2276366 -4.761331 -0.86513275 5.4239464
0.12347718 5.2682867 -0.46130377 -5.0763264 -0.9434681 -4.8684154 3.5119345 5.5044537
0.7345983 -6.045625 -0.032657202 -6.0157204 -1.2138857 3.180423 0.5998153 -3.6165602
0.916273 -5.740919 1.3158858 -4.7889004 1.4180995 -2.809379 0.8745021 7.2061353
0.1481937 -6.50292 -0.029268311 -5.4685736 1.4730027 0.74511564 1.2100377 5.690206
3.1558022 5.665432 1.3996681 -1.9588007 -1.7168041 -4.8404064 3.0532346 5.9433465
1.0201079 -6.808882 -1.4308758 0.07387453 -0.42976332 7.079274 -2.2238746 -5.7479243
-1.9412525 -5.4296656 -0.1310692 6.124256 -1.0830259 -4.9522657 -0.76347405 -5.1217003
-1.086334 3.8882473 -0.17729862 6.5248528 2.6138697 5.2016993 3.4285245 4.9403014
-0.09966958 6.5148187 -0.15051277 4.295493 0.54290956 6.448246 -2.249112 -5.5049586
-2.9382973 -5.166399 -1.4826803 3.6423316 -1.0917561 -0.15418796 -1.1641446 -3.3876967
0.13893813 6.060458 -0.15517348 -5.9380164 -2.6708412 -4.715945 0.723621 -5.5597634
00000000: 6b86 47bf a0e7 95c0 43a0 12be 0493 c540
00000010: c9f8 b6be f59b a140 8f2b b63f f523 2ac0
00000020: 472f 54bf f40e 5b40 27de de3d fffa cc40
00000030: f8c6 9bbe be41 aac0 d0f6 fa3e 2ff8 a640
00000040: d1dc d4bb 1efa be40 f085 503f a602 1c40
00000050: 2bdc 7dbf 7bd2 9fc0 766a 003f c56e d7c0
00000060: deca b93f 1ca8 93c0 2051 613e aa3b dfc0
00000070: f031 dabd 734e cc40 9ff0 8f40 00a1 c240
00000080: 3f36 42bf ece5 bbc0 8d62 23c0 01bc bcc0
00000090: 3223 9dbf d35c 98c0 5779 5dbf f890 ad40
000000a0: 9be1 fc3d ce95 a840 0230 ecbe 4471 a2c0
000000b0: 2087 71bf 0fca 9bc0 89c3 6040 7c24 b040
000000c0: a20e 3c3f c375 c1c0 8fc3 05bd c880 c0c0
000000d0: 9b60 9bbf 0d8c 4b40 7f8d 193f b975 67c0
000000e0: de90 6a3f 9cb5 b7c0 f26e a83f ac3e 99c0
000000f0: 4984 b53f decc 33c0 5fdf 5f3f a998 e640
00000100: 17c0 173e ec17 d0c0 19c4 efbc 8efe aec0
00000110: 5a8b bc3f e6bf 3e3f 84e2 9a3f 2b16 b640
00000120: aaf8 4940 384b b540 5328 b33f fbb9 fabf
00000130: 3dc0 dbbf 9ce4 9ac0 3268 4340 e52f be40
00000140: e592 823f 5de2 d9c0 f026 b7bf 884b 973d
00000150: f009 dcbe 6a89 e240 f653 0ec0 ffee b7c0
00000160: f67a f8bf d2bf adc0 0137 06be e8f9 c340
00000170: 98a0 8abf f678 9ec0 0973 43bf f8e4 a3c0
00000180: fe0c 8bbf 0bd9 7840 c58d 35be 98cb d040
00000190: a449 2740 5274 a640 f26c 5b40 f316 9e40
000001a0: 911f ccbd 6579 d040 0520 1abe ae74 8940
000001b0: 1ffc 0a3f 0858 ce40 73f1 0fc0 9f28 b0c0
000001c0: 100d 3cc0 2453 a5c0 78c8 bdbf f61b 6940
000001d0: aabe 8bbf 73e3 1dbe b102 95bf 06d0 58c0
000001e0: cc45 0e3e 46ef c140 cce5 1ebe 3b04 bec0
000001f0: 10ef 2ac0 05e9 96c0 3a3f 393f 95e9 b1c0

bias f4 [64]
0.29573533 0.070958644 -0.104723066 0.8796379 -0.52824116 0.026935201 -0.03684527 -0.14684874
0.06776901 1.0330367 -0.86295176 0.2458465 0.87069196 0.040026534 0.08533125 0.9210567
0.26515234 0.50719327 -1.0232049 -0.36958697 0.08786712 -0.01668487 0.32651517 -0.63908875
0.43773988 -0.08374802 -0.59165275 0.9226322 0.5835191 0.73135555 0.79889417 0.8132189
0.053978525 -0.120512806 0.96922433 -0.46030337 -0.28126854 0.8537162 0.4306787 -0.5619909
0.6467687 -0.9067047 -0.16523333 0.46878162 0.4410091 0.09077701 0.39652976 0.24905889
-0.5081746 0.022340555 -0.4535161 -0.6647069 0.11937697 0.75127816 0.6623329 0.46837336
0.25880036 -0.92862606 -0.8082347 -1.0327771 0.08213721 -0.21630897 0.39768684 0.6616991
00000000: 9f6a 973e c452 913d 0c79 d6bd f32f 613f
00000010: d03a 07bf 36a7 dc3c 11eb 16bd 845f 16be
00000020: 7bca 8a3d 8c3a 843f 68ea 5cbf 2fbf 7b3e
00000030: abe5 5e3f ddf2 233d 27c2 ae3d 5fca 6b3f
00000040: 0cc2 873e 6bd7 013f 61f8 82bf 813a bdbe
00000050: adf3 b33d b5ae 88bc ff2c a73e 529b 23bf
00000060: 711f e03e 1584 abbd 8e76 17bf a031 6c3f
00000070: 8261 153f 1e3a 3b3f 5484 4c3f 1d2f 503f
00000080: 9618 5d3d 6bcf f6bd 161f 783f e2ac ebbe
00000090: 6e02 90be 258d 5a3f eb81 dc3e a3de 0fbf
000000a0: a292 253f cd1d 68bf ed32 29be 2504 f03e
000000b0: f2cb e13e 4ce9 b93d f305 cb3e 4b09 7f3e
000000c0: bb17 02bf 8a03 b73c 4333 e8be 3b2a 2abf
000000d0: ea7b f43d c453 403f a68e 293f a2ce ef3e
000000e0: 7b81 843e 70ba 6dbf 78e8 4ebf 0a32 84bf
000000f0: 8e37 a83d 1980 5dbe 9c9d cb3e 1d65 293f

weight f4 [64, 64]
0.19782773 -0.0808065 -0.7127896 -0.45199856 0.21593742 0.015941191 0.2630349 -0.007916152
-0.5845573 -0.8106631 0.57684815 -0.091150984 -0.5687699 0.033085573 -0.068193264 -0.11360297
0.091931224 0.26804578 0.36700934 -0.43968245 -0.44886383 0.26009026 0.21296543 -0.25495413
-0.20665935 0.5305686 -0.5650579 -0.9510869 -0.3878458 -0.19599487 0.002508548 -0.48727235
0.16334347 0.6315615 -0.6977477 0.033960495 -0.2712379 -0.46722248 0.28087726 -0.383242
-0.34678388 0.6059658 -0.010994682 0.39578155 0.22257057 -0.16605046 0.15348065 0.2590925
-0.34295988 -0.14011016 -0.30040756 -0.30494547 -0.8155451 -0.42462978 -0.5243899 0.3317553
0.3256638 0.5816045 0.9535827 0.5956562 -0.30635998 0.92778426 0.33758 -0.54621094
-0.74188787 2.236596 2.1127992 -1.7518332 1.9441298 3.1080217 -2.9926918 1.2656386
2.0383878 -0.7305459 0.2982643 -1.9754257 -1.8573246 -2.4659293 2.3613253 0.7538614
-0.99344355 -0.8077238 0.49640894 1.4785773 2.8256166 -1.2854694 -0.7011626 0.69009256
-1.7694863 -2.5809028 1.3138624 -1.1667376 -1.9332917 -1.6168915 -1.7030411 0.25266385
-2.3196023 -2.5570214 -1.8091277 0.84766865 0.6085879 -1.9239388 -0.6545648 0.7942117
-1.891567 1.7534996 2.231244 -0.793288 -0.79705316 2.1516066 -0.7751899 -0.86412734
1.3744329 2.2438416 0.6177348 0.7164692 1.0029932 -0.30019128 0.25887972 -0.8054964
-0.7115312 1.9935727 1.4292794 0.65998226 2.5229042 -1.371134 -0.5533732 -3.4428816
0.36553085 -5.527698 -2.4850307 0.42927516 -1.6199057 -2.0337856 1.5067677 -0.7901477
-2.7054253 -0.052209012 1.7154912 3.600717 1.2006996 6.5555134 -5.9696765 0.082016684
0.44498807 0.17223607 1.6728628 -1.2111496 -2.5997355 0.94163847 0.26233974 0.2532498
2.4397345 3.1413684 -0.12191527 0.58937144 1.8251656 1.366133 0.22073828 -2.6101089
2.1853516 4.113072 -0.6375437 -0.2117791 0.261656 0.073308356 0.23769723 -0.070742436
2.0698996 0.46926644 -5.025072 0.11902965 0.08709684 -4.9554224 0.19448277 0.43118912
-0.36977416 -7.471308 -0.0899805 0.19035397 -3.919905 -0.5448043 -2.2776232 0.17921603
0.054667372 -0.82525665 -0.12734266 0.62042356 -2.2795122 3.568069 0.12600899 0.8987089
0.4644003 -1.4057548 -1.8572806 2.4533243 -2.4120905 -0.7051245 0.900282 -0.40626878
-0.7313264 1.4094981 -1.728594 1.6084002 2.1999328 1.7492446 -1.2519149 -0.57001287
0.47341552 0.6205901 -2.3085861 -1.444623 -0.5843296 0.14799032 0.43251356 -0.60829157
1.8872597 0.8707474 -1.5736982 1.617646 2.0456467 2.1126573 2.1228335 1.1207355
1.3003238 0.6938024 2.485039 -0.4542792 -0.6481226 2.4506607 0.52355903 -0.67837125
1.8714515 -2.5056486 -1.7347013 0.568622 0.46817905 -1.216946 0.57423174 0.4902695
-1.5008143 -1.3548644 -0.42840824 -0.56630784 -0.36957082 0.35119858 0.80954707 0.5570331
0.43194658 -2.2543108 -3.6991384 -2.0838323 -0.50783616 -0.048850857 0.39404967 3.7711265
00000000: 5a93 4a3e e17d a5bd 6179 36bf 5b6c e7be
00000010: b31e 5d3e 1a97 823c 83ac 863e bfb2 01bc
00000020: 8ca5 15bf 9e87 4fbf 52ac 133f 5ead babd
00000030: e79a 11bf bd84 073d e9a8 8bbd ada8 e8bd
00000040: 7046 bc3d 4c3d 893e a6e8 bb3e 0f1e e1be
00000050: 7bd1 e5be 8d2a 853e 9c13 5a3e 5989 82be
00000060: 829e 53be 58d3 073f a2a7 10bf 6e7a 73bf
00000070: ba93 c6be e1b2 48be 7466 243b c37b f9be
00000080: 8343 273e 04ae 213f 989f 32bf 291a 0b3d
00000090: b2df 8abe c937 efbe 25cf 8f3e 4c38 c4be
000000a0: a88d b1be 9320 1b3f 0a23 34bc e1a3 ca3e
000000b0: 8ae9 633e 2209 2abe 082a 1d3e c6a7 843e
000000c0: 7098 afbe 0a79 0fbe 05cf 99be d021 9cbe
000000d0: 90c7 50bf 1369 d9be 6b3e 06bf d5db a93e
000000e0: 68bd a63e 08e4 143f ff1d 743f ed7c 183f
000000f0: 37db 9cbe 4583 6d3f 49d7 ac3e 7bd4 0bbf
00000100: 5dec 3dbf 6424 0f40 1a38 0740 123c e0bf
00000110: 3fd9 f83f d4e9 4640 4388 3fc0 7200 a23f
00000120: f274 0240 0e05 3bbf 19b6 983e c0da fcbf
00000130: d0bc edbf c9d1 1dc0 f41f 1740 10fd 403f
00000140: 5152 7ebf fdc6 4ebf 5029 fe3e 0542 bd3f
00000150: e7d6 3440 438a a4bf 647f 33bf e8a9 303f
00000160: 877e e2bf 832d 25c0 a52c a83f a857 95bf
00000170: 1a76 f7bf 4df6 cebf 40fd d9bf 285d 813e
00000180: 5d74 14c0 3da6 23c0 7f91 e7bf d000 593f
00000190: 6bcc 1b3f a043 f6bf 8f91 27bf 7551 4b3f
000001a0: de1e f2bf ad72 e03f b4cc 0e40 ec14 4bbf
000001b0: ad0b 4cbf ecb3 0940 d872 46bf 7337 5dbf
000001c0: 6bed af3f 1a9b 0f40 de23 1e3f 876a 373f
000001d0: 1562 803f acb2 99be e28b 843e 0335 4ebf
000001e0: e926 36bf 642d ff3f a1f2 b63f 99f4 283f
000001f0: 4377 2140 5281 afbf dea9 0dbf 2c58 5cc0
00000200: dc26 bb3e e7e2 b0c0 be0a 1fc0 f4c9 db3e
00000210: 1259 cfbf 8b29 02c0 c4dd c03f 1f47 4abf
00000220: b025 2dc0 1ed9 55bd 3795 db3f 2672 6640
00000230: 86b0 993f c4c6 d140 9707 bfc0 5df8 a73d
00000240: 7ad5 e33e a75e 303e 5e20 d63f f306 9bbf
00000250: 1162 26c0 380f 713f 6551 863e f5a9 813e
00000260: 9c24 1c40 2e0c 4940 b7ae f9bd 0ce1 163f
00000270: 079f e93f 72dd ae3f 3709 623e 060c 27c0
00000280: cddc 0b40 499e 8340 1036 23bf 9fdc 58be
00000290: c6f7 853e b122 963d e766 733e 69e1 90bd
000002a0: 3c79 0440 b143 f03e 64cd a0c0 d1c5 f33d
000002b0: d45f b23d d292 9ec0 7e26 473e d2c4 dc3e
000002c0: 0a53 bdbe f514 efc0 b247 b8bd 27ec 423e
000002d0: b9df 7ac0 4b78 0bbf 94c4 11c0 6884 373e
000002e0: e5ea 5f3d 0544 53bf 1d66 02be 14d4 1e3f
000002f0: 87e3 11c0 3e5b 6440 8008 013e c911 663f
00000300: e0c5 ed3e c6ef b3bf 5fbb edbf 4403 1d40
00000310: b15f 1ac0 0a83 34bf e278 663f 7602 d0be
00000320: 3538 3bbf 6f6a b43f 9142 ddbf 0fe0 cd3f
00000330: b3cb 0c40 3fe7 df3f bf3e a0bf 5dec 11bf
00000340: 8563 f23e fede 1e3f e0bf 13c0 68e9 b8bf
00000350: a096 15bf c68a 173e 6b72 dd3e ffb8 1bbf
00000360: ba91 f13f 4de9 5e3f f16e c9bf 060f cf3f
00000370: e0eb 0240 c735 0740 81dc 0740 4374 8f3f
00000380: 0371 a63f 099d 313f e10a 1f40 4997 e8be
00000390: 5deb 25bf a0d7 1c40 f707 063f bda9 2dbf
000003a0: b98b ef3f 8c5c 20c0 b10a debf 3691 113f
000003b0: 2ab5 ef3e e3c4 9bbf da00 133f 9b04 fb3e
000003c0: af1a c0bf 326c adbf 5358 dbbe 8df9 10bf
000003d0: 6338 bdbe 4dd0 b33e 7a3e 4f3f b999 0e3f
000003e0: 1a28 dd3e a146 10c0 afbe 6cc0 825d 05c0
000003f0: 8d01 02bf d617 48bd e1c0 c93e 235a 7140

bias f4 [64]
-0.096560314 -0.50492615 -0.15580103 0.47720218 -0.35846177 0.5813779 0.24302003 0.23639764
0.7605449 0.6984378 -0.52632445 0.18657903 0.045442246 -0.31457883 1.4485617 0.46522686
0.5532131 0.73929703 -0.12073536 0.19402331 0.739777 -0.7655604 -0.305509 0.450615
0.3141966 0.3324824 -0.37556282 -0.24874316 0.4878491 -0.25821066 -0.44173497 -0.58639926
-0.26627484 0.21699797 -0.71122706 0.53636366 -0.8123996 0.47685394 0.7374056 0.2336062
-0.12587222 0.13562527 -0.17628257 0.37597516 -0.0798325 0.76848197 0.47317094 -0.62546015
0.5724601 -0.6086914 -0.25199443 0.61168987 0.5226964 -0.9002893 0.2962514 -0.47160792
-0.30002677 -0.34231597 -0.51395506 -0.20615482 0.6906885 -0.9007079 0.025874887 -0.4430716
00000000: 6ac1 c5bd d742 01bf 4e8a 1fbe d853 f43e
00000010: 4d88 b7be 2fd5 143f 3eda 783e 3912 723e
00000020: 12b3 423f d2cc 323f 33bd 06bf 930e 3f3e
00000030: a621 3a3d 7a10 a1be 786a b93f 3732 ee3e
00000040: 609f 0d3f 9242 3d3f 1a44 f7bd 0cae 463e
00000050: 0762 3d3f c4fb 43bf ad6b 9cbe 02b7 e63e
00000060: 60de a03e 223b aa3e c549 c0be 87b6 7ebe
00000070: 5bc7 f93e 3034 84be 162b e2be 431e 16bf
00000080: 2d55 88be b734 5e3e fa12 36bf 214f 093f
00000090: 6cf9 4fbf 3326 f43e 9dc6 3c3f 7736 6f3e
000000a0: a6e4 00be 5ae1 0a3e 6b83 34be d17f c03e
000000b0: 397f a3bd 3cbb 443f 7643 f23e 281e 20bf
000000c0: bf8c 123f 33d3 1bbf 6a05 81be b597 1c3f
000000d0: 6ecf 053f 5c79 66bf 43ae 973e 9876 f1be
000000e0: 1c9d 99be 0a44 afbe 8f92 03bf 401a 53be
000000f0: f6d0 303f cb94 66bf 92f7 d33c 48da e2be

weight f4 [1, 64]
-2.8763995 1.5339714 2.0990548 -1.431991 -1.7690136 -1.421045 -1.6902579 -1.201462
-1.4423093 -1.5396848 1.4707998 -1.1722316 -1.2939954 5.147273 -2.1003337 1.2016169
-1.7197468 -1.8114446 1.9613429 -1.7339265 2.00292 -1.899492 -4.1254697 -1.3911144
-1.60851 -5.049467 0.87756824 1.4825145 2.0374796 0.984901 0.75319576 1.73127
5.268656 0.92773163 -1.8831102 -1.4018999 -1.0876764 -1.604871 1.9682646 -1.2766883
1.736653 -1.0662801 -1.5873377 -1.5623418 1.2187046 -1.5436009 -1.7206988 1.5574899
-1.5242058 1.7021056 1.0060333 -1.664927 0.7799953 -1.3930557 -4.343706 -1.5790868
1.3662735 0.84929043 1.6912668 -0.8834032 -1.5032532 -1.7065957 -1.8345188 1.7156565
00000000: ee16 38c0 2d59 c43f ea56 0640 7b4b b7bf
00000010: 0a6f e2bf cde4 b5bf 5f5a d8bf 82c9 99bf
00000020: 979d b8bf 6414 c5bf 2b43 bc3f af0b 96bf
00000030: a4a1 a5bf 76b6 a440 de6b 06c0 95ce 993f
00000040: aa20 dcbf 6bdd e7bf 490d fb3f 4ef1 ddbf
00000050: d72f 0040 8e22 f3bf d903 84c0 0910 b2bf
00000060: a8e3 cdbf 3c95 a1c0 50a8 603f 09c3 bd3f
00000070: 1166 0240 7922 7c3f 70d1 403f 419a dd3f
00000080: d498 a840 d27f 6d3f c109 f1bf 7571 b3bf
00000090: fb38 8bbf 6a6c cdbf 18f0 fb3f 866a a3bf
000000a0: a54a de3f de7b 88bf e22d cbbf d1fa c7bf
000000b0: 83fe 9b3f b794 c5bf dc3f dcbf d45b c73f
000000c0: 2d19 c3bf 99de d93f b3c5 803f 541c d5bf
000000d0: c6ad 473f a64f b2bf a4ff 8ac0 841f cabf
000000e0: 0de2 ae3f 196b 593f 6e7b d83f b626 62bf
000000f0: 9a6a c0bf ba71 dabf 83d1 eabf a29a db3f

weight f4 [64, 2]
0.31348184 4.4818254 0.0424685 -4.4274096 0.23783441 -5.212312 -1.0268266 -4.660008
0.7633196 -3.8433383 -0.694479 -1.40441 0.10760281 4.397721 0.13248146 -5.146144
-2.2500627 -4.0697026 -0.65000075 -3.6311624 -0.425395 5.47949 0.47787747 3.9660077
-0.55250806 -3.9985385 0.34155372 4.0537944 0.6677273 -2.7431486 -1.0237517 4.1438637
0.008049178 -2.6764908 -3.5497446 -4.7063975 0.40080073 4.1260443 1.2717166 2.8350484
-0.3617328 4.494053 0.3401953 -4.565862 0.54702705 -3.3932712 -0.104248375 4.2132626
2.3780377 4.496282 -0.5874989 1.3835663 -0.11654185 4.2545104 -0.46287704 3.3561327
0.08694394 -3.0540833 -0.76590633 -2.552678 -2.2138987 -2.6996188 0.4976091 4.855158
0.14817113 4.996212 3.8187137 3.9355872 -0.12202856 4.539218 -2.5086398 -3.8553054
0.39109313 -4.3315167 -0.4126612 4.1461196 -0.6122231 1.783163 1.0998089 4.1768174
-0.6918228 -3.4260006 -0.5781711 4.332131 0.0868228 4.254157 -0.38480002 -4.785483
0.9765509 4.093075 -0.45601287 -0.3727535 0.68663365 -4.0148373 0.49598017 -2.8378482
1.0224135 -0.69136107 0.10456539 4.795618 -1.0628994 5.187751 -0.37547052 2.811796
-0.1069341 -3.6666496 -1.2787613 -3.4667566 -0.72436947 4.172279 -1.4738363 -3.1010063
-0.36954468 -0.5286753 -0.8587309 -0.030383771 -0.375117 4.195561 -0.50185907 -3.355973
0.81806445 2.5975642 0.46808526 -4.49334 -0.7587676 -2.7786984 3.068274 4.0366673
00000000: b180 a03e 1d6b 8f40 73f3 2d3d 57ad 8dc0
00000010: dd8a 733e 43cb a6c0 0e6f 83bf c91e 95c0
00000020: ea68 433f 41f9 75c0 60c9 31bf b5c3 b3bf
00000030: dd5e dc3d 21ba 8c40 38a9 073e 36ad a4c0
00000040: 0701 10c0 013b 82c0 7366 26bf f764 68c0
00000050: 60cd d9be fb57 af40 5bac f43e 12d3 7d40
00000060: 2b71 0dbf 0ee8 7fc0 21e0 ae3e afb8 8140
00000070: 2df0 2a3f bf8f 2fc0 4c0a 83bf 889a 8440
00000080: b3e0 033c a04b 2bc0 042f 63c0 cf9a 96c0
00000090: c135 cd3e 8e08 8440 9cc7 a23f 6f71 3540
000000a0: 0b35 b9be 48cf 8f40 142e ae3e 8b1b 92c0
000000b0: f709 0c3f 5b2b 59c0 2c80 d5bd 0cd3 8640
000000c0: c531 1840 8be1 8f40 5466 16bf b318 b13f
000000d0: 7ead eebd f324 8840 38fe ecbe e1ca 5640
000000e0: aa0f b23d 1a76 43c0 7012 44bf 145f 23c0
000000f0: 84b0 0dc0 8ec6 2cc0 9fc6 fe3e 745d 9b40
00000100: 2cba 173e f8e0 9f40 ce65 7440 a9e0 7b40
00000110: 1cea f9bd 4641 9140 8e8d 20c0 53bd 76c0
00000120: 5c3d c83e c99b 8ac0 5448 d3be 03ad 8440
00000130: a7ba 1cbf af3e e43f 8ac6 8c3f 7da8 8540
00000140: 4d1b 31bf 9843 5bc0 0503 14bf d1a0 8a40
00000150: 27d0 b13d 0e22 8840 8204 c5be ad22 99c0
00000160: 3dff 793f 78fa 8240 857a e9be 8cd9 bebe
00000170: 39c7 2f3f 8c79 80c0 1df1 fd3e 4e9f 35c0
00000180: 72de 823f 0afd 30bf 6126 d63d b475 9940
00000190: 160d 88bf 0e02 a640 ac3d c0be 77f4 3340
000001a0: 4400 dbbd 63aa 6ac0 73ae a3bf 57df 5dc0
000001b0: 4770 39bf 4f83 8540 aba6 bcbf e376 46c0
000001c0: f634 bdbe 4457 07bf cad5 5bbf 63e7 f8bc
000001d0: 560f c0be 0942 8640 d679 00bf 43c8 56c0
000001e0: ac6c 513f 7e3e 2640 dfa8 ef3e 71c9 8fc0
000001f0: 983e 42bf 32d6 31c0 9a5e 4440 612c 8140

bias f4 [64]
0.19272417 0.03526591 0.17725489 0.22586365 0.5237436 0.30340627 0.057970576 0.34095728
0.38275382 -0.5765 -0.27682358 0.2642224 -0.38870016 -0.21571298 0.5835983 -0.60437614
-0.5182193 0.5196104 0.14649051 -0.024703637 -0.15034077 0.2644491 0.4628078 -0.02000129
-0.30891618 -0.4165059 0.0040405076 -0.32709312 -0.10693975 -0.5584583 0.44860473 -0.1379885
0.14312698 -0.5205848 -0.10770617 0.38323686 0.28019387 -0.20251857 -0.4147997 -0.081355065
0.5139158 -0.3352785 0.124251865 -0.2584059 -0.2802798 0.63046914 0.458055 0.36718604
0.76913995 0.044302944 -0.7133104 -0.13879608 0.15109625 0.50502986 -0.4739792 0.3861009
0.15783338 -0.63717914 -0.20078117 -0.36798882 0.64002633 0.27728102 -0.15183392 -0.40611887
00000000: 7c59 453e fd72 103d 4e82 353e cd48 673e
00000010: 1014 063f 1158 9b3e 8e72 6d3d f491 ae3e
00000020: 4ff8 c33e 8195 13bf d2bb 8dbe 2948 873e
00000030: b503 c7be dde3 5cbe b366 153f 65b8 1abf
00000040: 05aa 04bf 3005 053f 9c01 163e 485f cabc
00000050: eef2 19be df65 873e 25f5 ec3e bfd9 a3bc
00000060: 432a 9ebe 4340 d5be 3c66 843b c078 a7be
00000070: 3a03 dbbd 20f7 0ebf 85af e53e db4c 0dbe
00000080: e18f 123e 0c45 05bf 0d95 dcbd 9f37 c43e
00000090: 9275 8f3e 0761 4fbe a060 d4be 7c9d a6bd
000000a0: fc8f 033f a0a9 abbe c377 fe3d c74d 84be
000000b0: d580 8fbe 6d66 213f 2f86 ea3e cfff bb3e
000000c0: 5be6 443f 0177 353d 839b 36bf 8f20 0ebe
000000d0: fab8 1a3e a349 013f 67ad f2be 04af c53e
000000e0: 139f 213e 2c1e 23bf 9499 4dbe 0869 bcbe
000000f0: c4d8 233f c7f7 8d3e 5a7a 1bbe d0ee cfbe

weight f4 [64, 64]
-0.46625087 0.8603447 0.43694934 -0.031429585 0.98360866 -9.952471e-05 -0.54457456 0.06672097
-0.063449755 -0.06439286 -0.7636939 -0.26147643 0.12141588 -0.0154281715 0.33591655 -0.8791411
0.13162224 -0.024293603 -0.23858526 -0.10425217 -0.43223277 0.35018343 0.2815294 -0.49731407
-0.11698952 -0.7498518 -0.5888265 -0.28122145 0.07637923 -0.13621287 0.0584839 -0.17249721
-0.5114883 -0.12368893 -0.60244215 -0.011534558 1.2263277 -0.50084984 -0.24619645 0.03441597
0.13157752 -0.80453146 -0.28205466 0.35475367 -0.12262265 0.017370591 0.4385425 0.5744097
0.1906377 -0.7302307 -1.0651149 -0.49332407 0.19086672 -0.095149964 -0.71928847 0.08767352
0.025566554 -0.16817757 -0.587737 -0.08690592 0.23927093 0.4885385 0.07809367 -0.032348022
-2.0351543 1.8968867 0.16591537 0.005474416 0.2267089 -0.11286463 -0.60042804 0.0691338
0.080115415 2.0907257 -0.7221642 -0.45017537 1.4130564 -0.113210246 -0.11664416 0.0280632
0.03952941 -0.0675276 -0.42890432 -0.11995641 -0.61909986 -0.021871904 0.1416781 -0.82191527
-0.12566894 0.18505485 -0.29599285 -0.10278102 0.24935488 1.3583077 0.026849438 0.03565047
-1.8321692 -0.07604323 -0.20781057 0.021148741 0.30418858 -0.17602994 0.0034501862 0.040236536
-0.09992842 -0.38681328 -1.2674323 1.3704234 0.113385886 -0.04262053 0.022800758 0.0012570146
-0.24881698 -1.1568606 -0.25482118 0.14629176 0.08581792 -0.078170784 0.023420064 0.010141392
-0.03414563 0.23035976 -0.45107162 1.2248331 -0.8773746 0.19922343 0.13564101 -0.018826103
-1.0327842 0.90274477 0.15747556 -0.05680535 -0.48621485 -0.11899851 -0.64648366 -0.09129032
0.11224119 1.5885959 0.052935928 -0.40991896 1.4873043 0.07693907 -0.20470731 0.8473124
0.14238177 -0.002050927 -0.28302306 -0.08578187 0.06875085 0.060208406 0.13620238 -0.29121006
-0.046782665 0.4042995 0.056269743 -0.25916627 0.15576182 0.8365223 0.056375254 0.114127584
-1.0638088 0.1404211 0.33616987 -0.08695478 0.115475096 0.18124674 -0.01643031 -0.1496777
-0.074924625 0.19075389 -0.5966534 1.1779038 0.12002147 -0.115051374 0.24498738 0.0483421
-0.78467023 -0.8910069 0.49839845 0.3457383 -0.033005457 -0.15410255 0.32493994 0.08996405
0.12557232 0.24625525 -0.051720463 1.5233022 -0.63958085 0.4138769 0.25882015 0.040844306
0.7837345 -1.9044167 -0.11861004 0.012887537 -0.46282357 0.124422796 0.6660875 -0.05283137
0.062673114 -0.25259823 0.37938884 0.322212 -0.33773267 0.09357196 -0.01811757 0.6658939
-0.1598124 -0.091585055 0.56554466 -0.26113778 1.0852727 0.0001790923 0.076409504 1.3953751
0.08169026 0.26062518 1.1152853 0.13542418 -0.8146599 0.12927109 -0.05460789 0.012307921
0.99673516 0.02869181 1.8726878 -0.041354153 -0.33742434 1.7074996 -0.042118974 -0.12855849
0.13649721 0.39599717 0.95558906 -0.524821 0.017171608 0.032900512 0.038367305 -0.21525884
-0.16378519 1.9481525 0.47206455 1.2949508 -0.09830044 -0.030708155 1.5957336 -0.08504313
0.056152858 0.05960554 0.21388447 -0.09723587 -0.14450975 -0.111445196 0.044265434 0.09061611
00000000: 6fb8 eebe 8d3f 5c3f d3b7 df3e 4fbc 00bd
00000010: c7cd 7b3f ecb7 d0b8 3d69 0bbf 01a5 883d
00000020: f2f1 81bd 67e0 83bd 7281 43bf 3de0 85be
00000030: e4a8 f83d 71c6 7cbc 41fd ab3e 640f 61bf
00000040: fbc7 063e 6103 c7bc b24f 74be 2982 d5bd
00000050: 9d4d ddbe 3e4b b33e 9f24 903e f39f febe
00000060: 3498 efbd 4af6 3fbf 55bd 16bf 42fc 8fbe
00000070: b76c 9c3d 637b 0bbe d08c 6f3d 1ca3 30be
00000080: e6f0 02bf 9f50 fdbd a639 1abf 71fb 3cbc
00000090: 4ef8 9c3f b237 00bf ec1a 7cbe c3f7 0c3d
000000a0: 42bc 063e c6f5 4dbf 7869 90be 46a2 b53e
000000b0: 9521 fbbd c54c 8e3c a488 e03e 840c 133f
000000c0: 8736 433e 66f0 3abf af55 88bf f994 fcbe
000000d0: 9172 433e fcdd c2bd 4a23 38bf 2d8e b33d
000000e0: f370 d13c be36 2cbe ef75 16bf bbfb b1bd
000000f0: 7003 753e b821 fa3e 93ef 9f3d 5c7f 04bd
00000100: f83f 02c0 2fcd f23f b8e5 293e bb62 b33b
00000110: 6126 683e 9225 e7bd a7b5 19bf 0696 8d3d
00000120: 8d13 a43d 73ce 0540 c1df 38bf 637d e6be
00000130: 08df b43f c6da e7bd 22e3 eebd cce4 e53c
00000140: 97e9 213d e94b 8abd 5999 dbbe b5ab f5bd
00000150: 547d 1ebf b52c b3bc 1014 113e 0a69 52bf
00000160: 5caf 00be 057f 3d3e 608c 97be db7e d2bd
00000170: e356 7f3e 07dd ad3f 5af3 db3c 3a06 123d
00000180: 8584 eabf 8ebc 9bbd 4bcc 54be 2040 ad3c
00000190: 9bbe 9b3e 3141 34be 851c 623b 11cf 243d
000001a0: 45a7 ccbd 640c c6be 393b a2bf 096a af3f
000001b0: dc36 e83d dd92 2ebd a8c8 ba3c 69c2 a43a
000001c0: e1c9 7ebe 0214 94bf ec77 82be 82cd 153e
000001d0: 4ec1 af3d 0118 a0bd 6fdb bf3c 1528 263c
000001e0: 4adc 0bbd 6ee3 6b3e dcf2 e6be 55c7 9c3f
000001f0: 9f9b 60bf 3a01 4c3e 7ae5 0a3e 3339 9abc
00000200: 4632 84bf 481a 673f 4641 213e baac 68bd
00000210: 27f1 f8be 7eb5 f3bd f47f 25bf 6bf6 babd
00000220: b6de e53d 1c57 cb3f 58d3 583d e6e0 d1be
00000230: fd5f be3f 3b92 9d3d cb9e 51be 77e9 583f
00000240: 87cc 113e d868 06bb 66e8 90be 68ae afbd
00000250: 3fcd 8c3d 179d 763d a378 0b3e 7c19 95be
00000260: 2e9f 3fbd 5800 cf3e 1a7b 663d 71b1 84be
00000270: 0780 1f3e 5326 563f bde9 663d b9bb e93d
00000280: e32a 88bf 8dca 0f3e 751e ac3e 5915 b2bd
00000290: 357e ec3d bf98 393e dc98 86bc 1c45 19be
000002a0: 1572 99bd fd54 433e 47be 18bf 8dc5 963f
000002b0: d1cd f53d 0ea0 ebbd f9dd 7a3e 5e02 463d
000002c0: 26e0 48bf 0719 64bf 152e ff3e 9c04 b13e
000002d0: bb30 07bd 0fcd 1dbe 875e a63e 123f b83d
000002e0: 0896 003e 562a 7c3e d6d8 53bd 91fb c23f
000002f0: 92bb 23bf ace7 d33e 1384 843e 5c4c 273d
00000300: d3a2 483f edc3 f3bf d2e9 f2bd 3f26 533c
00000310: 36f7 ecbe 61d1 fe3d b684 2a3f b565 58bd
00000320: c35a 803d 8e54 81be 413f c23e f9f8 a43e
00000330: 4ceb acbe a8a2 bf3d 4c6b 94bc 0678 2a3f
00000340: dda5 23be f290 bbbd 89c7 103f dab3 85be
00000350: 37ea 8a3f b9ca 3b39 967c 9c3d a79b b23f
00000360: 394d a73d aa70 853e abc1 8e3f a3ac 0a3e
00000370: 8d8d 50bf a45f 043e 86ac 5fbd 2aa7 493c
00000380: 092a 7f3f 160b eb3c 3cb4 ef3f f962 29bd
00000390: e2c2 acbe 598f da3f f284 2cbd d6a4 03be
000003a0: edc5 0b3e 24c0 ca3e 7ca1 743f ab5a 06bf
000003b0: 79ab 8c3c b0c2 063d 0927 1d3d d06c 5cbe
000003c0: 4eb7 27be 105d f93f 72b2 f13e f3c0 a53f
000003d0: be51 c9bd ab8f fbbc 0041 cc3f 182b aebd
000003e0: 8a00 663d f024 743d 8804 5b3e 9a23 c7bd
000003f0: 5dfa 13be 613d e4bd ac4f 353d f094 b93d

bias f4 [64]
0.009499342 -0.09165228 -0.04895032 0.012098925 0.084093064 -0.011733638 0.041602667 -0.20323563
0.18211617 -0.05728687 -0.11942284 0.048431996 -0.05235682 0.059718877 -0.175965 0.03934568
-0.105121896 0.11634368 -0.0707887 -0.16203044 0.07472936 0.018815394 0.040436722 -0.13939713
0.035807095 0.11104628 -0.0005285361 0.060653154 -0.016302293 -0.09157235 -0.106961094 -0.0060027335
0.027453283 0.022181507 -0.0721676 0.107729934 0.0028821335 -0.038399566 -0.066556394 -0.20672458
0.09953581 -0.041063033 0.054018773 -0.025839856 0.025267186 -0.0094270725 -0.009497725 -0.11273149
-0.08802183 -0.055804048 -0.100313365 -0.029366443 0.04254968 -0.112372376 -0.11705008 -0.031592734
0.18776064 0.10288387 -0.07191883 -0.06910757 0.07825124 -0.04142048 0.07901773 -0.02004478
00000000: 21a3 1b3c 31b4 bbbd 2180 48bd 923a 463c
00000010: fc38 ac3d 723e 40bc 8f67 2a3d 001d 50be
00000020: a97c 3a3e a3a5 6abd f693 f4bd a160 463d
00000030: 1b74 56bd c89b 743d 2b30 34be f028 213d
00000040: 264a d7bd 9845 ee3d aaf9 90bd 4feb 25be
00000050: b50b 993d be22 9a3c faa0 253d 1fbe 0ebe
00000060: 76aa 123d 3b6c e33d 758d 0aba 716f 783d
00000070: 638c 85bc 498a bbbd 6b0e dbbd 94b2 c4bb
00000080: b5e5 e03c feb5 b53c 9bcc 93bd 83a1 dc3d
00000090: 2de2 3c3b dd48 1dbd b84e 88bd 9caf 53be
000000a0: 6ed9 cb3d b631 28bd ca42 5d3d 1bae d3bc
000000b0: 21fd ce3c 0274 1abc 599c 1bbc c4df e6bd
000000c0: ca44 b4bd c992 64bd 1871 cdbd e591 f0bc
000000d0: 9348 2e3d 7d23 e6bd f4b7 efbd 6267 01bd
000000e0: 5344 403e c7b4 d23d 2e4a 93bd 4588 8dbd
000000f0: 3042 a03d 85a8 29bd 0cd4 a13d f334 a4bc

weight f4 [1, 64]
-0.07813405 0.099757776 0.0918146 -0.033119563 -0.045654316 -0.044748317 -0.09519195 0.2079456
-0.09162665 0.09227951 -0.0136981495 0.0840648 0.031092403 -0.07323116 -0.066002466 0.019539291
-0.25361806 -0.15801929 0.13336201 -0.14749491 0.025257323 -0.10520654 0.09209551 0.06672313
-0.00077001017 -0.06949059 -0.10217447 -0.11462513 0.017593663 -0.20506816 0.16156444 -0.08966752
0.07830933 0.23274757 0.044763714 -0.10795122 -0.00027342522 0.091477446 0.10538103 0.12833968
0.075141534 -0.049226217 0.16075814 -0.0854461 -0.13638295 0.019438501 -0.085788555 0.07376043
0.01635493 -0.020689677 0.08387225 -0.07238243 -0.11256403 0.08642737 0.013152447 0.020185953
0.08260514 0.21308039 -0.084393 -0.11587719 0.23643835 0.13863137 0.07319132 -0.09581127
00000000: bf04 a0bd ce4d cc3d 4b09 bc3d 61a8 07bd
00000010: 0500 3bbd 034a 37bd fff3 c2bd b1ef 543e
00000020: c1a6 bbbd 0afd bc3d 346e 60bc 2a2a ac3d
00000030: 7fb5 fe3c 38fa 95bd 4d2c 87bd dd10 a03c
00000040: 3ada 81be cfcf 21be 0d90 083e e808 17be
00000050: 72e8 ce3c 8776 d7bd 929c bc3d 23a6 883d
00000060: 82da 49ba 1551 8ebd d940 d1bd 95c0 eabd
00000070: 9620 903c 63fd 51be 2671 253e 9ba3 b7bd
00000080: a460 a03d 6155 6e3e 285a 373d 8715 ddbd
00000090: 835a 8fb9 8758 bb3d 02d2 d73d 7a6b 033e
000000a0: cee3 993d 6ea1 49bd c89d 243e 5dfe aebd
000000b0: f9a7 0bbe 7e3d 9f3c e9b1 afbd b50f 973d
000000c0: c6fa 853c 667d a9bc 37c5 ab3d 3d3d 94bd
000000d0: f887 e6bd d500 b13d 5c7d 573c 035d a53c
000000e0: e22c a93d bf31 5a3e 3dd6 acbd 0551 edbd
000000f0: e51c 723e 62f5 0d3e 55e5 953d b338 c4bd
